model_AAE_1024/ep_100_discriminator_model.pth (torch_old, 21281 bytes, 7 tensors)

map_L1.weight f4 [256, 2]
0.13045463 0.102517515 0.19512177 0.19980907 0.14853692 0.077128746 0.026507728 0.07996348
-0.02609248 -0.09003757 -0.15961142 -0.082771406 -0.1331271 -0.019097077 0.11732195 -0.004351572
-0.13856682 0.028942958 -0.06965266 -0.15339026 0.0031571637 0.14859337 -0.11860994 0.010226078
-0.08353951 0.110399656 -0.1344391 0.18707705 -0.08810714 -0.14332521 0.038371656 0.13592447
-0.07465154 -0.16023925 -0.0040621934 0.23378184 -0.18822719 0.081923924 -0.06313161 -0.14047138
-0.0997332 0.015939515 -0.039574016 0.09444345 -0.0056597246 0.1116717 -0.061204463 0.10376039
-0.15110233 -0.05436007 0.08588735 0.030381892 -0.12333148 0.08177146 -0.05765453 0.07978791
-0.104948156 0.03874491 0.1382792 -0.03945149 -0.046367496 -0.06653843 -0.13532057 0.06510247
-0.10993272 -0.008964609 -0.14601995 -0.02577767 -0.0019221344 0.10078105 -0.15739292 0.032906726
-0.15496214 -0.027341686 0.025644397 -0.13254894 0.033137955 0.113570854 0.1451415 0.101742394
0.0047317375 -0.12598674 -0.082183026 -0.10577505 -0.03649356 -0.11333797 0.00058340013 -0.19884264
-0.027630214 0.037833713 -0.08737617 0.13575016 -0.08693246 -0.00665977 -0.112654604 -0.029467229
0.1541614 0.041520294 -0.12223691 -0.1395447 -0.08540552 -0.048619922 0.11260578 0.016154941
-0.16374809 0.046078995 0.14046079 -0.08964027 -0.07358474 0.1055904 -0.018605452 0.038997326
-0.15889567 -0.09317293 0.10209788 -0.0625421 -0.040536545 0.20822923 -0.13952534 -0.04623313
-0.017112184 0.032198608 0.04470657 0.01618384 -0.13391396 -0.08453312 0.000650326 -0.2512243
-0.1313372 0.04291017 0.026943682 -0.03772038 0.072180666 -0.10212687 -0.04627589 0.14606722
-0.0034321134 -0.08680519 0.062860996 0.07608345 0.14767794 -0.043301642 -0.0603176 -0.09259591
0.13018079 -0.036155626 0.1097226 -0.04717044 0.12976003 0.08089983 -0.118780896 -0.017473157
-0.039252978 -0.07301656 -0.031648893 0.07268496 -0.062341053 0.10715562 0.01105705 0.13363095
-0.09850434 -0.13340282 -0.062616475 -0.14302081 -0.0529014 -0.1149592 -0.06963233 0.10206456
-0.048246194 -0.16976295 -0.13635544 -0.0063807326 -0.11254538 -0.087167695 0.0026522432 -0.16063602
0.013830328 0.034070186 -0.117539056 -0.033026874 -0.05172436 -0.102529824 0.01919901 0.11775242
-0.036162525 -0.14140277 -0.102425516 -0.023623474 -0.0026523082 0.11044587 -0.1674193 0.055207953
0.09941707 -0.15987937 0.22496095 -0.06904753 -0.053780746 0.08489635 0.075602874 0.07215249
-0.0054820296 0.13375582 0.13770927 -0.18991607 0.011345627 0.0011069184 0.1600365 0.09735684
-0.04541299 -0.0056472407 0.12570071 -0.07332534 0.0022030827 0.10264488 -0.19224025 0.07069761
-0.15312755 -0.001056598 -0.14270975 -0.18881394 0.11399882 -0.0075035463 0.048204582 0.03722685
-0.07454593 -0.06573553 -0.017395433 0.15378611 0.0826721 0.10359602 0.021763274 -0.030338084
-0.011714177 0.07527896 -0.0767983 -0.02045481 0.116658226 0.090485625 0.047339626 -0.06375694
0.1128974 0.14416935 -0.13250782 0.068705 0.05463712 0.071432784 -0.07372721 -0.06486328
0.15943995 0.09693926 0.06890085 -0.0520131 0.118073866 0.14094615 0.011940867 -0.1373778
00000000: e695 053e b4f4 d13d 00ce 473e c09a 4c3e
00000010: 101a 183e adf5 9d3d bc26 d93c e5c3 a33d
00000020: e6bf d5bc 9e65 b8bd 2d71 23be 0e84 a9bd
00000030: 7852 08be 7971 9cbc 7e46 f03d a297 8ebb
00000040: 76e4 0dbe c819 ed3c 0ea6 8ebd 5612 1dbe
00000050: 6be8 4e3b dc28 183e c5e9 f2bd 488b 273c
00000060: c316 abbd 3719 e23d 67aa 09be 2091 3f3e
00000070: 8471 b4bd d8c3 12be 992b 1d3d c92f 0b3e
00000080: e8e2 98bd c215 24be 261c 85bb 8264 6f3e
00000090: a1be 40be bbc7 a73d 254b 81bd bbd7 0fbe
000000a0: ec40 ccbd 9693 823c 5d18 22bd 916b c13d
000000b0: 3675 b9bb 22b4 e43d 88b1 7abd 5480 d43d
000000c0: 92ba 1abe aaa8 5ebd b5e5 af3d 72e3 f83c
000000d0: 3795 fcbd cc77 a73d 2827 6cbd d867 a33d
000000e0: 0fef d6bd fcb2 1e3d 1099 0d3e e397 21bd
000000f0: d8eb 3dbd 4d45 88bd 7a91 0abe 7254 853d
00000100: 6824 e1bd 4ce0 12bc 4186 15be b12b d3bc
00000110: 21f0 fbba 4c66 ce3d 9c2b 21be 34c9 063d
00000120: 65ae 1ebe acfb dfbc 3314 d23c e9ba 07be
00000130: aabb 073d d697 e83d f99f 143e 515e d03d
00000140: b10c 9b3b ab02 01be 934f a8bd 97a0 d8bd
00000150: 457a 15bd bd1d e8bd 52ef 183a 689d 4bbe
00000160: c258 e2bc 86f7 1a3d 47f2 b2bd 1702 0b3e
00000170: a509 b2bd 333a dabb 75b7 e6bd 4265 f1bc
00000180: 7cdc 1d3e 2f11 2a3d 5857 fabd cee4 0ebe
00000190: 17e9 aebd af25 47bd dc9d e63d 5e57 843c
000001a0: 94ad 27be 54bd 3c3d f4d4 0f3e 5195 b7bd
000001b0: 99b3 96bd c83f d83d 766a 98bc a9bb 1f3d
000001c0: 8cb5 22be 73d1 bebd b118 d13d 1316 80bd
000001d0: a609 26bd 0b3a 553e bbdf 0ebe f35e 3dbd
000001e0: da2e 8cbc b0e2 033d 3d1e 373d f993 843c
000001f0: be20 09be b31f adbd a47a 2a3a 79a0 80be
00000200: 427d 06be 93c2 2f3d ffb8 dc3c af80 1abd
00000210: 75d3 933d e427 d1bd ca8b 3dbd a592 153e
00000220: 4fed 60bb ebc6 b1bd 44bd 803d a4d1 9b3d
00000230: e338 173e 105d 31bd 960f 77bd eda2 bdbd
00000240: 1d4e 053e ec17 14bd 3eb6 e03d cb35 41bd
00000250: d0df 043e cfae a53d 6643 f3bd de23 8fbc
00000260: bbc7 20bd b589 95bd 45a2 01bd dadb 943d
00000270: 5559 7fbd 6874 db3d a128 353c 8dd6 083e
00000280: a5bc c9bd c09a 08be 113d 80bd 0c74 12be
00000290: 23af 58bd bb6f ebbd 659b 8ebd 3907 d13d
000002a0: cd9d 45bd 57d6 2dbe c3a0 0bbe 7715 d1bb
000002b0: 317e e6bd fa84 b2bd 42d1 2d3b c57d 24be
000002c0: 9a98 623c 2e8d 0b3d 51b8 f0bd 3047 07bd
000002d0: ecdc 53bd 28fb d1bd 3e47 9d3c 2e28 f13d
000002e0: 281f 14bd e3cb 10be 78c4 d1bd 0486 c1bc
000002f0: 59d2 2dbb 7231 e23d f76f 2bbe bc21 623d
00000300: 2d9b cb3d 6bb7 23be 2a5c 663e cb68 8dbd
00000310: 3349 5cbd 23de ad3d aed5 9a3d afc4 933d
00000320: 99a2 b3bb 49f7 083e a903 0d3e 5c79 42be
00000330: 02e3 393c 0516 913a 9ce0 233e 0663 c73d
00000340: f902 3abd 7d0c b9bb b0b7 003e 992b 96bd
00000350: 9861 103b 7b37 d23d a1da 44be e9c9 903d
00000360: 78cd 1cbe 8c7d 8aba 8122 12be 7158 41be
00000370: 3778 e93d 4fe0 f5bb 2b72 453d 2e7b 183d
00000380: 89ab 98bd 59a0 86bd de80 8ebc 1b7a 1d3e
00000390: fd4f a93d 262a d43d e548 b23c 9387 f8bc
000003a0: d2ec 3fbc db2b 9a3d 6d48 9dbd d890 a7bc
000003b0: 82ea ee3d 8750 b93d 32e7 413d 0093 82bd
000003c0: c136 e73d 21a1 133e 21b0 07be 35b5 8c3d
000003d0: 2ccb 5f3d 5a4b 923d 4bfe 96bd 0ad7 84bd
000003e0: 3a44 233e 1788 c63d e41b 8d3d b00b 55bd
000003f0: b6d0 f13d 3054 103e a0a3 433c c4ac 0cbe

map_L1.bias f4 [256]
-0.032805458 -0.08194926 -0.05342924 0.011252557 0.020009907 0.055577 -0.022734612 -0.01341947
-0.019277118 -0.01970526 -0.028738193 0.009639767 0.012305092 0.001150836 -0.049998507 -0.02869812
0.021148618 -0.03916658 0.017820686 -0.01846777 0.0011502688 0.011305397 0.027801389 0.073407926
0.044980478 0.05023637 -0.034966495 0.0007310673 -0.07395519 0.0054366933 0.010644812 0.003760196
-0.05594022 0.021504259 -0.016565181 0.0011216084 0.03659768 -0.03367551 -0.044276364 -0.044415753
0.013966807 0.015706101 -0.009820404 0.03508385 0.00046260838 -0.012620215 -0.04922933 -0.064785875
-0.041514546 0.024676705 0.028641693 -0.021767946 0.0409183 0.02702002 0.008210636 0.048982225
0.0015970216 0.0023088804 -0.008047893 -0.02467297 0.029162344 0.044966836 0.025288366 0.04450993
0.026716113 0.020016639 0.000114920695 0.007188788 0.0039226483 -0.0048694927 -0.031026043 0.02261563
-0.046417776 -0.044217214 -0.0033940645 -0.048922434 0.021710431 0.07436087 0.04407455 0.011618276
0.022206392 -0.030344702 -0.028670045 0.006382296 0.04107177 0.01383154 0.0040190006 0.026837198
-0.0058934866 0.03266217 0.02984959 -0.027820012 0.010920034 0.02886289 -0.010351709 0.03394141
0.012355463 -0.046834238 0.0032556225 -0.019434877 -0.02096219 -0.002046728 0.024031479 -0.058308065
0.008990288 0.029234296 -0.019859552 0.024686843 0.019172153 0.005382111 -0.006236682 0.025441222
-0.027439607 -0.020499805 -0.030905804 -0.057981163 0.034914758 -0.038419247 0.043029286 0.03348928
-0.021053903 -0.024192574 0.023418257 0.028111093 -0.029039383 0.05639796 -0.021693448 0.009193579
0.0152457375 -0.018441632 0.06452835 0.023965001 -0.02134785 0.019128636 0.0028508143 0.087757565
-0.018625187 -0.050946906 -0.008833517 -0.04092219 0.05536741 -0.021110669 -0.039472673 0.012560337
-0.08846096 0.02708928 -0.07120758 -0.001307942 0.014143594 0.0066547375 -0.011311309 -0.042247705
-0.004449889 0.03751625 0.035369735 0.074843355 0.044492107 -0.05495237 -0.054270055 -0.054529987
0.019067423 0.013095366 -0.047190964 0.016767656 0.001889598 -0.012234658 -0.037478648 -0.0086255865
0.0077146795 -0.031214641 -0.060924005 -0.0077499296 -0.027528424 -0.046221346 -0.08436593 -0.040554382
0.0011313722 0.0008170997 0.039881986 0.00046604846 0.014143246 0.003939021 0.06465742 0.027929548
0.001364118 0.06312353 0.025716309 -0.043630604 0.023413153 0.05813376 0.0021700857 -0.07692798
-0.050891325 -0.055720482 0.021968903 0.011234719 -0.0021760515 0.025292492 -0.06638773 -0.022437593
0.008358606 -0.026397966 0.028076472 0.020831566 -0.00929718 0.03545266 0.054512497 0.05180306
-0.01694988 -0.00073925377 0.010660538 -0.031189233 -0.0034006455 0.051119406 -0.03409946 -0.001385218
-0.028901283 0.017051456 0.030800015 -0.009493373 0.003164972 0.025115214 0.064671956 0.045355465
0.025979638 0.03291038 -0.02401777 -0.04684423 -0.031403188 0.022478817 0.028118346 0.03179312
0.036803693 -0.0009965571 0.019993486 -0.024825945 0.0382057 -0.05099367 -0.039925665 -0.014945849
0.03680619 0.026366448 -0.0012751359 -0.036537305 0.001138518 0.01686325 -0.031355068 0.023698436
0.01310012 0.0073707765 0.04253924 0.04158328 -0.09302067 -0.015030165 0.044397064 -0.06265271
00000000: 045f 06bd 03d5 a7bd 9ed8 5abd a55c 383c
00000010: d1eb a33c b5a4 633d f03d babc 56dd 5bbc
00000020: 0ceb 9dbc ed6c a1bc 5c6c ebbc 1df0 1d3c
00000030: 4c9b 493c a6d7 963a 3ccb 4cbd 5218 ebbc
00000040: de3f ad3c 236d 20bd b0fc 913c b949 97bc
00000050: 9ec4 963a 463a 393c bdbf e33c e556 963d
00000060: 733d 383d a7c4 4d3d 0739 0fbd 19a5 3f3a
00000070: d275 97bd 4a26 b23b 9467 2e3c 9f6d 763b
00000080: 9221 65bd b329 b03c b4b3 87bc ef02 933a
00000090: 73e7 153d 55ef 09bd 225b 35bd 4bed 35bd
000000a0: 09d5 643c 15aa 803c c3e5 20bc 15b4 0f3d
000000b0: 3f8a f239 05c5 4ebc b2a4 49bd 75ae 84bd
000000c0: 280b 2abd cd26 ca3c fca1 ea3c b152 b2bc
000000d0: f399 273d 1759 dd3c e785 063c 96a1 483d
000000e0: 2753 d13a 9650 173b 4fdb 03bc f81e cabc
000000f0: dee5 ee3c 252f 383d 8c29 cf3c 0b50 363d
00000100: c0db da3c eff9 a33c 9401 f138 ed8f eb3b
00000110: 8f89 803b 4490 9fbb 542a febc 6a44 b93c
00000120: 9120 3ebd 1c1d 35bd f46e 5ebb e462 48bd
00000130: 13da b13c 834a 983d 8487 343d 955a 3e3c
00000140: 2eea b53c 7495 f8bc 71dd eabc 9422 d13b
00000150: df3a 283d af9d 623c d2b1 833b afd9 db3c
00000160: 261e c1bb c4c8 053d 2187 f43c cbe6 e3bc
00000170: f1e9 323c de71 ec3c 379a 29bc 2606 0b3d
00000180: 916e 4a3c 42d5 3fbd 485c 553b e435 9fbc
00000190: e6b8 abbc 6622 06bb aadd c43c 70d4 6ebd
000001a0: 004c 133c c37c ef3c 80b0 a2bc 103c ca3c
000001b0: eb0e 9d3c 6b5c b03b 155d ccbb 1c6a d03c
000001c0: 07c9 e0bc 35ef a7bc 2b2e fdbc a87d 6dbd
000001d0: c702 0f3d 805d 1dbd 7a3f 303d 0e2c 093d
000001e0: 3c79 acbc 812f c6bc a5d7 bf3c 3c49 e63c
000001f0: 00e4 edbc 8c01 673d 75b6 b1bc aaa0 163c
00000200: 42c9 793c e812 97bc 7127 843d 4052 c43c
00000210: b0e1 aebc a8b3 9c3c bad4 3a3b 3dba b33d
00000220: d993 98bc b4ad 50bd 75ba 10bc 079e 27bd
00000230: f0c8 623d 48f0 acbc 19ae 21bd dfc9 4d3c
00000240: 052b b5bd 56ea dd3c 48d5 91bd 406f abba
00000250: 88ba 673c fc0f da3b 1253 39bc ee0b 2dbd
00000260: 60d0 91bb a4aa 193d dbdf 103d 7947 993d
00000270: 5b3d 363d bc15 61bd 474a 5ebd d65a 5fbd
00000280: 4933 9c3c f28d 563c 504b 41bd 535c 893c
00000290: 63ac f73a e073 48bc 3683 19bd 5552 0dbc
000002a0: 6ccb fc3b d9b5 ffbc 738b 79bd 1ff3 fdbb
000002b0: 4a83 e1bc 9852 3dbd 0bc8 acbd 5a1c 26bd
000002c0: 8d4a 943a a232 563a 4b5b 233d f757 f439
000002d0: 13b9 673c e712 813b 1c6b 843d 82cc e43c
000002e0: 34cc b23a e946 813d 02ab d23c 01b6 32bd
000002f0: f1cc bf3c aa1d 6e3d ff37 0e3b 6b8c 9dbd
00000300: 6c73 50bd 293b 64bd 21f8 b33c d411 383c
00000310: 169c 0ebb 3332 cf3c 4af6 87bd 0bcf b7bc
00000320: 89f2 083c 8c40 d8bc a100 e63c f6a6 aa3c
00000330: 3353 18bc cf36 113d 7f48 5f3d 722f 543d
00000340: 7ada 8abc 7bca 41ba 8aa9 2e3c 9080 ffbc
00000350: 5ddd 5ebb 9562 513d e0ab 0bbd 3490 b5ba
00000360: 62c2 ecbc 7faf 8b3c 5050 fc3c 188a 1bbc
00000370: 6b6b 4f3b 6cbe cd3c bb72 843d a7c6 393d
00000380: 40d3 d43c 09cd 063d eac0 c4bc bcdf 3fbd
00000390: a1a0 00bd 7f25 b83c 7258 e63c 8139 023d
000003a0: 78bf 163d e89e 82ba 61c9 a33c c85f cbbc
000003b0: 957d 1c3d bdde 50bd 1889 23bd 6fdf 74bc
000003c0: 16c2 163d 73fe d73c 7622 a7ba 24a8 15bd
000003d0: 533a 953a cc24 8a3c 2c6e 00bd 3923 c23c
000003e0: e3a1 563c 8e86 f13b a03d 2e3d 3b53 2a3d
000003f0: 9f81 bebd 1541 76bc b2d9 353d 1050 80bd

map_L2.weight f4 [16, 256]
0.112756535 -0.038984746 0.05384022 0.03322087 0.062132314 0.05271415 0.06482039 -0.124344684
0.023974445 0.039079864 0.09281225 0.1514838 -0.006131698 0.005787183 -0.07525836 0.010419809
0.07142768 0.07580941 -0.10577049 0.069962315 0.15508614 -0.0541356 0.15252165 0.14071307
-0.042194646 -0.09024631 0.12646829 0.07383809 0.12623057 -0.06661111 -0.14645562 0.011505893
0.13880591 0.01492107 -0.012698428 0.11475574 0.063973084 -0.052417547 0.13394077 0.00010145525
0.0672072 -0.041330975 0.120916784 -0.07671522 -0.12526117 0.126244 0.10118863 0.1417389
-0.013106253 0.0055102203 -0.075526506 -0.08047777 -0.15426539 -0.09016318 0.16706528 0.15310083
-0.008666024 0.030643083 0.108734705 0.11291258 -0.028054586 0.12307478 -0.023990966 -0.08027134
-0.017854426 -0.1256577 -0.041764397 -0.019832645 -0.17482439 0.13071862 0.017675063 0.116111554
-0.20416658 -0.12332817 0.11740067 0.09364753 0.05880537 0.08568245 0.18515465 0.14220238
-0.10879941 -0.016817432 -0.065086626 0.063489415 -0.1558919 0.09703182 0.14217097 0.081941865
0.075164095 0.0991394 -0.13287751 0.044601995 -0.10644619 0.15000111 -0.021816751 0.122128345
-0.2512901 -0.12550746 -0.024144031 -0.14244314 0.12348741 -0.22886656 0.020774145 -0.068959326
-0.027879184 0.07072913 -0.05786159 0.07416449 -0.1342216 -0.13859554 0.062091082 0.034551807
0.068508536 0.010740972 -0.12825604 -0.13100721 -0.08169136 0.037479844 -0.06589965 -0.17766666
0.059238877 0.07378282 -0.096559994 0.10259581 -0.11242288 -0.04615681 0.096981965 0.026730176
0.049829546 0.121462576 -0.08014257 0.14210911 -0.16591431 -0.14651076 -0.019457785 0.0043505067
-0.119452424 0.10369463 -0.055580087 0.11961703 -0.15354677 -0.09068581 0.14433524 0.074128695
-0.14239326 -0.046369787 0.07278207 -0.053455357 0.14938116 0.020836886 -0.041924953 0.118678555
-0.1409496 -0.08124851 0.10338834 0.121611625 -0.1428501 -0.14143161 -0.050314285 -0.10098652
0.055902157 0.06952546 0.15274794 0.022461258 0.10642586 0.09439815 0.13940537 -0.02686286
0.07985186 0.060378816 -0.014043583 0.15153821 -0.038388863 -0.12272888 -0.06826239 0.056719285
-0.05836921 -0.010610858 0.11556115 0.05280962 0.10100287 0.0684421 0.126163 -0.17381851
0.103324205 -0.17740321 0.09229887 0.011709942 0.026337067 0.13502125 0.058339935 0.01192049
-0.089270204 -0.091078795 -0.057511717 -0.13098434 -0.22990657 0.023069298 0.034273665 -0.117481045
-0.11847316 0.17374972 -0.092726424 0.042609483 -0.048632722 -0.04755821 -0.22340548 0.068531714
0.1344415 -0.13822527 0.062151674 -0.15509212 0.17276643 0.1473882 -0.007832971 -0.18835217
-0.039983813 0.044018608 8.928025e-06 -0.11470528 0.04904507 0.07903793 0.14891922 0.09325343
-0.017239157 -0.009168367 0.07049283 0.008902078 -0.03206641 0.106763795 -0.114727855 -0.18749534
-0.1147145 0.15365171 -0.09119982 0.088361464 -0.0028784208 -0.022791486 -0.05078414 0.04800728
-0.14148071 0.10161767 -0.18220586 -0.064614035 0.12584555 -0.12943457 -0.08958846 0.1068851
0.02267475 0.12427137 0.13252278 0.11074222 -0.16176663 -0.09880311 -0.069304496 -0.057150226
00000000: e6ec e63d 78ae 1fbd 9087 5c3d 9b12 083d
00000010: 747e 7e3d cbea 573d 8dc0 843d 6da8 febd
00000020: 0e66 c43c 3512 203d 5914 be3d 921e 1b3e
00000030: 69ec c8bb 69a2 bd3b 0e21 9abd d9b7 2a3c
00000040: ad48 923d f741 9b3d 339e d8bd 6748 8f3d
00000050: e7ce 1e3e 4abd 5dbd a32e 1c3e 1617 103e
00000060: 4bd4 2cbd 0fd3 b8bd e780 013e 6d38 973d
00000070: 9642 013e 686b 88bd 76f8 15be 3783 3c3c
00000080: 2323 0e3e 8177 743c 110d 50bc 0f05 eb3d
00000090: 5204 833d c8b3 56bd c527 093e 5fc4 d438
000000a0: eea3 893d ab4a 29bd 38a3 f73d df1c 9dbd
000000b0: 7744 00be 1b46 013e fc3b cf3d 0124 113e
000000c0: 9cbb 56bc 148f b43b a4ad 9abd 87d1 a4bd
000000d0: bff7 1dbe 79a7 b8bd 2913 2b3e 77c6 1c3e
000000e0: f0fb 0dbc 3407 fb3c 4db0 de3d b63e e73d
000000f0: bbd2 e5bc a10e fc3d b488 c4bc 4d65 a4bd
00000100: 7243 92bc 69ac 00be 2511 2bbd 1278 a2bc
00000110: 2a05 33be 1adb 053e 4bcb 903c e5cb ed3d
00000120: 0b11 51be 7b93 fcbd c36f f03d 47ca bf3d
00000130: e6dd 703d 487a af3d 2e99 3d3e 809d 113e
00000140: 3ad2 debd b6c4 89bc 234c 85bd bd06 823d
00000150: 20a2 1fbe 9eb8 c63d 4495 113e 23d1 a73d
00000160: a2ef 993d 9909 cb3d 0b11 08be 95b0 363d
00000170: 7600 dabd e499 193e 0bb9 b2bc 6d1e fa3d
00000180: 19a9 80be 0785 00be b4c9 c5bc 9ddc 11be
00000190: f8e6 fc3d ff5b 6abe 8a2e aa3c 8c3a 8dbd
000001a0: e362 e4bc 6fda 903d 4600 6dbd 8de3 973d
000001b0: 6371 09be fdeb 0dbe 3853 7e3d 3286 0d3d
000001c0: 344e 8c3d e7fa 2f3c 8d55 03be c126 06be
000001d0: cd4d a7bd 7784 193d 65f6 86bd 40ee 35be
000001e0: 77a4 723d 721b 973d 3fc1 c5bd c11d d23d
000001f0: f83d e6bd ec0e 3dbd 7b9e c63d 3ef9 da3c
00000200: 111a 4c3d 5fc1 f83d ca21 a4bd 0d85 113e
00000210: 71e5 29be eb06 16be ef65 9fbc b28e 8e3b
00000220: 79a3 f4bd da5d d43d f2a7 63bd c6f9 f43d
00000230: 5d3b 1dbe 7bb9 b9bd 9ecc 133e c9d0 973d
00000240: 8acf 11be 3fee 3dbd c40e 953d 01f4 5abd
00000250: 60f7 183e 1eb2 aa3c 80b9 2bbd be0d f33d
00000260: 1855 10be 9e65 a6bd 44bd d33d 840f f93d
00000270: 4c47 12be 73d3 10be 5a16 4ebd 05d2 cebd
00000280: a9f9 643d 5d63 8e3d f569 1c3e ac00 b83c
00000290: cdf5 d93d d153 c13d 48c0 0e3e 800f dcbc
000002a0: 5f89 a33d c74f 773d 0e17 66bc d52c 1b3e
000002b0: a43d 1dbd 4759 fbbd 27cd 8bbd 7b52 683d
000002c0: 8e14 6fbd 2ad9 2dbc 53ab ec3d e64e 583d
000002d0: 98da ce3d 5f2b 8c3d e030 013e 7bfd 31be
000002e0: a49b d33d 30a9 35be 3107 bd3d 0edb 3f3c
000002f0: d5c0 d73c 0343 0a3e dbf5 6e3d 294e 433c
00000300: 4cd3 b6bd 8587 babd 6891 6bbd c220 06be
00000310: a16c 6bbe d3fb bc3c 8b62 0c3d e799 f0bd
00000320: 0ea2 f2bd 72eb 313e 5ae7 bdbd 4887 2e3d
00000330: 1b33 47bd 66cc 42bd 68c4 64be 5b5a 8c3d
00000340: 08ab 093e ed8a 0dbe c192 7e3d 78d0 1ebe
00000350: afe9 303e efec 163e dd55 00bc 64df 40be
00000360: 11c6 23bd db4c 343d 93c9 1537 9aea eabd
00000370: 7ce3 483d a3de a13d 487e 183e a8fb be3d
00000380: 2239 8dbc eb36 16bc 8b5e 903d 05da 113c
00000390: 1158 03bd faa6 da3d 70f6 eabd c7fe 3fbe
000003a0: 70ef eabd e056 1d3e f9c6 babd dbf6 b43d
000003b0: e3a3 3cbb 36b5 babc 0803 50bd 48a3 443d
000003c0: 52e0 10be ed1c d03d 2c94 3abe 5d54 84bd
000003d0: a8dd 003e 7f8a 04be 287a b7bd 93e6 da3d
000003e0: 66c0 b93c fd81 fe3d 0db4 073e d1cc e23d
000003f0: 27a6 25be 4959 cabd 84ef 8dbd 5b16 6abd

map_L2.bias f4 [16]
0.02005355 0.0025101523 0.12920025 -0.037917975 -0.019089878 0.029912882 -0.002731558 0.024494413
-0.014154931 -0.024551619 -0.04707039 -0.021079067 0.01723428 -0.04397731 -0.10248377 -0.032100514
00000000: 5847 a43c 5e81 243b 124d 043e e14f 1bbd
00000010: 6062 9cbc dc0b f53c f003 33bb 82a8 c83c
00000020: 15ea 67bc 7a20 c9bc e2cc 40bd 02ae acbc
00000030: e82e 8d3c 8d21 34bd 03e3 d1bd d47b 03bd

map_L3.weight f4 [4, 16]
0.26175874 -0.49383038 -0.20951359 -0.4778691 -0.2731873 0.33356866 -0.41167712 0.1574533
0.16800292 -0.5160921 -0.5376989 0.7011064 -0.47868082 -0.26045987 -0.21488544 -0.31025356
-0.432876 0.34349257 -0.16867651 -0.61297065 0.18061876 0.135011 -0.14738671 0.56448823
-0.1824697 0.07852659 -0.46068016 0.4694823 -0.3676581 -0.46295688 -0.532961 0.16591763
-0.3411664 -0.4332389 -0.30824283 -0.3414022 -0.29230925 0.3671855 0.4510299 0.14784592
0.589276 0.426531 0.52510744 -0.5427762 0.08658698 -0.17083657 -0.46886817 -0.020178242
-0.1504651 -0.04078763 -0.45121256 -0.069096565 0.08344109 0.014173676 0.17427601 -0.29230943
0.1271958 0.5713306 0.022717796 0.67156327 0.3284855 0.3051674 0.3643182 0.5513246
00000000: 3e05 863e 56d7 fcbe bb8a 56be 42ab f4be
00000010: 35df 8bbe 83c9 aa3e 58c7 d2be 703b 213e
00000020: f508 2c3e 9d1e 04bf a3a6 09bf b67b 333f
00000030: a715 f5be ff5a 85be ee0a 5cbe 8ed9 9ebe
00000040: eca1 ddbe 42de af3e 89b9 2cbe a5eb 1cbf
00000050: 20f4 383e 5340 0a3e 8bec 16be 4d82 103f
00000060: 56d9 3abe 8cd2 a03d 45de ebbe fc5f f03e
00000070: af3d bcbe af08 edbe 2270 08bf 50e6 293e
00000080: 5dad aebe 7dd1 ddbe 01d2 9dbe 45cc aebe
00000090: 8fa9 95be bdff bb3e 64ed e63e ec64 173e
000000a0: cbda 163f 4562 da3e 716d 063f 62f3 0abf
000000b0: 8454 b13d c8ef 2ebe 7d0f f0be d74c a5bc
000000c0: 8613 1abe ee10 27bd 5505 e7be 8082 8dbd
000000d0: 2ae3 aa3d b538 683c 6975 323e 95a9 95be
000000e0: 9e3f 023e b942 123f ac1a ba3c 92eb 2b3f
000000f0: 402f a83e e73e 9c3e ea87 ba3e 9c23 0d3f

map_L3.bias f4 [4]
0.02419667 0.030273788 0.01160527 -0.082764156
00000000: 1838 c63c bc00 f83c 0824 3e3c 4180 a9bd

map_L4.weight f4 [1, 4]
-1.1328785 -1.4257835 0.041879088 -0.90706444
00000000: 2a02 91bf 1380 b6bf 6889 2b3d 6035 68bf
