model_AAE_1024/ep_100_decoder_model.pth (torch_old, 708349 bytes, 10 tensors)

map_L1.weight f4 [4, 2]
1.2254083 0.65694296 0.83020127 0.57567364 -0.24874957 -1.2912544 -0.35253578 1.195965
00000000: 2eda 9c3f 6a2d 283f 1288 543f 595f 133f
00000010: 35b8 7ebe d347 a5bf 927f b4be 6215 993f

map_L1.bias f4 [4]
-0.41185972 0.12413757 0.5581329 0.11747238
00000000: 47df d2be d73b fe3d cce1 0e3f 5c95 f03d

map_L2.weight f4 [16, 4]
-1.1965094 -0.49752635 0.9189388 -0.7122934 0.75924426 0.4861125 -0.762027 0.38942578
-0.3179299 -0.22249506 1.1049904 0.28150728 -0.046061914 0.6290032 -1.3842566 0.8193905
0.8425449 0.45943937 0.79222566 -0.6713061 1.00992 0.4592579 0.85575974 -0.64252114
-0.08598682 -0.020200998 0.55013627 0.28994584 0.91256654 0.619514 -0.22375229 0.035730265
-0.7248402 0.4471632 -0.15417717 0.727435 -0.070102856 0.55851316 -0.7918854 0.63723695
-0.5650322 0.19860876 0.88965315 -0.24108826 0.21631502 -0.067452684 -0.14971274 -0.65204805
0.74206495 -0.4589528 0.40900707 -0.42891172 0.2593008 0.48989174 1.3624586 -0.8495898
0.37310836 0.46399888 1.605998 -0.8715994 0.46818945 0.45838213 -0.9609162 0.32215473
00000000: 3827 99bf c6bb febe 933f 6b3f dc58 36bf
00000010: d55d 423f bde3 f83e 3414 43bf d162 c73e
00000020: b5c7 a2be bfd5 63be 5370 8d3f b921 903e
00000030: 6bab 3cbd 5b06 213f 522f b1bf 93c3 513f
00000040: 06b1 573f a33b eb3e 4dcf 4a3f b7da 2bbf
00000050: 0f45 813f da23 eb3e 1213 5b3f 447c 24bf
00000060: dc19 b0bd 907c a5bc bbd5 0c3f c873 943e
00000070: f69d 693f 7898 1e3f 521f 65be e659 123d
00000080: 218f 39bf 93f2 e43e 9fe0 1dbe 2e39 3a3f
00000090: 1692 8fbd b8fa 0e3f 00b9 4abf f621 233f
000000a0: f3a5 10bf 1860 4b3e 4fc0 633f d7df 76be
000000b0: af81 5d3e a224 8abd 4c4e 19be 9fec 26bf
000000c0: f8f7 3d3f ddfb eabe 6069 d13e 519a dbbe
000000d0: 13c3 843e 17d3 fa3e 0b65 ae3f b87e 59bf
000000e0: 0f08 bf3e 4391 ed3e 5891 cd3f 2321 5fbf
000000f0: 87b6 ef3e 10b1 ea3e 9bfe 75bf 77f1 a43e

map_L2.bias f4 [16]
0.20626964 -0.08981795 0.7620985 0.023535032 -0.16538261 -0.27458152 0.43523782 -0.21535204
0.5019419 0.20057985 0.79264045 -0.8141277 -0.5592821 0.5745336 0.60980123 0.0011371411
00000000: 5938 533e 79f2 b7bd e318 433f 8acc c03c
00000010: 0f5a 29be f395 8cbe 7ed7 de3e 3f85 5cbe
00000020: 447f 003f ce64 4d3e 7cea 4a3f ac6a 50bf
00000030: 1d2d 0fbf a214 133f ef1b 1c3f 200c 953a

map_L3.weight f4 [64, 16]
0.061759662 -0.40097803 0.30961165 -0.31537902 0.29625386 -0.04784911 -0.109628245 -0.12732391
-0.13908377 -0.12244279 -0.0012848218 -0.081378326 -0.17236905 -0.23698556 -0.18459137 -0.2128351
-0.60789025 0.42288017 -0.5930153 0.28916922 0.8745375 1.2998328 -0.1612602 0.8962242
-0.71189386 -0.38448918 -1.006546 0.45273024 0.44144925 -0.32119823 -0.24874207 0.33117715
-0.13224427 0.27543744 -0.17383656 0.72432977 -0.42267722 -0.22214803 -0.18979414 0.3755389
0.3478367 0.5153188 0.098989815 -0.101718634 -0.296739 -0.39122292 -0.33555102 0.24783587
-0.23505545 0.27077517 0.16995794 0.39221722 -0.20354974 -0.29597396 0.14403576 0.062883295
-0.02566228 0.27066717 -0.13019542 0.0020159928 0.11862965 0.18684268 0.19915824 0.09038109
-0.055900186 0.5530632 -0.28737888 -0.034713358 0.5895291 0.4148171 0.09901601 0.77438694
-0.22349156 0.029849444 -0.18805653 0.010038046 0.058056206 0.1491901 0.352287 0.31816825
-0.5299258 0.64429426 -0.65765774 0.11710173 0.7071074 0.8361828 -0.28710747 1.0886027
-0.24159148 0.25429183 -0.3425976 0.1791601 0.2675419 -0.2261976 -0.00663722 0.31056854
-0.79724884 0.41640428 0.20210892 0.7580784 -0.6120117 -0.5322328 0.41206288 0.36329645
0.12432539 0.44629025 -0.16451064 -0.40579772 -0.32590467 -0.48796096 -0.45746535 0.18456659
0.2246652 -0.6677355 -0.34991565 -1.430339 0.85865587 0.5634511 -0.13765885 -0.27494025
-0.20784393 -0.61501795 0.3238145 0.2436457 0.55217266 0.5588327 0.49077564 -0.8986394
0.24853455 -0.19734187 0.6467586 -0.27499568 0.061834853 -0.32225123 0.2813173 0.36104822
-0.036027443 -0.05290474 0.8580895 -0.20013024 -0.21339142 0.63442546 0.30670807 -0.102173306
0.098593235 -0.24794374 -0.049655624 -0.33801973 0.10132885 0.17859504 0.042996515 -0.34777832
-0.15640552 -0.26310742 0.027800865 -0.2535536 -0.107760735 -0.09983784 -0.21563835 -0.08901957
-0.38641945 -0.116024 0.5199087 0.38102552 -0.42698902 -0.53872776 0.35843965 -0.1686971
0.46093002 0.4579262 0.019339914 -0.43765798 -0.34686035 -0.30141246 -0.3814523 0.38309315
-0.4889947 0.57687944 -0.39446956 0.29015636 -0.10283438 0.14691317 -0.28778234 0.63822585
-0.15263352 0.3412788 -0.37762585 0.13122022 -0.06521006 -0.37796795 -0.08724947 0.5108226
1.4993953 -0.65941346 0.094553314 -0.5509039 0.22811319 -0.09839937 -0.039664593 -0.71901697
-0.346831 -0.34387848 0.37925908 -0.02699824 -0.06696599 0.20362599 0.007079005 -0.7772032
-0.14750119 0.12070294 0.30891266 0.26424316 -0.3292778 -0.50135815 0.14818908 -0.103682205
0.424665 0.22860382 0.24725279 -0.24019131 -0.56533766 0.27387837 0.22294211 0.20897557
-0.9047767 0.34881946 -0.6314816 0.35592863 0.92923075 1.2299922 -0.23825839 0.36471364
-0.5940416 -0.059722356 -1.080087 0.3817765 0.71403974 -0.44983235 0.042495854 0.2777703
0.23520152 0.07166672 0.26909515 0.31263432 0.063546635 -0.34076095 0.051126283 0.3250682
0.3883121 0.29767078 0.5824649 -0.17297076 -0.2277438 0.4557937 0.5176278 0.045967568
00000000: b3f7 7c3d fe4c cdbe 6b85 9e3e 5c79 a1be
00000010: 96ae 973e 6efd 43bd c684 e0bd 3361 02be
00000020: fa6b 0ebe 49c3 fabd 7767 a8ba aea9 a6bd
00000030: 8381 30be 58ac 72be 8505 3dbe 72f1 59be
00000040: b29e 1bbf c083 d83e dacf 17bf fd0d 943e
00000050: b1e1 5f3f ec60 a63f 6521 25be f36e 653f
00000060: ad3e 36bf c4db c4be 80d6 80bf 42cc e73e
00000070: a305 e23e 1874 a4be 3eb6 7ebe 0d90 a93e
00000080: 0b6b 07be 2306 8d3e 3602 32be ad6d 393f
00000090: 2669 d8be c67a 63be 6559 42be a246 c03e
000000a0: a717 b23e efeb 033f 2cbb ca3d dc51 d0bd
000000b0: 2dee 97be 5f4e c8be 58cd abbe b0c8 7d3e
000000c0: 60b2 70be 0ba3 8a3e 7409 2e3e b2d0 c83e
000000d0: 586f 50be e689 97be 1c7e 133e f5c8 803d
000000e0: b439 d2bc e394 8a3e f351 05be bf1e 043b
000000f0: 1af4 f23d b053 3f3e 23f0 4b3e b919 b93d
00000100: 98f7 64bd 8d95 0d3f 5323 93be 982f 0ebd
00000110: 61eb 163f e862 d43e e8c8 ca3d 393e 463f
00000120: f9da 64be d286 f43c e491 40be 9e76 243c
00000130: 58cc 6d3d 4ac5 183e f65e b43e f3e6 a23e
00000140: 38a9 07bf 78f0 243f 425c 28bf 08d3 ef3d
00000150: fe04 353f 1310 563f c0ff 92be 5557 8b3f
00000160: c263 77be 8a32 823e f468 afbe bf75 373e
00000170: 40fb 883e 58a0 67be 097d d9bb d702 9f3e
00000180: 8018 4cbf f132 d53e a4f5 4e3e 6d11 423f
00000190: ccac 1cbf 6940 08bf e8f9 d23e fe01 ba3e
000001a0: 4f9e fe3d 2880 e43e 7a75 28be b8c4 cfbe
000001b0: fadc a6be 05d6 f9be e638 eabe 06ff 3c3e
000001c0: a20e 663e b7f0 2abf 2528 b3be 5915 b7bf
000001d0: dfd0 5b3f 553e 103f 71f6 0cbe f8c4 8cbe
000001e0: 0ad5 54be d171 1dbf 04cb a53e 427e 793e
000001f0: 305b 0d3f a90f 0f3f f246 fb3e 3b0d 66bf
00000200: d77f 7e3e fd13 4abe f991 253f 3ccc 8cbe
00000210: 8b46 7d3d 1dfe a4be d208 903e 50db b83e
00000220: 8391 13bd a4b2 58bd c1ab 5b3f f1ee 4cbe
00000230: 4883 5abe b569 223f d708 9d3e 3d40 d1bd
00000240: 40eb c93d f7e4 7dbe b263 4bbd ec10 adbe
00000250: 8085 cf3d 9ee1 363e 1d1d 303d 0010 b2be
00000260: c528 20be 04b6 86be a4be e33c c7d1 81be
00000270: a9b1 dcbd c877 ccbd 4dd0 5cbe e44f b6bd
00000280: c5d8 c5be fe9d edbd bd18 053f c715 c33e
00000290: 4e9e dabe 10ea 09bf 6785 b73e efbe 2cbe
000002a0: 05ff eb3e 4e75 ea3e bd6e 9e3c b514 e0be
000002b0: ae97 b1be bc52 9abe b74d c3be c924 c43e
000002c0: 835d fabe 5fae 133f eaf7 c9be 608f 943e
000002d0: d59a d2bd 6870 163e 3558 93be c562 233f
000002e0: f64b 1cbe 18bc ae3e 2d58 c1be 985e 063e
000002f0: da8c 85bd 0485 c1be daaf b2bd 45c5 023f
00000300: 2fec bf3f 52cf 28bf 2ba5 c13d 0a08 0dbf
00000310: 8196 693e 9c85 c9bd 5777 22bd 7f11 38bf
00000320: d593 b1be d710 b0be 3f2e c23e 6a2b ddbc
00000330: 7725 89bd 5583 503e fff6 e73b caf6 46bf
00000340: 8d0a 17be 1a33 f73d cd29 9e3e e14a 873e
00000350: 1a97 a8be 0259 00bf e1be 173e 5657 d4bd
00000360: b16d d93e 1f17 6a3e d62f 7d3e b6f4 75be
00000370: f8b9 10bf c939 8c3e f04a 643e b1fd 553e
00000380: 729f 67bf 7798 b23e c7a8 21bf 473c b63e
00000390: 11e2 6d3f 6270 9d3f 02fa 73be bfbb ba3e
000003a0: 1c13 18bf 6e9f 74bd 4a40 8abf 3678 c33e
000003b0: 4fcb 363f 6d50 e6be 2210 2e3d e937 8e3e
000003c0: abd8 703e 00c6 923d d7c6 893e 9b11 a03e
000003d0: bd24 823d 3878 aebe cb69 513d 576f a63e
000003e0: d8d0 c63e 4e68 983e 6b1c 153f 3f1f 31be
000003f0: ac35 69be cb5d e93e 4183 043f 7d48 3c3d

map_L3.bias f4 [64]
-0.06884213 -0.5368335 0.19809131 0.2152441 -0.023747364 -0.11296778 0.23784754 -0.21117356
0.42714107 -0.15643904 0.4036874 -0.26654428 -0.14197838 0.5642257 -0.45481962 0.5450568
-0.63703656 0.1983948 -0.1630048 -0.3762384 -0.18866873 0.029852206 -0.22291176 -0.31249693
-0.49436033 -0.3585392 -0.22776103 0.03566373 -0.53850776 -0.49083757 -0.23836449 0.48000717
0.15687075 0.47589695 -0.16924748 0.77282757 0.37917995 0.41541442 -0.06910774 0.12620246
-0.75166565 0.19671056 -0.3676783 0.24140204 -0.60568595 0.5863982 -0.542426 -0.4836967
0.20590085 0.5821631 0.5567675 -0.41240183 0.49235559 0.5045884 0.13254064 -0.3877772
0.010358812 0.56471753 0.26011205 -0.32672086 -0.5123419 -0.4708692 0.010058024 0.52034855
00000000: 1afd 8cbd ec6d 09bf 73d8 4a3e f368 5c3e
00000010: d589 c2bc a75b e7bd 4e8e 733e e23d 58be
00000020: 3cb2 da3e 8e31 20be 1db0 ce3e 7e78 88be
00000030: c862 11be 1871 103f 1ede e8be d888 0b3f
00000040: d414 23bf 0228 4b3e bbea 26be 52a2 c0be
00000050: 6032 41be 9d8c f43c fb42 64be 99ff 9fbe
00000060: cc1c fdbe 7392 b7be 303a 69be 2214 123d
00000070: a5db 09bf 104f fbbe d215 74be 80c3 f53e
00000080: baa2 203e c4a8 f33e 364f 2dbe 07d8 453f
00000090: e023 c23e 33b1 d43e 5c88 8dbd 383b 013e
000000a0: 296d 40bf 7e6e 493e 5540 bcbe 1932 773e
000000b0: 3c0e 1bbf 311e 163f 6edc 0abf 18a7 f7be
000000c0: acd7 523e a408 153f 5188 0e3f 5526 d3be
000000d0: 0816 fc3e b52c 013f bcb8 073e bc8a c6be
000000e0: 02b8 293c 5491 103f 682d 853e f547 a7be
000000f0: d728 03bf c515 f1be 69ca 243c 9035 053f

map_L4.weight f4 [256, 64]
0.041388143 -0.34612012 -0.051307708 0.14325844 -0.05743682 0.54941213 -0.21081692 -0.37272844
-0.00010036152 -0.022713033 -0.0027976683 -0.17695706 0.15105142 0.16888592 -0.35055783 -0.09912464
-0.025292983 -0.06329417 -0.13911618 0.44621423 -0.19240658 0.29225436 -0.03947306 0.072289854
0.02367796 -0.7733424 0.36712018 0.24334404 -0.13433738 0.03352359 -0.020419203 -0.08575768
0.13718046 0.022984158 0.15562482 0.026152646 -0.0192812 0.058725562 -0.31267124 -0.01458634
0.24246718 0.14512965 -0.05796934 -0.1729216 -0.0010661987 0.05012663 0.004762482 -0.057216685
-0.055087708 -0.015245294 -0.032654654 0.051762722 -0.024792688 -0.17943375 -0.10693788 0.2977639
-0.1675277 -0.13237335 0.054408517 0.12240681 0.0793457 -0.019705694 -0.017739108 0.007074532
0.20943402 -0.5249543 -0.554818 0.006417896 -0.48238903 -1.0604107 -0.014320377 1.1030585
0.358785 0.23993418 0.06213814 -0.83973706 0.0253879 -0.031668145 -0.56247264 0.18463874
-0.57264984 0.036803868 0.003103844 -1.1054682 0.7375426 -0.27078307 -0.11796482 -0.31123227
0.06882617 0.08532923 -0.9371447 -0.8485991 -0.16047704 -0.21873942 0.108059496 0.17211467
-0.13672778 -0.044867426 0.22746174 0.06919895 0.2529771 0.13945241 0.3004564 -0.15277714
-0.38531852 -0.16423202 -0.087931745 0.079165466 0.0036717546 0.34384215 -0.01399176 -0.1402255
0.0052459007 0.18395644 0.19714656 -0.06374361 0.27138156 0.3030192 -0.3500499 -1.1168717
0.55227566 0.37000832 -0.13882075 -0.3082252 -0.04053759 -0.06843375 -0.6908331 0.15345784
-0.10432954 -0.283913 -0.024942625 0.0122326305 0.12973425 -0.36247113 -0.020999327 0.30482924
0.05640564 0.083177984 0.030729702 0.2155758 -0.20282021 0.03736978 -0.11869445 0.10612641
0.18060105 0.035788257 -0.02742266 -0.3460753 0.15787777 -0.30359444 -0.015641386 -0.13727018
-0.11926795 0.05582639 -0.43904278 -0.07562538 -0.024300538 -0.08902648 -0.010973892 0.031592056
0.16038999 0.020843646 0.018467445 0.120354116 -0.10888379 -0.06987047 0.16657154 0.037124876
0.292332 -0.12616865 -0.028914956 0.09947101 -0.013873004 0.14750662 -0.0032563272 0.10724785
-0.0613474 0.08235019 0.032369487 -0.08712128 0.0050469018 0.2557635 0.101070486 -0.5429173
-0.025754804 0.19879685 0.07196394 -0.018820856 -0.0152500495 0.1676198 -0.06561759 0.07451916
-0.17094247 0.037520107 -0.059245765 -0.105785646 0.075966455 0.34856558 -0.026485942 -0.02003162
0.12155114 -0.10609435 -0.1674467 0.09566226 0.36424652 -0.0814812 -0.071722314 -0.026359992
-0.124138415 0.027111426 0.13837422 0.2728779 0.048986148 0.49771348 -0.4937458 -0.5001123
0.09462883 0.25376704 0.44055977 0.029320795 -0.05872483 -0.09582914 -0.7250434 0.077039115
-0.30054763 0.13080305 0.1780994 0.05348882 0.075408205 -0.0375558 -0.22772267 -0.02738057
0.009326535 0.094403975 0.08217171 0.049696364 -0.07411419 -0.022353893 0.036709722 -0.083775714
-0.094936214 -0.1120025 0.035792515 0.011171575 0.04527893 0.28279093 -0.018433612 0.2496185
-0.043681387 0.14926249 -0.15432245 0.14499955 -0.034190428 0.06354948 0.21023762 0.0029308435
00000000: 9d86 293d a836 b1be 0828 52bd 57b2 123e
00000010: df42 6bbd 46a6 0c3f 64e0 57be 43d6 bebe
00000020: 2e79 d2b8 af10 babc 1659 37bb 3b34 35be
00000030: 39ad 1a3e 6ef0 2c3e 517c b3be dc01 cbbd
00000040: 3b33 cfbc 60a0 81bd 7974 0ebe 3176 e43e
00000050: 3b06 45be 5da2 953e 81ae 21bd b40c 943d
00000060: 48f8 c13c c4f9 45bf 2df7 bb3e 2e2f 793e
00000070: bd8f 09be 0850 093d 2c46 a7bc b9a1 afbd
00000080: 0979 0c3e 4649 bc3c 1d5c 1f3e 133e d63c
00000090: 9bf3 9dbc 378a 703d 7216 a0be 8bfb 6ebc
000000a0: 5149 783e de9c 143e 4271 6dbd 5c12 31be
000000b0: b1bf 8bba 9551 4d3d 980e 9c3b 0b5c 6abd
000000c0: a6a3 61bd 66c7 79bc e3c0 05bd 2605 543d
000000d0: 091a cbbc 7bbd 37be 3f02 dbbd 8374 983e
000000e0: 628c 2bbe e18c 07be 77db 5e3d 6cb0 fa3d
000000f0: 0080 a23d d66d a1bc 9b51 91bc 7ad1 e73b
00000100: df75 563e 6863 06bf 8d08 0ebf 374d d23b
00000110: b2fb f6be 8abb 87bf 04a0 6abc 0531 8d3f
00000120: abb2 b73e 4eb1 753e 9084 7e3d 02f9 56bf
00000130: 49fa cf3c 75b6 01bd 35fe 0fbf f011 3d3e
00000140: 2e99 12bf a7bf 163d dc69 4b3b fb7f 8dbf
00000150: 98cf 3c3f 14a4 8abe 8a97 f1bd d659 9fbe
00000160: bcf4 8c3d 17c1 ae3d b7e8 6fbf ca3d 59bf
00000170: 1854 24be 3afd 5fbe 4c4e dd3d d43e 303e
00000180: 5e02 0cbe e8c6 37bd bbeb 683e 2eb8 8d3d
00000190: 3786 813e 9dcc 0e3e 6cd5 993e 9c71 1cbe
000001a0: 7848 c5be 702c 28be 8f15 b4bd 8121 a23d
000001b0: d2a1 703b 140c b03e b23d 65bc 4697 0fbe
000001c0: cee5 ab3b 145f 3c3e cae0 493e 038c 82bd
000001d0: 86f2 8a3e 5525 9b3e be39 b3be a7f5 8ebf
000001e0: f061 0d3f bb71 bd3e 0727 0ebe b2cf 9dbe
000001f0: be0a 26bd fe26 8cbd 70da 30bf 0d24 1d3e
00000200: baaa d5bd 0b5d 91be 7a54 ccbc 5f6b 483c
00000210: 0ed9 043e d195 b9be c806 acbc 9412 9c3e
00000220: 9a09 673d 3859 aa3d dbbc fb3c e7bf 5c3e
00000230: 1ab0 4fbe 0e11 193d 1316 f3bd ce58 d93d
00000240: 7bef 383e b596 123d 7ca5 e0bc c830 b1be
00000250: b6aa 213e bb70 9bbe 5d22 80bc 8e90 0cbe
00000260: c142 f4bd 36aa 643d 37ca e0be 7be1 9abd
00000270: ec11 c7bc 8453 b6bd d7cb 33bc ac66 013d
00000280: 463d 243e 4bc0 aa3c 0a49 973c 387c f63d
00000290: 77fe debd 4018 8fbd bb91 2a3e 4110 183d
000002a0: 8aac 953e 5b32 01be 0fdf ecbc 75b7 cb3d
000002b0: 994b 63bc fa0b 173e 1b68 55bb c3a4 db3d
000002c0: 6947 7bbd 37a7 a83d de95 043d a46c b2bd
000002d0: 7b60 a53b 6ff3 823e 0bfe ce3d a1fc 0abf
000002e0: bdfb d2bc 6791 4b3e d561 933d 322e 9abc
000002f0: 58db 79bc 86a4 2b3e 8462 86bd 809d 983d
00000300: 8b0b 2fbe afae 193d b0ab 72bd 25a6 d8bd
00000310: 4d94 9b3d 3077 b23e 0cf9 d8bc 5a19 a4bc
00000320: ceef f83d ff47 d9bd 2677 2bbe 93ea c33d
00000330: 857e ba3e 9edf a6bd 26e3 92bd e9f0 d7bc
00000340: 483c febd c818 de3c f9b1 0d3e a7b6 8b3e
00000350: b3a5 483d 4dd4 fe3e 40cc fcbe 5c07 00bf
00000360: c3cc c13d c1ed 813e 0d91 e13e 2a32 f03c
00000370: 7389 70bd 1142 c4bd 729c 39bf afc6 9d3d
00000380: 61e1 99be 3cf1 053e b05f 363e 1817 5b3d
00000390: 9e6f 9a3d 1cd4 19bd 2230 69be 384d e0bc
000003a0: 53ce 183c df56 c13d a449 a83d 6a8e 4b3d
000003b0: 2ec9 97bd 831f b7bc ef5c 163d 9a92 abbd
000003c0: eb6d c2bd 9161 e5bd 2c9b 123d fb08 373c
000003d0: 6676 393d f9c9 903e 1602 97bc fe9b 7f3e
000003e0: 41eb 32bd 44d8 183e b406 1ebe c37a 143e
000003f0: 430b 0cbd 3b26 823d 8848 573e 6513 403b

map_L4.bias f4 [256]
-0.1045507 0.11769668 0.107057564 -0.05773838 0.10944503 0.06980695 0.2279721 0.5690429
-0.022767475 0.16312616 -0.05102894 0.082700856 -0.32309872 0.06335849 -0.100525595 -0.040772088
-0.09136276 -0.42391905 -0.08223622 0.12900026 -0.045408715 -0.066550635 -0.19995682 -0.080071986
0.019214772 0.3492603 -0.10604825 0.049885914 -0.22350335 0.1998882 -0.15946168 0.02385737
0.29870796 -0.35183093 -0.0008487377 0.008789482 -0.030564114 0.17226383 0.044834826 -0.12678862
-0.16464151 0.19204225 -0.03240922 0.058257744 -0.045711853 -0.12905605 0.2637057 -0.13935845
0.3567175 -0.14831989 -0.08174564 -0.09422307 -0.08503885 0.31105244 0.031620998 -0.080170035
0.09644761 -0.033916973 -0.018698977 -0.057681262 0.14952767 -0.1155535 0.016634276 -0.16838336
0.031446002 0.0041054096 0.031204842 -0.30448395 0.0007487052 -0.09200633 -0.15460072 0.0038092725
0.10686127 -0.0548756 -0.086584195 -0.1444454 0.34092683 -0.11505302 0.06576962 0.10702061
0.13115184 0.030956281 0.025592428 -0.029952528 -0.105761126 0.119368516 0.02977628 0.07932668
-0.24499789 0.015767109 0.11458639 -0.15440851 -0.12474751 0.070049115 -0.12455058 0.10151153
-0.0031873658 0.14532514 0.14442569 -0.03148929 0.094001755 0.07401285 0.037046526 -0.047552057
0.15606146 0.0620029 -0.05441099 0.028140614 0.0018945305 -0.17481083 -0.1623544 -0.35462156
0.40868446 -0.011341854 0.06138013 0.122389324 0.09819677 -0.12427495 -0.26531652 -0.12545212
-0.10060126 -0.41172737 0.016677698 -0.0782145 0.0050714524 -0.06189668 -0.14995894 -0.013645962
0.16490254 0.010168159 0.0037984787 -0.14583576 0.0684403 -0.6208791 0.17148645 0.08007592
0.21088265 -0.15156849 -0.28064048 -0.0069859386 0.1719457 0.13991305 0.34033915 -0.23911715
-0.43977538 0.3542806 0.0074241017 -0.060617547 -0.06275979 -0.061036963 0.14400616 0.14367732
0.0042358227 -0.11392886 0.16031475 -0.10552969 -0.02568551 -0.044309635 0.083023846 -0.3567986
0.078158654 -0.073300675 -0.07116055 0.005013416 -0.11294495 0.0058645494 -0.6368651 0.3357861
0.24676019 0.025693925 -0.0032701532 -0.027469393 0.032236427 -0.0072049745 0.08465103 0.075875826
-0.01564156 0.094703965 -0.046167232 0.11187424 0.326946 0.0040652603 0.016203275 0.01224341
-0.09136452 0.07331912 0.06266685 -0.2418449 0.04905942 0.08825733 0.029742198 0.025043957
-0.012108582 -0.012773589 0.12177472 -0.011737964 -0.024846537 -0.10055947 0.1304634 0.0753009
0.14602298 -0.07558434 -0.21785648 -0.041478593 0.23717307 -0.015967866 -0.3631331 -0.052332647
-0.10959093 -0.022980124 0.16639793 -0.014524264 -0.11119077 0.09894541 0.36520687 -0.16065724
0.338536 -0.1276004 -0.023286859 -0.05183261 0.08265584 0.1147391 -0.11443773 0.07164655
0.09225567 -0.06986151 0.40994236 0.04733038 0.2150411 0.005162575 0.005428742 -0.062144585
0.06028493 0.003205516 0.0028377837 -0.040431205 0.055611134 0.016756048 -0.04399397 -0.0882693
0.14651977 0.06880125 0.08432388 -0.15669979 0.110220395 0.07922232 -0.010149612 0.05855301
0.12183559 -0.1499799 0.17926785 -0.016665118 0.14064844 -0.24490899 0.036742892 -0.14240994
00000000: ad1e d6bd f50a f13d ff40 db3d 147f 6cbd
00000010: b724 e03d f2f6 8e3d 8571 693e ccac 113f
00000020: db82 babc 8b0a 273e b903 51bd 115f a93d
00000030: 326d a5be 19c2 813d 5de0 cdbd a200 27bd
00000040: 661c bbbd eb0b d9be 776b a8bd a518 043e
00000050: 7dfe 39bd b34b 88bd 7bc1 4cbe c8fc a3bd
00000060: 4c68 9d3c 3fd2 b23e d32f d9bd 2c55 4c3d
00000070: 10de 64be 7eaf 4c3e ec49 23be 8870 c33c
00000080: 40f0 983e 2f23 b4be d37d 5eba c201 103c
00000090: 9861 fabc ee65 303e b9a4 373d e0d4 01be
000000a0: c997 28be b9a6 443e 88bf 04bd ac9f 6e3d
000000b0: 5a3c 3bbd 4527 04be 6f04 873e fbb3 0ebe
000000c0: ada3 b63e 2be1 17be 426a a7bd 06f8 c0bd
000000d0: d928 aebd 4442 9f3e 0585 013d 3030 a4bd
000000e0: 5386 c53d 86ec 0abd 992e 99bc 3043 6cbd
000000f0: c81d 193e 50a7 ecbd 9b44 883c b06c 2cbe
00000100: 86cd 003d ac86 863b 4ca1 ff3c 52e5 9bbe
00000110: c144 443a d16d bcbd a74f 1ebe fda4 793b
00000120: 15da da3d 3dc5 60bd 0e53 b1bd 7fe9 13be
00000130: f68d ae3e eba0 ebbd 39b2 863d 9f2d db3d
00000140: ab4c 063e 0798 fd3c 36a7 d13c 015f f5bc
00000150: 4a99 d8bd 7b77 f43d 63ed f33c 0776 a23d
00000160: bae0 7abe 062a 813c 45ac ea3d 441d 1ebe
00000170: 9f7b ffbd e975 8f3d 6014 ffbd 47e5 cf3d
00000180: 20e3 50bb 1dd0 143e 54e4 133e eafa 00bd
00000190: fe83 c03d 0d94 973d 19be 173d f2c5 42bd
000001a0: 93ce 1f3e c1f6 7d3d 0fde 5ebd 2587 e63c
000001b0: e551 f83a 9c01 33be 3b40 26be f590 b5be
000001c0: 173f d13e 2fd3 39bc bb69 7b3d 41a7 fa3d
000001d0: 631b c93d dd83 febd 91d7 87be 8576 00be
000001e0: 0908 cebd eecd d2be ab9f 883c ec2e a0bd
000001f0: 6d2e a63b 6087 7dbd d68e 19be 5093 5fbc
00000200: 36dc 283e 5a98 263c e6ef 783b f855 15be
00000210: 6e2a 8c3d eff1 1ebf 259a 2f3e d8fe a33d
00000220: 9ff1 573e c534 1bbe 1cb0 8fbe 4dea e4bb
00000230: 8912 303e 5e45 0f3e ef40 ae3e 20db 74be
00000240: 3d2a e1be 4464 b53e e145 f33b 1b4a 78bd
00000250: 3488 80bd e501 7abd 5a76 133e 2620 133e
00000260: a8cc 8a3b 8953 e9bd 8d29 243e f31f d8bd
00000270: 6b6a d2bc 057e 35bd 6808 aa3d 4eae b6be
00000280: a511 a03d aa1e 96bd 9fbc 91bd 9547 a43b
00000290: af4f e7bd 682b c03b 9709 23bf 28ec ab3e
000002a0: b4ae 7c3e 117c d23c 1150 56bb 7e07 e1bc
000002b0: 580a 043d b517 ecbb 855d ad3d c964 9b3d
000002c0: bb22 80bc 27f4 c13d da19 3dbd 521e e53d
000002d0: 7765 a73e e035 853b bbbc 843c 9598 483c
000002e0: 521d bbbd 5628 963d 7a57 803d 31a6 77be
000002f0: 88f2 483d 42c0 b43d e9a5 f33c fc28 cd3c
00000300: 1363 46bc 5148 51bc 0665 f93d 9750 40bc
00000310: f78a cbbc 20f2 cdbd 3398 053e 5c37 9a3d
00000320: 0c87 153e f6cb 9abd c515 5fbe 75e5 29bd
00000330: 7fdd 723e 0bcf 82bc 95ec b9be c25a 56bd
00000340: 3671 e0bd d040 bcbc 3864 2a3e 2ef7 6dbc
00000350: fdb7 e3bd e4a3 ca3d 65fc ba3e 5583 24be
00000360: 9754 ad3e aea9 02be 15c4 bebc 6e4e 54bd
00000370: 7747 a93d 55fc ea3d 545e eabd 6dbb 923d
00000380: 8af0 bc3d 8d13 8fbd f7e3 d13e 80dd 413d
00000390: bc33 5c3e d12a a93b 97e3 b13b 528b 7ebd
000003a0: 55ed 763d a213 523b 1cfa 393b 319b 25bd
000003b0: 80c8 633d fb43 893c 0533 34bd 89c6 b4bd
000003c0: 4709 163e abe7 8c3d 00b2 ac3d e975 20be
000003d0: 3bbb e13d 503f a23d 8f4a 26bc 48d5 6f3d
000003e0: f084 f93d 5594 19be fe91 373e 4985 88bc
000003f0: 2506 103e 6cc9 7abe b77f 163d e9d3 11be

map_L5.weight f4 [618, 256]
0.18140745 0.10493441 -0.061666995 0.07567788 -0.006742909 -0.19948627 -0.07771955 -0.041084904
0.12305262 -0.2620427 0.07725645 -0.20479392 0.043004487 -0.116810784 0.19454911 0.15365228
0.18707818 -0.10647586 0.031099865 -0.2499419 0.066898465 0.12560317 0.10554587 -0.059148885
-0.13082203 0.076789655 -0.032751385 -0.054542936 0.11151277 -0.1923556 -0.061556887 0.015523701
0.062363826 0.192382 -0.2182219 0.17331107 -0.085457206 -0.24784456 0.0013055438 0.16312215
0.24932873 0.019101039 -0.2510334 -0.028669314 0.18114743 -0.0590995 0.06097868 0.0941348
0.005167821 0.101759695 0.08273279 0.040990837 0.14018473 0.11565286 -0.06930864 -0.027890315
-0.023252197 0.06104015 0.04665894 0.13557018 -0.23963876 -0.05516918 -0.15557373 0.13381162
-0.12791888 -0.17898105 -0.1648572 -0.029569376 -0.11140335 -0.04830949 -0.30210206 -0.35422286
-0.026389157 -0.06164406 0.013408843 0.09022335 0.023233343 0.02591304 -0.2657982 -0.19766273
-0.16857937 -0.14118868 0.21331312 0.1945507 0.07848976 -0.07285978 -0.12864065 -0.26946798
0.13638873 -0.20303935 -0.42380774 0.029686723 0.07538416 -0.16490333 0.115614384 -0.20334715
-0.14333181 -0.1818423 -0.042772427 -0.24972835 -0.013304233 -0.11830409 -0.27223057 0.038982544
-0.14799576 -0.12112068 0.027334588 0.2124613 0.10927714 -0.12382449 0.0029550402 0.0005775811
0.078581706 -0.07042431 -0.24661833 -0.14850108 -0.020553555 0.09566013 0.022610612 -0.002672945
0.1438448 -0.007864811 -0.057536136 0.14122766 -0.22011957 0.10809647 0.08878585 0.20876366
-0.04603679 -0.20732036 0.08302914 0.13137594 -0.014777504 0.07550941 -0.14019425 -0.088016115
-0.05180844 0.061013855 -0.13242795 0.1919559 0.010342518 -0.22025613 0.0239549 0.14346243
-0.05700388 -0.08819532 -0.03640306 0.17024322 0.110875696 0.053911086 -0.19892861 0.009987474
-0.004684084 0.1627459 -0.19697325 0.24444795 0.060395587 -0.19888872 -0.14302027 0.11947268
-0.072993726 0.024726344 0.04430603 -0.36184493 0.13160533 -0.1709803 -0.060646243 0.13097441
-0.031574577 -0.07063162 -0.11276927 -0.2137717 -0.17981204 0.14705274 -0.1734666 -0.22717935
-0.0630924 -0.038366154 -0.1158375 -0.06900964 -0.006025404 -0.20577826 -0.24537505 -0.07808764
0.085056506 -0.0566922 -0.15552713 0.1458348 -0.036461905 -0.13105384 -0.07696748 0.26520276
0.16338193 -0.16701871 -0.2999465 -0.16875337 -0.25250906 0.12650678 -0.078084685 -0.15667486
-0.09327606 0.22782095 0.11289231 -0.19094668 0.039157778 0.06587333 0.10882198 0.09404792
0.13964218 -0.18487705 -0.12488236 -0.104051694 -0.74042773 -0.21281606 0.09364239 0.085943654
-0.06362241 0.17492406 -0.2070764 0.11004238 -0.2067803 0.15651451 0.20999582 -0.3048798
0.009174513 0.03264869 0.019510234 -0.23955671 -0.029538086 -0.38858387 -0.060215786 0.059615258
-0.0260973 -0.08210286 -0.14927259 0.16983749 -0.19218017 0.0791205 0.19096196 0.13982472
-0.14603955 -0.14282562 -0.13359566 0.050544735 -0.16708216 -0.16515417 -0.15953828 -0.13855213
-0.1323697 0.12847614 -0.1733821 -0.119136326 -0.21313128 0.14480276 -0.072649375 0.18645455
00000000: e0c2 393e dae7 d63d 8896 7cbd 01fd 9a3d
00000010: 9ff3 dcbb 2146 4cbe 6d2b 9fbd a548 28bd
00000020: 0303 fc3d 762a 86be a138 9e3d 7fb5 51be
00000030: 7925 303d 7e3a efbd e237 473e 0657 1d3e
00000040: 6c91 3f3e 0410 dabd 25c5 fe3c c5f0 7fbe
00000050: 1002 893d 1e9e 003e 6f28 d83d 1a46 72bd
00000060: 36f6 05be e543 9d3d 5126 06bd 6a68 5fbd
00000070: cf60 e43d def8 44be 1323 7cbd 1f57 7e3c
00000080: 3671 7f3d c9ff 443e 9075 5fbe 7578 313e
00000090: 3004 afbd f7ca 7dbe c81e ab3a 7e09 273e
000000a0: 0850 7f3e c879 9c3c 7387 80be e9db eabc
000000b0: b67e 393e 5112 72bd c8c4 793d bfc9 c03d
000000c0: d356 a93b 6367 d03d cf6f a93d 02e6 273d
000000d0: 968c 0f3e 68db ec3d b0f1 8dbd 3b7a e4bc
000000e0: 647b bebc 3c05 7a3d 721d 3f3d e9d2 0a3e
000000f0: dd63 75be 14f9 61bd b84e 1fbe ea05 093e
00000100: 2bfd 02be cf46 37be 53d0 28be 7a3b f2bc
00000110: 7127 e4bd 2ce0 45bd 1fad 9abe b35c b5be
00000120: 132e d8bc 7b7e 7cbd c4b0 5b3c 05c7 b83d
00000130: da53 be3c 9547 d43c b416 88be 1968 4abe
00000140: 12a0 2cbe c493 10be c16e 5a3e 4c38 473e
00000150: 3dbf a03d 8237 95bd 60ba 03be b5f7 89be
00000160: 7da9 0b3e 8ce9 4fbe 54fd d8be 9231 f33c
00000170: 0363 9a3d 6bdc 28be 3cc7 ec3d 3c3a 50be
00000180: 93c5 12be de34 3abe 2432 2fbd cab8 7fbe
00000190: fff9 59bc 6a49 f2bd ce61 8bbe 29ac 1f3d
000001a0: 338c 17be 1e0e f8bd c9ec df3c 748f 593e
000001b0: b1cc df3d b297 fdbd 59a9 413b d068 173a
000001c0: 72ef a03d 9f3a 90bd 8489 7cbe ab10 18be
000001d0: ee5f a8bc 75e9 c33d e439 b93c 932c 2fbb
000001e0: 0d4c 133e 69db 00bc 03ab 6bbd fc9d 103e
000001f0: 0667 61be af61 dd3d 5bd5 b53d 24c6 553e
00000200: 1391 3cbd ca4b 54be 2f0b aa3d 6a87 063e
00000210: 581d 72bc ada4 9a3d 158f 0fbe cb41 b4bd
00000220: 1635 54bd aae9 793d 319b 07be 1690 443e
00000230: aa73 293c d38a 61be 113d c43c d1e7 123e
00000240: e77c 69bd bf9f b4bd 601b 15bd 3d54 2e3e
00000250: cc12 e33d dfd1 5c3d f1b3 4bbe 81a2 233c
00000260: f27c 99bb dca6 263e 5bb3 49be 9050 7a3e
00000270: 5d61 773d 7ca9 4bbe e873 12be 18ae f43d
00000280: bc7d 95bd e78e ca3c 3d7a 353d bd43 b9be
00000290: 8cc3 063e 7615 2fbe 3268 78bd 281e 063e
000002a0: 5854 01bd 50a7 90bd 93f3 e6bd f8e6 5abe
000002b0: a620 38be fe94 163e 3aa1 31be b4a1 68be
000002c0: 9736 81bd d425 1dbd 363c edbd ed54 8dbd
000002d0: c170 c5bb 89b7 52be 9943 7bbe 6aec 9fbd
000002e0: 1b32 ae3d 1536 68bd 8142 1fbe b855 153e
000002f0: 1459 15bd fa32 06be 20a1 9dbd a8c8 873e
00000300: 984d 273e f406 2bbe 9692 99be afcd 2cbe
00000310: de48 81be fe8a 013e ddea 9fbd 606f 20be
00000320: 8507 bfbd e549 693e 1534 e73d 8787 43be
00000330: e863 203d 99e8 863d 0fde de3d 329c c03d
00000340: 5cfe 0e3e 6950 3dbe 53c2 ffbd 0e19 d5bd
00000350: ac8c 3dbf 74ec 59be 95c7 bf3d 3a03 b03d
00000360: 774c 82bd 4b1f 333e d60b 54be e65d e13d
00000370: 37be 53be 5745 203e 2509 573e 3519 9cbe
00000380: b250 163c a2ba 053d edd3 9f3c 5b4e 75be
00000390: dbf9 f1bc 77f4 c6be d4a4 76bd 212f 743d
000003a0: 01ca d5bc 8b25 a8bd eada 18be e1e9 2d3e
000003b0: e1ca 44be ee09 a23d 888b 433e 362e 0f3e
000003c0: 648b 15be e140 12be 4dcd 08be ff07 4f3d
000003d0: 9617 2bbe 2d1e 29be 015e 23be 9ce0 0dbe
000003e0: ec8b 07be 408f 033e 148b 31be bffd f3bd
000003f0: 163f 5abe 2d47 143e 32c9 94bd f1ed 3e3e

map_L5.bias f4 [618]
-0.07791492 -0.088861056 -0.0942816 -0.09268429 -0.45403427 -0.05549378 0.10494432 -0.07637846
0.06662036 0.1592808 0.098620065 0.09790895 -0.089494236 0.06602584 -0.10163304 0.1513151
-0.100754425 -0.11356042 -0.10049727 -0.0923696 -0.1001201 -0.08838804 -0.10715058 -0.081142664
-0.090623304 -0.076752014 -0.100745544 -0.08747759 -0.10127762 -0.07797582 -0.087376416 -0.092514955
-0.0951867 -0.08516261 -0.12459859 -0.11326522 -0.09318712 -0.10196944 -0.10453389 -0.09521215
-0.0848868 -0.07644571 -0.09253278 -0.07815766 -0.07691986 -0.08786879 -0.085728295 -0.1026146
-0.10601927 -0.092539854 -0.10337219 -0.094464995 -0.08084059 -0.07606552 -0.10284568 -0.11178823
-0.09708641 -0.080263436 -0.10141537 -0.07413696 -0.09897902 -0.10029693 -0.13275069 -0.08766484
-0.10920221 -0.10558895 -0.09762277 -0.09181005 -0.09711794 -0.09784777 -0.08594787 -0.09448232
-0.08553282 -0.09281592 -0.087387316 -0.106046066 -0.09794975 -0.08631838 -0.11565949 -0.08340757
-0.086421765 -0.088724844 -0.0975537 -0.1467583 -0.14218828 -0.15942274 -0.1483803 -0.13641757
-0.14158751 -0.16973497 -0.1447903 -0.15911949 -0.15772662 -0.08070848 -0.024626672 -0.03678544
-0.04138729 -0.030806605 -0.040274218 -0.056271754 -0.032820024 -0.03887074 -0.04913875 0.035619475
0.016571356 0.01974155 0.011012695 0.01894597 0.034498632 0.017714083 0.022462437 0.01603007
0.02144712 -0.007905755 -0.0037343064 -0.0046495376 -0.024941783 -0.020612312 -0.009376009 -0.016764676
-0.020776194 0.0057452875 -0.0045757364 0.036864687 0.0361873 0.041654192 0.04027585 0.040460568
0.043726157 0.04769878 0.055185687 0.04368984 0.042373322 0.021238046 0.031768214 0.0018414917
0.027584037 0.023365343 0.015332967 0.026769102 0.021649214 0.031927902 0.0053036595 0.025744319
0.017274614 0.038798776 0.010639851 0.027259558 0.01624286 0.012316751 0.020838054 0.04136208
0.023788724 -0.009129768 -0.019475773 -0.00741315 -0.006630559 -0.017736817 -0.0079393415 -0.0133658275
-0.005643578 -0.0008624583 -0.023156157 0.05044841 0.05573199 0.03127781 0.040899795 0.04410107
0.042121567 0.047298457 0.058956515 0.036463503 0.05061324 -0.09744843 -0.11315849 -0.09604116
-0.0839136 -0.10851396 -0.09413022 -0.10984758 -0.087603524 -0.10849286 -0.08123287 -0.087246254
-0.12412173 -0.08584838 -0.11728659 -0.09806244 -0.09361911 -0.085973896 -0.09154968 -0.09499636
-0.09373528 -0.07878303 -0.10575317 -0.09799992 -0.07667961 -0.09657516 -0.09209698 -0.08583007
-0.08123968 -0.0839392 -0.10336562 -0.11059787 -0.07662948 -0.10843106 -0.07584994 -0.09229609
-0.105656765 -0.11123149 -0.08450158 -0.07840013 -0.087221436 -0.09211981 -0.0905124 -0.10147252
-0.078839205 -0.08857985 -0.089944914 -0.09778023 -0.09129817 -0.11361785 -0.089769214 -0.11431213
-0.096787 -0.090078436 -0.08214897 -0.097419046 -0.094727956 -0.1022967 -0.13279141 -0.09662253
-0.08675207 -0.07604532 -0.09858317 -0.093658276 -0.027159404 -0.10351061 -0.04521228 -0.29416263
-0.07562266 -0.09617343 -0.09201303 -0.078977324 -0.09720002 -0.108364604 -0.097989015 -0.081804775
-0.086633 -0.102914326 -0.111619055 -0.10650724 -0.08613105 -0.0738673 -0.08800169 -0.084323004
00000000: dc91 9fbd c9fc b5bd b616 c1bd 43d1 bdbd
00000010: 2e77 e8be 724d 63bd 0ced d63d 4f6c 9cbd
00000020: 4170 883d 821a 233e 51f9 c93d 7d84 c83d
00000030: c148 b7bd 8e38 873d fc24 d0bd 58f2 1a3e
00000040: 5658 cebd 5e92 e8bd 83d1 cdbd 462c bdbd
00000050: c40b cdbd ca04 b5bd c371 dbbd 202e a6bd
00000060: b698 b9bd 2930 9dbd ae53 cebd 7327 b3bd
00000070: a46a cfbd c9b1 9fbd 68f2 b2bd 7b78 bdbd
00000080: 3ff1 c2bd bc69 aebd 8c2d ffbd 98f7 e7bd
00000090: e4d8 bebd 5bd5 d0bd dd15 d6bd 96fe c2bd
000000a0: 21d9 adbd 928f 9cbd d381 bdbd 2011 a0bd
000000b0: 2988 9dbd 8df4 b3bd 5192 afbd 9a27 d2bd
000000c0: a220 d9bd 8985 bdbd ccb4 d3bd dd76 c1bd
000000d0: c08f a5bd 3dc8 9bbd c2a0 d2bd 3af1 e4bd
000000e0: 3dd5 c6bd 2861 a4bd ddb2 cfbd 1ed5 97bd
000000f0: 83b5 cabd 7a68 cdbd ccef 07be a089 b3bd
00000100: 69a5 dfbd 053f d8bd 72ee c7bd e806 bcbd
00000110: c5e5 c6bd 6964 c8bd 7005 b0bd f27f c1bd
00000120: d52b afbd 4616 bebd 1ff8 b2bd ae2e d9bd
00000130: e199 c8bd b1c7 b0bd e2de ecbd 97d1 aabd
00000140: e5fd b0bd 5fb5 b5bd 3cca c7bd cf47 16be
00000150: ce99 11be b73f 23be 01f1 17be 0cb1 0bbe
00000160: 51fc 10be 01cf 2dbe e943 14be 38f0 22be
00000170: 1683 21be 7d4a a5bd e0bd c9bc 54ac 16bd
00000180: b885 29bd 225e fcbc 94f6 24bd 367d 66bd
00000190: 4a6e 06bd ed36 1fbd b745 49bd bae5 113d
000001a0: a7c0 873c 08b9 a13c 976e 343c 9434 9b3c
000001b0: 704e 0d3d 201d 913c 2503 b83c 7e51 833c
000001c0: dfb1 af3c 2487 01bc 44bb 74bb 265b 98bb
000001d0: b652 ccbc 27db a8bc d59d 19bc 1356 89bc
000001e0: d632 aabc f742 bc3b 0ff0 95bb 6dff 163d
000001f0: 2239 143d 969d 2a3d 4af8 243d fbb9 253d
00000200: 331a 333d cc5f 433d 630a 623d 1ef4 323d
00000210: a68f 2d3d 69fb ad3c 631f 023d 355e f13a
00000220: ebf7 e13c ad68 bf3c 2037 7b3c e04a db3c
00000230: b159 b13c d5c6 023d 52ca ad3b c0e5 d23c
00000240: 7e83 8d3c 77eb 1e3d c552 2e3c 704f df3c
00000250: bf0f 853c 33cc 493c 91b4 aa3c 496b 293d
00000260: 92e0 c23c 0695 15bc a88b 9fbc 02ea f2bb
00000270: 2945 d9bb cd4c 91bc 0314 02bc 58fc 5abc
00000280: c3ed b8bb 9916 62ba fbb1 bdbc fea2 4e3d
00000290: 3a47 643d 291d 003d 8b86 273d 53a3 343d
000002a0: aa87 2c3d 07bc 413d 637c 713d c15a 153d
000002b0: d44f 4f3d 0b93 c7bd a3bf e7bd 3ab1 c4bd
000002c0: e5da abbd 913c debd 58c7 c0bd c5f7 e0bd
000002d0: 7a69 b3bd 8131 debd 6b5d a6bd 2aae b2bd
000002e0: 8933 febd 47d1 afbd f433 f0bd f6d4 c8bd
000002f0: 60bb bfbd 1513 b0bd 667e bbbd 748d c2bd
00000300: 48f8 bfbd ff58 a1bd 1e95 d8bd 2fb4 c8bd
00000310: 330a 9dbd 33c9 c5bd 579d bcbd adc7 afbd
00000320: fd60 a6bd 51e8 abbd 5bb1 d3bd 2381 e2bd
00000330: ebef 9cbd 1b11 debd 3757 9bbd bc05 bdbd
00000340: 9362 d8bd 56cd e3bd 2a0f adbd 3f90 a0bd
00000350: 27a1 b2bd 50a9 bcbd 915e b9bd d3d0 cfbd
00000360: 7376 a1bd 5a69 b5bd 0a35 b8bd 0041 c8bd
00000370: 89fa babd 7ab0 e8bd ecd8 b7bd 7a1c eabd
00000380: 4338 c6bd 0b7b b8bd b83d a8bd a383 c7bd
00000390: bb00 c2bd ef80 d1bd 79fa 07be 08e2 c5bd
000003a0: 12ab b1bd a6bd 9bbd f9e5 c9bd e9cf bfbd
000003b0: 667d debc 5ffd d3bd 8330 39bd 7c9c 96be
000003c0: 0ee0 9abd 93f6 c4bd 5471 bcbd ddbe a1bd
000003d0: ce10 c7bd 43ee ddbd 77ae c8bd 4389 a7bd
000003e0: a46c b1bd bfc4 d2bd 8898 e4bd 7820 dabd
000003f0: 7a65 b0bd bd47 97bd 3b3a b4bd 8ab1 acbd
