model_AAE_1024/ep_100_encoder_model.pth (torch_old, 705884 bytes, 10 tensors)

map_L1.weight f4 [256, 618]
0	0x3d52620c	0.051363036
1	0x3c210b08	0.00982929
2	0x3dfffc27	0.12499266
3	0x3db9af12	0.09066595
4	0xba67466e	-0.00088224455
5	0x3d512876	0.051063977
6	0x3e3fcac7	0.18729697
7	0x3c3ce330	0.011528775
8	0xbd439b83	-0.04775573
9	0x3c446797	0.011987588
10	0x3e43ec66	0.19133148
11	0x3e3655a3	0.17806105
12	0x3ddbbd2f	0.10729443
13	0x3c6895da	0.014195884
14	0x3dabc53d	0.083872296
15	0x3c232992	0.009958642
16	0x3e1a718f	0.15082382
17	0x3e20f37f	0.15717886
18	0x3ca33497	0.019922538
19	0xbca94fad	-0.020667875
20	0xbd3e89e5	-0.046518225
21	0x3cb28f34	0.0217968
22	0x3d2704b5	0.040775973
23	0xbc053145	-0.008129423
24	0x3dc3378f	0.09532081
25	0x3dc2b984	0.095080405
26	0x3d786929	0.060647164
27	0x3e24c838	0.16092002
28	0x3dea05e4	0.11426905
29	0x3d6bbbe6	0.05755224
30	0x3e58eb7a	0.21183577
31	0x3e0c811f	0.13721131
32	0xbad0183f	-0.0015876367
33	0x3db95277	0.09048932
34	0xbc66633c	-0.014061745
35	0x3dcd9360	0.10037875
36	0x3e326c61	0.17424156
37	0x3d74c457	0.059757557
38	0x3d2a29a1	0.041543607
39	0x3d5720f5	0.052521665
40	0x3e2ec49c	0.17067188
41	0x3d08bb2c	0.033381626
42	0x3cd2bf5f	0.025726018
43	0x3d54ef72	0.051986165
44	0x3d827c3a	0.063713506
45	0x3d4bd1dd	0.049760688
46	0xbcf878a8	-0.03033097
47	0x3d87c4f1	0.066293605
48	0x3e1d09e4	0.15335804
49	0xbcfc62b6	-0.030808788
50	0xbcd29050	-0.02570358
51	0x3d3772d3	0.04478724
52	0x3e4d2cb0	0.20036578
53	0x3d841414	0.06449142
54	0x3ac2370e	0.0014817433
55	0x3dc8ac76	0.09798519
56	0x3c83e33e	0.016099568
57	0x3e00570d	0.12533207
58	0x3b8b41c3	0.0042497828
59	0x3e2dd99c	0.16977543
60	0x3df2cf0a	0.11855896
61	0x3d1d11ee	0.038347177
62	0x3d5136d5	0.051077683
63	0x3d13a410	0.036045134
64	0xbb26192c	-0.0025344593
65	0x3cb0588d	0.0215266
66	0x3c5cc560	0.013474792
67	0xbb0a4d8f	-0.0021103357
68	0x3cb13cf0	0.021635503
69	0xb8ee1560	-0.00011352706
70	0x3ca359ab	0.019940218
71	0x3a4dbb54	0.00078480435
72	0x3d8a95dd	0.067668654
73	0x3d7d4a15	0.06183823
74	0x3db35c16	0.087577984
75	0x3e442ee9	0.1915852
76	0x3e03ad4c	0.12859076
77	0x3af48550	0.0018655453
78	0x3dc7f9a0	0.09764409
79	0x3cfa2aa9	0.03053792
80	0x3d712dd5	0.0588816
81	0x3d7b4397	0.061343756
82	0x3cdfbf0a	0.027312774
83	0xbb1b6844	-0.002371327
84	0xbbf31121	-0.0074178134
85	0xba5114b4	-0.00079758023
86	0x3b257374	0.0025245817
87	0x3900a65f	0.0001226901
88	0xbb6af97d	-0.0035854273
89	0xbbe3e674	-0.0069549624
90	0x3b68e258	0.0035535302
91	0xbbdcc8bc	-0.0067377966
92	0xbb21b536	-0.002467466
93	0x3d632227	0.055452492
94	0x3c965bf9	0.018354403
95	0xbd1150d3	-0.03547747
96	0x3d1ad42c	0.0378
97	0x3c9e03e5	0.019288966
98	0xbd2a67e0	-0.04160297
99	0xbd204913	-0.03913219
100	0xbd2569fa	-0.04038427
101	0xbd1cacc4	-0.0382507
102	0xbd089f35	-0.033354957
103	0x3e3203db	0.17384283
104	0x3e2cb028	0.16864073
105	0x3e31cc8e	0.17363188
106	0x3e31111e	0.17291686
107	0x3e330d11	0.17485453
108	0x3e2c81c4	0.16846377
109	0x3e2bfa5e	0.16794726
110	0x3e34042f	0.17579721
111	0x3e3024ba	0.1720151
112	0x3e2d16fc	0.16903299
113	0x3c8721ed	0.01649567
114	0x3c8441b9	0.01614462
115	0x3c6b3807	0.01435662
116	0x3cb2cc02	0.021825794
117	0x3ca65d89	0.020308273
118	0x3c5a0345	0.013306444
119	0x3d0b672c	0.03403394
120	0x3ccd8eeb	0.025092563
121	0x3d3f2fe8	0.046676546
122	0x3d10bc57	0.035335865
123	0x3ba22676	0.0049484326
124	0xba8c0b8d	-0.0010684595
125	0x3b30fafc	0.0027005067
126	0x3c03a61e	0.008035211
127	0x383f3a21	4.5592085e-05
128	0xbae20d3a	-0.0017246373
129	0xbbb086c6	-0.00538716
130	0x39892d23	0.00026164306
131	0x3b3289b4	0.0027242722
132	0x3a73b552	0.0009296733
133	0x3e2d47c4	0.16921908
134	0x3e2bdf1f	0.16784333
135	0x3e2c3e8a	0.16820732
136	0x3e2d7e77	0.16942774
137	0x3e2dae37	0.16960989
138	0x3e2b3fe0	0.16723585
139	0x3e2d1634	0.16903001
140	0x3e2a1d2e	0.16612694
141	0x3e2ad697	0.16683422
142	0x3e301ca4	0.17198426
143	0x3e39d814	0.18148834
144	0x3e392ab8	0.18082702
145	0x3e3cdf7b	0.18444626
146	0x3e3b0649	0.18264116
147	0x3e38b8f9	0.18039311
148	0x3e36a93d	0.17837997
149	0x3e3d3a32	0.18479231
150	0x3e38bf79	0.18041791
151	0x3e380e5b	0.17974226
152	0x3e38c301	0.18043138
153	0xbd6e4299	-0.05816898
154	0xbcc3ed95	-0.023916999
155	0xbc4a18a2	-0.0123349745
156	0xbca19839	-0.019725906
157	0xbc9c0ecb	-0.019050023
158	0xbcf25de5	-0.029585788
159	0xbd0bb0b8	-0.03410408
160	0xbd3ccd6c	-0.046094343
161	0xbd6e43f2	-0.058170266
162	0xbcccc4c1	-0.024996163
163	0x3c2affce	0.010436965
164	0x3b00b57b	0.001963942
165	0x3c03cd4e	0.008044554
166	0xbae6ecc8	-0.0017618174
167	0x3aed5156	0.0018105905
168	0x3bd777ad	0.0065755458
169	0x3c33f910	0.010984674
170	0x3a2838e8	0.0006417171
171	0xbb06912b	-0.0020533304
172	0x3b21358c	0.0024598567
173	0x3c3ffe96	0.011718413
174	0x3d923303	0.07138636
175	0x3ce2f202	0.027703289
176	0x3d88baed	0.06676278
177	0x3bed750f	0.0072466205
178	0x3dab427b	0.083622895
179	0x3da45204	0.08023456
180	0x3db75086	0.089509055
181	0x3cef0b97	0.029180331
182	0x3dbdb541	0.09263087
183	0x3dc25ef9	0.09490771
184	0x3d320962	0.04346598
185	0x3e584105	0.21118553
186	0xbb7fe85e	-0.0039048414
187	0x3e18d8c7	0.14926444
188	0xbd3918ad	-0.04518955
189	0x3d6a0766	0.057135962
190	0x3e220d22	0.15825322
191	0xbd3890b5	-0.04505988
192	0x3e0033d9	0.12519778
193	0xbc54a9b7	-0.012979916
194	0x3c906912	0.017628226
195	0x3c62f219	0.013851666
196	0x3d7247b1	0.0591504
197	0x3d43f291	0.04783875
198	0x3d9cbae2	0.076528326
199	0x3dd06764	0.1017597
200	0x3d8821d8	0.0664708
201	0x3cdd85d5	0.027041355
202	0x3c234424	0.009964976
203	0x3d127b13	0.035761904
204	0x3d7cccc3	0.061718713
205	0x3df108cd	0.11769257
206	0x3d8dc6ed	0.06922708
207	0x3db56897	0.088578396
208	0x3c6f5c7a	0.0146094505
209	0x3ce2ab94	0.027669705
210	0xbd81b747	-0.063337855
211	0x3de8ece6	0.1137331
212	0x3c681da5	0.014167224
213	0x3d240e0e	0.040052466
214	0x3cc358b0	0.023846
215	0x3d522827	0.051307824
216	0x3d8f7b1b	0.070059024
217	0x3e3e8099	0.18603744
218	0x3dea520a	0.11441429
219	0x3e0d217b	0.13782303
220	0x3d0e8de8	0.0348033
221	0x3e1647f3	0.14675884
222	0x3d3b5934	0.045739368
223	0x3d9b9b01	0.07597924
224	0x3d511cff	0.051053043
225	0x3d1c4d1f	0.038159486
226	0x3d2ae822	0.041725285
227	0x3c1962e8	0.00936196
228	0x3d8f5086	0.069977805
229	0xbab2128e	-0.0013585852
230	0x3c140f5d	0.009036866
231	0x3c84cf9c	0.016212277
232	0x3daee494	0.085396916
233	0x3d4e3384	0.050342098
234	0x3c54e7da	0.012994731
235	0x3d96d82a	0.07365449
236	0xbc814271	-0.015778752
237	0x3deed35e	0.11661409
238	0x3dfe4d49	0.12417085
239	0xbb03511f	-0.0020037366
240	0x3d719413	0.058979105
241	0x3ce8fb3d	0.028440112
242	0x3c8b5287	0.017007126
243	0x3e0cafbb	0.13738911
244	0x3cb02cbf	0.021505712
245	0x3cf29d0b	0.0296159
246	0x3c72c123	0.014816555
247	0x3d2993ea	0.041400827
248	0xbd547134	-0.05186577
249	0x3d8b826c	0.068119854
250	0x3d9411e0	0.07229972
251	0x3d289d6d	0.041165758
252	0x3d8ff7dc	0.07029697
253	0x3ddb3adb	0.10704585
254	0x3da5fc55	0.08104769
255	0x3b6f9c70	0.003656175

map_L1.bias f4 [256]
0	0x3ca209a1	0.019779982
1	0xbd76757f	-0.060170647
2	0xbd122733	-0.035681915
3	0xbccd658c	-0.025072835
4	0xbd47ec4e	-0.048809342
5	0xbd72215c	-0.059113845
6	0xbd8f6911	-0.07002462
7	0xbcecc1d9	-0.028901028
8	0xbd837700	-0.06419182
9	0x3bfec8e4	0.007775413
10	0x3d262192	0.04055936
11	0xbb2c1c5f	-0.0026262028
12	0xbc812cfd	-0.015768522
13	0xbca28b82	-0.019841913
14	0xbd7ca127	-0.061677124
15	0xbd3f03b5	-0.046634395
16	0xbbecb732	-0.007223987
17	0xbb718e36	-0.0036858446
18	0xbcb261ac	-0.02177509
19	0xbc49b22b	-0.012310545
20	0x3c49d28f	0.0123182675
21	0xbc683517	-0.014172814
22	0xbd0f7f0b	-0.035033267
23	0xbd85ed00	-0.06539345
24	0xbcf5ab82	-0.029989008
25	0xbd001364	-0.031268492
26	0x3b17dcef	0.0023172458
27	0x3cca16b1	0.024669023
28	0xbc433152	-0.011913614
29	0x3b9cfdba	0.0047909888
30	0xbc81a383	-0.015825039
31	0xbd82470a	-0.06361206
32	0xbc768245	-0.015045707
33	0xbdbc735e	-0.09201692
34	0xbd3979fd	-0.045282353
35	0x3cc1ff74	0.02368138
36	0xbc7f8a51	-0.015596942
37	0x3c32e850	0.010919645
38	0xbd248f26	-0.04017558
39	0x3cb6c86d	0.022312367
40	0x3cb5aa6c	0.02217599
41	0xbd6ae8b2	-0.05735082
42	0xbd9d60d1	-0.07684482
43	0xbd2787cc	-0.04090099
44	0x3cb57534	0.022150613
45	0x3c430910	0.011904016
46	0xbcf08afc	-0.029363148
47	0xbda30214	-0.07959381
48	0xbcb091be	-0.02155387
49	0xbd8549b1	-0.06508196
50	0xbd7bec5d	-0.06150471
51	0xbc521cc4	-0.012824241
52	0xbdaa581d	-0.083175875
53	0xbd75199d	-0.05983888
54	0x3d4cff67	0.05004826
55	0xbd637eea	-0.055540957
56	0xbd6b37d1	-0.057426278
57	0xbcfc5f42	-0.030807141
58	0x3c301d5e	0.010749189
59	0xbd12cf1c	-0.035842046
60	0xbd871d47	-0.06597381
61	0xbc854dd4	-0.016272463
62	0xbd5f89c6	-0.05457475
63	0x3918b729	0.00014564082
64	0xbc1fa95e	-0.00974497
65	0xbd73f996	-0.059564196
66	0xbc9bca25	-0.019017288
67	0xbc973431	-0.018457504
68	0xbdb8c508	-0.09021956
69	0x3b963e75	0.004585082
70	0xbcb5d053	-0.022194063
71	0x3c8e619a	0.017380524
72	0xbdad5469	-0.084633656
73	0x3b52635a	0.0032102675
74	0xbd0479e1	-0.032342795
75	0xbde79199	-0.113070674
76	0xbd89f437	-0.067360334
77	0xbd1a4a78	-0.037668675
78	0x3cbfbe8c	0.02340629
79	0xbd3c4c6c	-0.04597132
80	0xbb7b8192	-0.003837679
81	0xbcbffa7c	-0.02343487
82	0xbd54764f	-0.05187064
83	0xbc1d80ea	-0.009613255
84	0xbd1a9784	-0.037742153
85	0xbd7407a8	-0.059577614
86	0xbc2f370e	-0.010694278
87	0xbd4ab812	-0.04949195
88	0xbd0d7d46	-0.0345433
89	0xbda89f5e	-0.08233522
90	0xbd1983cf	-0.037479218
91	0xbd48f88e	-0.049065165
92	0xbd08d411	-0.033405367
93	0xbd0f52ad	-0.034990955
94	0x3cc46c71	0.02397749
95	0xbcdaefc6	-0.026725661
96	0xbbcd8bf6	-0.006272788
97	0xbd929a71	-0.071583636
98	0xbd514190	-0.051087916
99	0x3c75839a	0.01498499
100	0xbd316ab7	-0.04331466
101	0x3d33764f	0.043814
102	0xbd554995	-0.052072126
103	0x3ce66456	0.028124016
104	0xbd763289	-0.060106788
105	0xbd4e8f90	-0.05042988
106	0xbd861a19	-0.065479465
107	0xbd89dcda	-0.06731577
108	0x3d138673	0.036016893
109	0xbc45524e	-0.012043549
110	0xbb56ed09	-0.0032795093
111	0x3cc14c82	0.023596052
112	0xbd28b01a	-0.04118357
113	0xbd688641	-0.05676866
114	0x3c1ba1cb	0.009499024
115	0xbcde6f18	-0.027152583
116	0x3c53ffda	0.012939418
117	0xbb1f001b	-0.0024261537
118	0xbd223acd	-0.039606858
119	0x3c3a496a	0.011370042
120	0xbd2ae52f	-0.041722473
121	0xbd363a6f	-0.04448932
122	0xbd9b1873	-0.07573023
123	0xbd6a2c75	-0.057171304
124	0xbcad2921	-0.021137776
125	0xbc88d6aa	-0.016703922
126	0xbce33abf	-0.027737973
127	0xbc01869a	-0.007905627
128	0x3dd0c06d	0.10192952
129	0xbccf49de	-0.025303777
130	0x3c494eb9	0.012286835
131	0xbcf112bc	-0.029427879
132	0xbd0575cd	-0.032583047
133	0xbc0189bd	-0.0079063745
134	0xbdfdb94d	-0.12388859
135	0xb9f5a17f	-0.00046850365
136	0xbd5091e0	-0.050920367
137	0xbb8d7bd3	-0.0043177395
138	0xbcab4870	-0.020908564
139	0xbdbfa2c3	-0.09357216
140	0xbda8c72c	-0.08241114
141	0xbcd7e797	-0.026355548
142	0x3c3ee314	0.011650819
143	0xbdb61776	-0.088911936
144	0xbcd728f3	-0.026264643
145	0xbd9c8020	-0.076416254
146	0xbd090b65	-0.033458132
147	0xbc53f1ed	-0.012936098
148	0xbd1336fc	-0.03594111
149	0xbd1a29a9	-0.037637386
150	0xbc4b4410	-0.012406364
151	0x3cc9e03d	0.024643058
152	0xbd4c58d5	-0.049889404
153	0x3d4885e1	0.048955802
154	0xbd829439	-0.063759275
155	0xbccd9f24	-0.025100298
156	0xbc32be42	-0.010909619
157	0xbcd45e12	-0.025923762
158	0xbd80ddf8	-0.06292337
159	0x3d8ad3b2	0.06778659
160	0xbc8a63aa	-0.016893227
161	0xbc901182	-0.017586473
162	0xbd4ef6eb	-0.050528448
163	0xbd00b4ef	-0.03142255
164	0xbd881ae1	-0.06645752
165	0xbca8f66e	-0.02062532
166	0xbb02186d	-0.0019850985
167	0xbd8ef84d	-0.06980953
168	0x3c26161a	0.010137105
169	0xbd07d82b	-0.03316514
170	0xbd4b0748	-0.04956749
171	0x3cbf0ef3	0.023322558
172	0xbcf4ca6d	-0.02988168
173	0xbd59ac75	-0.053142983
174	0xbdd4a773	-0.10383501
175	0xbd837651	-0.064190514
176	0x3cb6cb71	0.022313805
177	0xbd522987	-0.051309135
178	0xbd03d113	-0.03218181
179	0xbd820eae	-0.06350456
180	0xbd2ff8cd	-0.042961884
181	0xbd404dd8	-0.046949238
182	0xbd8a805f	-0.06762766
183	0x3c2666b8	0.010156326
184	0xbd7db467	-0.061939623
185	0x3c43ee06	0.011958605
186	0xbaaaca30	-0.0013030227
187	0x394f867f	0.00019791162
188	0xbcc31200	-0.023812294
189	0xbd82f3e5	-0.063941754
190	0xbd956df3	-0.07296362
191	0x3a9b7659	0.0011860832
192	0xbd4cdc53	-0.050014805
193	0xbd2d488b	-0.04230551
194	0xbc748d53	-0.014926272
195	0xbcfea2f6	-0.031083565
196	0xbdae1a8b	-0.085011564
197	0xbd3eab24	-0.04654993
198	0xba824ab2	-0.0009940474
199	0xbd903ce6	-0.070428655
200	0xbda60192	-0.08105768
201	0xbd1c2133	-0.0381176
202	0xbc28722a	-0.010281125
203	0xbd2d0b58	-0.042247146
204	0x3c3bab33	0.011454391
205	0xbb719e42	-0.003686801
206	0xbc896c4a	-0.016775269
207	0x3d2fdbd8	0.04293427
208	0xbdd7dc3d	-0.10540054
209	0x3cd9413f	0.02652037
210	0xbd26eedf	-0.04075515
211	0x3d213756	0.039359413
212	0x3c375fb7	0.011192254
213	0x3d17fc40	0.0371058
214	0xbc9d2f9b	-0.01918774
215	0x3d334e2a	0.043775715
216	0xbd323af4	-0.043513253
217	0x3c9d949a	0.019235898
218	0xbc8ed224	-0.017434187
219	0xbd075c1a	-0.03304682
220	0xbc9617fe	-0.018321987
221	0xbbb32c3a	-0.0054679187
222	0xbd65621f	-0.05600178
223	0x3c53e4e9	0.012932994
224	0xbcc975be	-0.024592277
225	0xbc8d4179	-0.017243134
226	0xbd9810ae	-0.074250564
227	0x3d208bcb	0.039195817
228	0xbd37213d	-0.044709433
229	0xbbbaed3f	-0.0057045515
230	0xbd112c64	-0.035442725
231	0xbdaf5c2d	-0.08562503
232	0xbcefd65e	-0.029277023
233	0x3d8574a4	0.06516388
234	0xbb88196b	-0.0041534207
235	0x3b47832a	0.003044317
236	0xbd7c1d95	-0.06155165
237	0x3a6d91b7	0.0009062546
238	0xbc1d0ecc	-0.009586047
239	0x3ca9e593	0.020739352
240	0xbce8e989	-0.02843167
241	0xbc863593	-0.016382968
242	0xbd1b9be8	-0.03799048
243	0xbbc5fd9a	-0.0060421946
244	0xbd4d793b	-0.050164443
245	0x3c065867	0.008199788
246	0xbcd2ac9a	-0.025717068
247	0xbd560c71	-0.05225796
248	0xbd5bca6f	-0.053659853
249	0xbd105323	-0.035235535
250	0x3d375dbc	0.044767126
251	0xbdb2adfc	-0.08724591
252	0x3d890daa	0.06692059
253	0x3d7e5ec2	0.062102087
254	0xbd17ade6	-0.037031077
255	0xbd109be7	-0.03530493

map_L2.weight f4 [64, 256]
0	0x3cf576c6	0.029963862
1	0xbd0ae53b	-0.033910017
2	0x3df9e7af	0.12202393
3	0x3c8b80a1	0.017029108
4	0x3dcb10d2	0.099153176
5	0xbcfd6856	-0.03093354
6	0x3b41f6d0	0.0029596575
7	0xbdc56bdb	-0.096397124
8	0x3da8a1e5	0.08234004
9	0x3d8a61e6	0.06756954
10	0xbc0259d3	-0.007955986
11	0xbdf2a746	-0.11848311
12	0xbd716281	-0.05893183
13	0x3e358157	0.1772512
14	0xba70ca9e	-0.0009185466
15	0x3d7c2a34	0.061563686
16	0xbad64552	-0.0016347563
17	0xbd985c3c	-0.07439467
18	0xbc0212c1	-0.007939042
19	0xbd8996bb	-0.06718203
20	0xbde1deeb	-0.11028846
21	0xbe63b0e8	-0.22235453
22	0xbd0afba0	-0.033931375
23	0x3ea501c0	0.32227898
24	0x3e8192cb	0.25307307
25	0x3d215b15	0.039393503
26	0xbae9062c	-0.0017778329
27	0xbd610ed3	-0.054945778
28	0x3cc722d5	0.024308601
29	0x3e669dbc	0.22521108
30	0x3abb2a74	0.001427962
31	0xbc1dd275	-0.009632696
32	0x3e2233a7	0.15840016
33	0x3e04cdc4	0.12969118
34	0xba98c8e0	-0.0011656545
35	0xbd21c8fb	-0.03949831
36	0x3e00dee5	0.12585028
37	0x3d79568f	0.060873564
38	0x3d1c8bf4	0.038219407
39	0x3d673bfe	0.056453697
40	0xbe243047	-0.16034041
41	0x3ca83b70	0.020536155
42	0x3ca40cf5	0.02002571
43	0x3da50054	0.08056703
44	0x3d0d1c52	0.034450836
45	0x3c64528d	0.013935697
46	0xbd43ff4d	-0.047850896
47	0x3c6caeef	0.014446004
48	0x3dbe9410	0.093055844
49	0x3bf77ae4	0.0075524915
50	0xbd6fafe9	-0.05851737
51	0xbaf4cd29	-0.0018676865
52	0x3d1d31bf	0.03837752
53	0x3bb2fb22	0.0054620663
54	0xbd8ef6c2	-0.06980659
55	0x3d230feb	0.039810102
56	0x3e4b47d6	0.19851622
57	0xbd47b8a7	-0.048760083
58	0x3db92524	0.09040287
59	0xbdcfbfaf	-0.101439826
60	0xbc79c442	-0.015244545
61	0x3d1b97dc	0.03798662
62	0x3e0fe2f5	0.14051421
63	0xbc247fc9	-0.010040232
64	0xbd99dd52	-0.075129166
65	0xbe13bb58	-0.14426935
66	0x3dbac978	0.09120458
67	0xbd3f3ae5	-0.046687026
68	0x3e40cea0	0.18828821
69	0xbdfa7050	-0.12228453
70	0x3d076734	0.033057407
71	0xbe0a3af7	-0.13499056
72	0x3c8daca2	0.017294232
73	0xbca607f9	-0.020267474
74	0x3d061606	0.032735847
75	0x3dcaeefd	0.09908865
76	0xbd14bcbb	-0.0363128
77	0x3c7d5977	0.015463225
78	0xbd0c8b48	-0.034312516
79	0x3c1bfcfc	0.009520765
80	0xbdf12bd0	-0.11775935
81	0x3e07873b	0.1323518
82	0xbd5c39f8	-0.05376622
83	0x3d6ffe48	0.05859211
84	0x3dd9ae91	0.10628999
85	0x3c92a91d	0.017902905
86	0xbe14e7f1	-0.14541604
87	0xbc72d48b	-0.014821182
88	0xbc5cd5b3	-0.013478684
89	0x3e75b3bb	0.23994343
90	0x3dc3f3db	0.09567996
91	0xbd41561b	-0.047201257
92	0x3ce64eaf	0.028113691
93	0x3dffd8e3	0.1249254
94	0xbd4dbdf8	-0.050229996
95	0x3d99e93d	0.0751519
96	0x3de737f5	0.1128997
97	0x3e98e0a6	0.29858893
98	0x3c37fc57	0.011229596
99	0xbdc6e3ad	-0.097113945
100	0xbbb4f91e	-0.005522861
101	0x3d97b7ab	0.07408079
102	0x3deff198	0.11716002
103	0xbebd9836	-0.3703019
104	0x3e180e34	0.14849168
105	0x3c437eca	0.011932084
106	0x3c266851	0.010156707
107	0x3d68f5df	0.056875106
108	0x3cf0dc5d	0.029401952
109	0xbe763c1e	-0.2404637
110	0xbe202ed5	-0.15642865
111	0x3e58bdb1	0.21166112
112	0x3c85aa83	0.016316658
113	0xbc9d8eba	-0.019233096
114	0xbd7e5b46	-0.062098764
115	0xbd8ca9f8	-0.068683565
116	0xbdc1a763	-0.094557546
117	0xbe199232	-0.14997175
118	0x3d39ff44	0.045409456
119	0x3c83ca24	0.0160876
120	0xbd33d639	-0.04390547
121	0xbbf36bfd	-0.0074286447
122	0x3d9451b6	0.072421476
123	0x3e3d6fef	0.1849973
124	0xbb965c82	-0.0045886645
125	0x3d1d8a29	0.038461838
126	0xbdb9c58f	-0.090708844
127	0xbd9a977e	-0.07548426
128	0xbd8d9a82	-0.06914236
129	0x3df8c92a	0.12147744
130	0xbea04890	-0.3130536
131	0x3d1f0be7	0.03882971
132	0xbcc8a2a8	-0.024491623
133	0xbd9e8340	-0.07739878
134	0x3d4826e4	0.048865214
135	0x3d94abe7	0.0725935
136	0xbd5f2ba5	-0.054484982
137	0xbd8a6fd2	-0.06759609
138	0xbd271ef7	-0.040801015
139	0x3d96aa7f	0.07356738
140	0x3e1a8b2a	0.1509215
141	0xbe13edc4	-0.14446169
142	0x3d88081b	0.06642171
143	0x3ddd8a0f	0.10817348
144	0xbc04b089	-0.00809873
145	0x3d05e1fa	0.03268621
146	0x3e7b0dc6	0.24516973
147	0xbde6b72f	-0.11265408
148	0x3e152fd9	0.14569034
149	0xbcb5b9a2	-0.022183243
150	0x3c85dd2b	0.016340813
151	0xbe002e57	-0.12517677
152	0xbcc1229a	-0.02357607
153	0xbe85cc45	-0.26132408
154	0x3d49abe0	0.04923618
155	0x3e3bfa4d	0.18357201
156	0xbd226385	-0.03964569
157	0xbda5935c	-0.08084747
158	0x3da169e6	0.07881527
159	0xbc5900f8	-0.01324486
160	0x3d2903ad	0.04126327
161	0xbd472737	-0.048621383
162	0xbbcbe91a	-0.006222856
163	0xbc4fdd51	-0.012687043
164	0xbc834142	-0.016022328
165	0xbd8689f7	-0.065692835
166	0x3c88e598	0.016711041
167	0x3e078d85	0.13237579
168	0x3e4292ae	0.19001266
169	0xbd089f67	-0.033355143
170	0x3d819ab7	0.06328338
171	0x3cae372e	0.021266546
172	0x3db0d7c9	0.08634908
173	0x3d5d0e95	0.053968985
174	0x3dda265c	0.10651848
175	0x3d922cbc	0.07137439
176	0xbd5ab3ad	-0.05339401
177	0x3d173b89	0.03692201
178	0x3cfe3f32	0.031035993
179	0x3d90bbf3	0.070670985
180	0x3d1951fa	0.037431695
181	0x3d11e893	0.03562219
182	0xbe325b4a	-0.17417637
183	0x3aab7ed1	0.0013084059
184	0xbc61f4c6	-0.013791269
185	0xbd167ed7	-0.036742058
186	0xbc7916af	-0.015203162
187	0x3db43a9e	0.08800243
188	0xbcc4480b	-0.023960134
189	0x3d4cccce	0.050000004
190	0x3d9994f5	0.074991144
191	0xbd9d8b9c	-0.07692644
192	0xbba31193	-0.0049764602
193	0x3d8fa45e	0.070137724
194	0x3d2b22e5	0.041781325
195	0x3ccca52c	0.024981104
196	0x3d4c512c	0.0498821
197	0xbce4495e	-0.027867015
198	0xbddb9ad6	-0.10722892
199	0x3da88eff	0.08230399
200	0x3d06476c	0.032782957
201	0x3b3a53c9	0.0028431288
202	0xbdb00c38	-0.085960805
203	0x3da7f875	0.08201686
204	0xbbb94951	-0.005654492
205	0x3db38b1a	0.08766766
206	0x3ca4afe9	0.020103412
207	0xbd8022ea	-0.06256659
208	0x3ed0142d	0.40640393
209	0xbdb61c7a	-0.0889215
210	0xbd781a49	-0.060571942
211	0x3df80c8a	0.12111767
212	0x3e4db8ef	0.20090078
213	0xbdd65db1	-0.10467089
214	0x3e187f39	0.14892282
215	0x3e7c7e6e	0.24657604
216	0x3e6b8336	0.22999272
217	0x3d8afc68	0.06786424
218	0xbe510ecb	-0.204158
219	0x3d13425b	0.035951953
220	0x3e17fbe1	0.14842178
221	0xbd24fc4c	-0.04027967
222	0xbcdc87f4	-0.026920296
223	0xbe36bd08	-0.17845547
224	0x3dc222d2	0.09479298
225	0x3dd34458	0.1031577
226	0x3e1eba99	0.15500869
227	0x3d739207	0.059465434
228	0xbdae0c62	-0.084984556
229	0x3de3af07	0.11117368
230	0x3e2a94cd	0.16658325
231	0xbc81bfec	-0.015838586
232	0xbd393fe5	-0.04522695
233	0x3db0d85c	0.08635017
234	0x3c30c778	0.010789745
235	0x3e64bdcf	0.22338031
236	0x3d52743d	0.051380385
237	0x3e25e8e2	0.16202119
238	0xbcd552ed	-0.026040519
239	0xbe4d854a	-0.20070377
240	0xbc35f7c3	-0.011106434
241	0xbad2f129	-0.00160936
242	0x3d424c78	0.047436208
243	0xbd675611	-0.056478564
244	0x3cc1eabe	0.023671504
245	0xbd232358	-0.03982863
246	0x3d847505	0.06467632
247	0x3d77a155	0.060456593
248	0xbd8f0412	-0.06983198
249	0xbdb16096	-0.086610004
250	0xbe12b2ec	-0.14326066
251	0xbc0b1696	-0.008489272
252	0x398cfa76	0.0002688949
253	0xbb0f612a	-0.0021877983
254	0x3ad4640f	0.0016204136
255	0xbc40b0cc	-0.011760902

map_L2.bias f4 [64]
0	0x3d3b7df4	0.045774415
1	0x3b9fce33	0.004876876
2	0xbde4f6e4	-0.11179903
3	0x3ab5c598	0.0013868092
4	0xbb926853	-0.004468003
5	0x3b0de5a4	0.002165177
6	0xbc54c4e9	-0.0129864
7	0xbcf088bd	-0.029362077
8	0x3cbb31d4	0.022850908
9	0xbc1656f9	-0.009176009
10	0xbcb48fa8	-0.022041157
11	0x3dbe8bb2	0.093039885
12	0x3d5cd72e	0.05391615
13	0xbd926bb2	-0.071494475
14	0xbd27543e	-0.040851824
15	0x3ce017f1	0.027355166
16	0xbd299ff7	-0.04141232
17	0xbd8295eb	-0.06376251
18	0xbbc816b5	-0.0061062225
19	0xbc72ddee	-0.01482342
20	0xbd778a0a	-0.06043438
21	0xbe36440a	-0.17799392
22	0x3d1abc70	0.037777364
23	0x3c4b6171	0.012413369
24	0xbd2aa0c3	-0.04165722
25	0x3c5aa68f	0.013345375
26	0xbd155756	-0.036460243
27	0xbb34cc06	-0.0027587428
28	0xbd899d41	-0.06719447
29	0xbdac9938	-0.08427662
30	0xbd08c4e2	-0.033390887
31	0xbd5b1dbe	-0.05349516
32	0x3cccd082	0.025001768
33	0xbda90633	-0.082531355
34	0x3c5218d1	0.0128232995
35	0xbaed467e	-0.0018102673
36	0xbcb64225	-0.022248337
37	0x3da1c4a5	0.07898835
38	0xbd325549	-0.043538366
39	0xbdccd66b	-0.100018345
40	0x3d226a93	0.03965242
41	0xbc86505a	-0.016395736
42	0x3d727b50	0.05919963
43	0xbd43c5c7	-0.047796037
44	0xbdb4c332	-0.08826293
45	0xbcd35e31	-0.02580175
46	0xbd8e454c	-0.06946811
47	0x3d2b45eb	0.041814726
48	0xbd423c33	-0.04742069
49	0xbd5a4164	-0.053285018
50	0xbd41da1b	-0.047327142
51	0xbdc537c9	-0.09629781
52	0xba95e130	-0.0011434909
53	0xbe113438	-0.14180076
54	0xbca3a1f5	-0.019974688
55	0xbd240bb8	-0.04005024
56	0x3ce8e820	0.028430998
57	0xbc697006	-0.0142479
58	0xbdbac9e2	-0.09120537
59	0x3d221f68	0.039580733
60	0x3da9ebe6	0.08296947
61	0xbd1158be	-0.03548502
62	0xbdf50c13	-0.119651936
63	0x3d567274	0.052355245

map_L3.weight f4 [16, 64]
0	0x3d7779e5	0.060418982
1	0x3d7c10c1	0.061539415
2	0xbbc0883e	-0.0058756163
3	0xbde5c3fe	-0.11219023
4	0x3c7b40da	0.015335286
5	0x3d382c8e	0.044964366
6	0xbd104912	-0.035225935
7	0x3d16b7f4	0.036796525
8	0x3e481fd3	0.1954339
9	0xbde01ea6	-0.10943346
10	0x3e386741	0.18008138
11	0x3e63f431	0.2226112
12	0xbccb959e	-0.024851616
13	0x3d1759d7	0.036950912
14	0xbe2522c9	-0.1612655
15	0xbc36ff6f	-0.011169299
16	0x3e3b9c01	0.1832123
17	0x3e3c0c06	0.18363962
18	0x3e437a8f	0.19089721
19	0x3d8efc73	0.069817446
20	0xbde2a16c	-0.11065945
21	0x3c5745c0	0.013139188
22	0xbbfa91fe	-0.007646798
23	0x3e5b8621	0.21437885
24	0xbcf1df36	-0.02952538
25	0xbe2edf4e	-0.17077371
26	0x3c3d5675	0.0115562575
27	0x3c015d9c	0.007895853
28	0x3cdb7a2b	0.026791653
29	0xbe832a96	-0.25618428
30	0xbc7719f7	-0.015081874
31	0x3e74dda6	0.23912677
32	0xbd6bf6b0	-0.057608306
33	0xbe14bb06	-0.14524469
34	0x3da27aaf	0.07933556
35	0x3e050753	0.12991075
36	0x3db77de2	0.08959557
37	0x3e2d2ba9	0.16911186
38	0xbd8b7f40	-0.068113804
39	0xbbaacba1	-0.0052122627
40	0x3e271971	0.16318299
41	0x3d809a45	0.062794246
42	0x3e20767f	0.15670203
43	0xbcbf3464	-0.023340411
44	0x3d3f39ee	0.046686105
45	0xbd86e382	-0.065863624
46	0x3e1b97ae	0.1519458
47	0x3d7c4e21	0.061597947
48	0xbe51c161	-0.20483924
49	0xbe1f0537	-0.15529333
50	0xbe319845	-0.17343242
51	0xbe7f073a	-0.249051
52	0x3e2fe972	0.17178896
53	0xbcd7595e	-0.02628773
54	0xbc500905	-0.012697463
55	0x3ce5f01a	0.02806859
56	0x3dceeda2	0.101039186
57	0xbdecb7f1	-0.115585215
58	0x3dc4451b	0.09583493
59	0x3c8ca6fa	0.017169464
60	0x3e77c8e6	0.2419773
61	0x3e4be694	0.19912177
62	0xbc2c7c24	-0.010527644
63	0x3d7fb25f	0.062425967
64	0xbdbafb32	-0.09129943
65	0xbdae5bff	-0.085136406
66	0x3d601faf	0.054717716
67	0xbe8bca5b	-0.27302822
68	0xbea4541b	-0.32095417
69	0x3b09f9b7	0.0021053383
70	0xbe0fd1b8	-0.14044845
71	0xbe411a23	-0.18857627
72	0xbddf7013	-0.10910048
73	0xbc1e40dc	-0.009659018
74	0x3e91372a	0.283624
75	0xbe22a0d2	-0.1588166
76	0xbc04c3fe	-0.008103369
77	0xbd71b5df	-0.059011336
78	0x3e61f070	0.22064376
79	0x3d0702c3	0.03296162
80	0x3d4c13cc	0.049823567
81	0x3e814fdf	0.2525625
82	0x3e3dad38	0.18523109
83	0xbc64c377	-0.013962618
84	0x3db1f81a	0.086899
85	0xbe067b19	-0.13132896
86	0x3e0d2ec7	0.13787375
87	0x3e241698	0.16024244
88	0xbece5567	-0.40299532
89	0xbd461b49	-0.048365865
90	0xbea3a578	-0.3196218
91	0x3e8a93aa	0.27065784
92	0xbe5bebfe	-0.21476743
93	0xbe11d20e	-0.14240286
94	0x3dd4979f	0.10380482
95	0xbdcf7940	-0.101305485
96	0x3da3c5dd	0.07996724
97	0x3d392f93	0.045211386
98	0xbdb649f2	-0.08900823
99	0x3e0cbdf8	0.13744342
100	0x3d87e29d	0.0663502
101	0x3bba811b	0.00569166
102	0x3ddd2efd	0.10799978
103	0xbcd39dd4	-0.025832094
104	0x3ea5948a	0.3233989
105	0x3c1b6c15	0.009486218
106	0xbe5ef36c	-0.21772546
107	0xbe8cc8a0	-0.27496815
108	0x3e5d9454	0.21638614
109	0x3cb91df2	0.022597287
110	0xbdab0300	-0.083501816
111	0xbbbefd95	-0.005828569
112	0xbdb9db38	-0.09075016
113	0x3e3b115e	0.18268344
114	0x3d13b78a	0.03606371
115	0xbd9c0363	-0.076178335
116	0x3e0aeedd	0.13567682
117	0x3c91b5ca	0.01778688
118	0xbd9a71b8	-0.075412214
119	0x3e9cc1ba	0.30616552
120	0xbe684f16	-0.22686419
121	0xba620b91	-0.00086229393
122	0xbe574a31	-0.21024396
123	0x3e80a9b9	0.25129488
124	0xbe6eea99	-0.2333168
125	0xbd6fc7ec	-0.05854027
126	0x3d6913c2	0.05690361
127	0xbd42f22b	-0.04759423
128	0x3da69fd0	0.081359506
129	0xbd12bb85	-0.035823364
130	0xbe07201e	-0.13195845
131	0x3e38d859	0.1805128
132	0xbe299330	-0.16560054
133	0xbdfb2373	-0.12262621
134	0x3dd8637a	0.10565849
135	0x3de49ac8	0.11162335
136	0x3e502020	0.20324755
137	0xbc9c84b0	-0.01910624
138	0xbd588619	-0.05286226
139	0x3be44742	0.0069665024
140	0x3da0c287	0.07849603
141	0xbe73caad	-0.23807783
142	0xbe04def7	-0.1297568
143	0x3d9fdf6f	0.078062885
144	0xbe5cc4c5	-0.21559437
145	0x3e31a81d	0.17349286
146	0xbe5e150e	-0.21687719
147	0xbc9234a0	-0.01784736
148	0xbd9b99e6	-0.07597713
149	0xbe82cf76	-0.25548905
150	0x3de95faf	0.11395203
151	0xbdd47cf2	-0.10375394
152	0xbca28f52	-0.019843731
153	0xbe3a985e	-0.18222186
154	0xbe027bd9	-0.12742557
155	0xbd0ffaa4	-0.03515114
156	0xbe7da9de	-0.2477183
157	0xbe896628	-0.26835752
158	0x3dc8160f	0.09769832
159	0x3d9816c8	0.0742622
160	0xbdc063bb	-0.09394022
161	0xbb4164f2	-0.002950963
162	0x3d7fc384	0.062442318
163	0x3df66ce7	0.1203249
164	0xbd667286	-0.05626156
165	0x3d668793	0.056281637
166	0xbe2b53df	-0.16731213
167	0x3e5cdb3d	0.21568008
168	0x3d393c81	0.045223717
169	0x3da22663	0.07917478
170	0xbe291e0f	-0.16515373
171	0xbdd183a8	-0.102301896
172	0xbdd9b7b8	-0.10630745
173	0xbd0223a0	-0.031772256
174	0x3e38a775	0.1803263
175	0x3e5d7b29	0.21629013
176	0xbd809de8	-0.06280118
177	0x3c63e96c	0.013910633
178	0xbe937025	-0.28796497
179	0xbe301e18	-0.1719898
180	0xbe4f478c	-0.20242137
181	0xbe482df4	-0.1954878
182	0x3db2278a	0.08698948
183	0x3af9bba4	0.0019053114
184	0x3e53caca	0.20682827
185	0x3e39f29a	0.18158951
186	0x3e6662d7	0.22498642
187	0x3dc33810	0.095321774
188	0xbe0dadb0	-0.13835788
189	0xbdec27d8	-0.11531037
190	0xbe18a490	-0.14906526
191	0x3ceb25b3	0.0287045
192	0xbe4d3ec8	-0.2004348
193	0x3de9cc48	0.11415917
194	0xbd24b368	-0.040210158
195	0xbd3e3e65	-0.046446223
196	0xbd8c23bd	-0.06842754
197	0xbe3a4bfa	-0.18193045
198	0x3ce680de	0.02813762
199	0xbe1f8fd9	-0.15582217
200	0xbdf9ef1e	-0.12203811
201	0x3e36de4d	0.17858239
202	0xbeb75b21	-0.35811713
203	0x3e0dda51	0.13852812
204	0x3d9e2f37	0.07723849
205	0x3d92bb24	0.071646005
206	0x3e3c8881	0.18411447
207	0x3e81ab3a	0.25325948
208	0xbe977032	-0.29577786
209	0xbd8b0347	-0.067877345
210	0x3bfcc698	0.007714104
211	0xbdb89eb1	-0.09014643
212	0xbe302237	-0.17200552
213	0x3e21e6f7	0.15810762
214	0xbe177805	-0.14791878
215	0x3de8ef77	0.11373799
216	0x3c85ca37	0.016331775
217	0xbe204bf8	-0.1565398
218	0xbd9112b6	-0.07083647
219	0xbe1fec89	-0.15617575
220	0xbd3e9a3a	-0.0465338
221	0xbc1c7ef1	-0.00955175
222	0x3d91f7ea	0.07127364
223	0xbe8dbaf9	-0.2768171
224	0x3deffc6f	0.1171807
225	0xbd866e34	-0.06563988
226	0x3e2fe69e	0.17177817
227	0xbead93d5	-0.3390185
228	0xbe3a5d5c	-0.18199676
229	0x3d820b3d	0.063498
230	0x3db32fe1	0.087493666
231	0xbcb17fe0	-0.02166742
232	0xbdb4af4d	-0.088224985
233	0xbe941b76	-0.289272
234	0x3e17f31e	0.14838836
235	0xbdebcae3	-0.11513307
236	0x3e86003c	0.26172054
237	0xbdd9a373	-0.106268786
238	0xbe910861	-0.28326705
239	0x3c35bc80	0.011092305
240	0x3d1a4ca6	0.037670754
241	0xbdfea9d9	-0.124347396
242	0xbd022aa3	-0.031778943
243	0x3e6a7518	0.2289623
244	0x3e4105f3	0.18849926
245	0x3d83fa73	0.06444254
246	0x3dc058cd	0.093919374
247	0xbd4660b4	-0.048432067
248	0x3e48d483	0.19612317
249	0xbe340b19	-0.17582358
250	0xbe377069	-0.17913975
251	0x3e314f4d	0.17315407
252	0x3d9a66b3	0.075391196
253	0xbe81b89f	-0.25336167
254	0xbe27a005	-0.16369636
255	0xbe61ae53	-0.22039156

map_L3.bias f4 [16]
0	0x3de715eb	0.112834774
1	0x3d933e75	0.07189647
2	0xbd247700	-0.04015255
3	0x3e11b383	0.14228635
4	0xbd4e6c68	-0.050396353
5	0xbe086c2a	-0.13322511
6	0xbe08f201	-0.13373567
7	0xbe01a8b8	-0.12662017
8	0xbcaa2633	-0.020770168
9	0x3c443400	0.011975288
10	0x3dfc1d8a	0.12310322
11	0xbe775eb6	-0.24157223
12	0xbe3634bd	-0.17793556
13	0x3da5efa9	0.08102352
14	0xbe1e21de	-0.15442607
15	0x3da743cb	0.08167227

map_L4.weight f4 [4, 16]
0	0x3eb923eb	0.36160216
1	0xbe0fdb91	-0.14048602
2	0xbebc80f3	-0.3681713
3	0xbe8c78cf	-0.2743592
4	0x3d78c4b3	0.060734462
5	0x3dced467	0.10099106
6	0xbeb3f8a7	-0.35150644
7	0x3e07b238	0.13251579
8	0xbe80e457	-0.2517421
9	0x3c9333d1	0.017969044
10	0xbed32128	-0.41236234
11	0xbe07f017	-0.13275181
12	0x3ed4f677	0.41594288
13	0x3ec03263	0.37538442
14	0xbec63b9b	-0.3871735
15	0xbec0b0c3	-0.37634858
16	0x3e16b4f5	0.14717467
17	0xbd6d2b70	-0.057902753
18	0xbc18b5f0	-0.009320721
19	0x3e5cd4e0	0.2156558
20	0xbea449b0	-0.3208747
21	0x3e602cde	0.21892115
22	0xbd607268	-0.054796606
23	0xbe4d004b	-0.20019643
24	0xbe4fd05a	-0.20294324
25	0xbef6d7b1	-0.48211434
26	0x3e33617e	0.17517659
27	0xbe81c98e	-0.25349087
28	0x3e985e4c	0.29759443
29	0x3ec281f0	0.3798976
30	0x3d06dbe8	0.032924563
31	0x3eb1c906	0.3472368
32	0x3e939c9a	0.28830415
33	0x3e1584c2	0.14601424
34	0xbda8718f	-0.082247846
35	0x3bb45cd4	0.00550423
36	0x3e795bce	0.24351427
37	0xbe05a0fc	-0.13049692
38	0xbf1773bc	-0.5916097
39	0xbe433ab0	-0.19065356
40	0xbed7c330	-0.42141104
41	0x3cd52f06	0.0260234
42	0xbe8b95f8	-0.27262855
43	0xbedb9d7a	-0.42893583
44	0x3e96b607	0.2943575
45	0x3c2efb4c	0.010680031
46	0x3e20a930	0.1568954
47	0xbe71350f	-0.23555396
48	0xbed606b9	-0.41802004
49	0xbe60236a	-0.2188851
50	0x3e01770f	0.12643073
51	0xbe430e2b	-0.19048373
52	0xbe195a77	-0.14975916
53	0x3e71a96d	0.23599787
54	0x3e59e77c	0.2127971
55	0xbccb83ed	-0.02484318
56	0x3d82aa5e	0.06380151
57	0xbefad3b0	-0.4898963
58	0x3b70e3d7	0.0036756897
59	0x3c61a43a	0.013772065
60	0x3ec44112	0.38330895
61	0xbbcf0ff6	-0.0063190414
62	0x3eae3b34	0.34029543
63	0xbecbfae7	-0.3983986

map_L4.bias f4 [4]
0	0xbbe48b7d	-0.006974636
1	0x3e154d50	0.14580274
2	0xbe076f15	-0.13225968
3	0xbe2f08b8	-0.1709317

map_L5.weight f4 [2, 4]
0	0xbedf760c	-0.4364475
1	0x3e7b1915	0.24521287
2	0xbc2bcf2f	-0.010486408
3	0xbed0b070	-0.4075961
4	0x3e952d24	0.29136002
5	0x3e17fecd	0.14843293
6	0xbe85113a	-0.25989705
7	0xbf3707f6	-0.7149652

map_L5.bias f4 [2]
0	0x3e0c3ddd	0.13695474
1	0x3da78b7a	0.081809
