model_AAE_1024/ep_2000_encoder_model.pth (torch_old, 705884 bytes, 10 tensors)

map_L1.weight f4 [256, 618]
0	0x3ee26e10	0.44224596
1	0x3e4afe50	0.19823575
2	0x3f6095d0	0.87728596
3	0x3e13b0fe	0.14422986
4	0x3d2ceb69	0.042216692
5	0xbdcaa351	-0.098944314
6	0x3f6c3402	0.9226686
7	0x3f9a95fd	1.2077023
8	0xbea52170	-0.32252073
9	0xbc2c8331	-0.010529325
10	0x3f6f810d	0.9355629
11	0x3f6efbf8	0.93353224
12	0x3f8477b2	1.0349028
13	0xbe6f21d8	-0.23352754
14	0x3e688bfb	0.22709648
15	0xbcb45874	-0.022014834
16	0x3f4e0f15	0.80491763
17	0x3f9a8c27	1.2074021
18	0x3f48f7c5	0.78503066
19	0x3edab717	0.4271781
20	0x3f49353c	0.78596854
21	0x3f2e9f2e	0.6821164
22	0x3e7b1b2a	0.24522081
23	0x3e864ffb	0.26232895
24	0x3f14eeb8	0.58176756
25	0x3f70e15f	0.9409389
26	0x3f219dbd	0.63131315
27	0x3e9187f1	0.28424028
28	0x3f1e787a	0.6190258
29	0x3f2af139	0.66774327
30	0x3f2baead	0.6706341
31	0x3f8d12b7	1.1021336
32	0x3e1b57c0	0.15170193
33	0x3f9e9698	1.2389708
34	0x3e3f658f	0.18691085
35	0x3f413ab8	0.7548022
36	0x3f097d33	0.53706664
37	0x3f317b40	0.6932869
38	0x3f0f67d2	0.5601779
39	0x3f5b50e9	0.85670334
40	0x3f4e55ca	0.80599654
41	0x3f0f7000	0.56030273
42	0xbebf2ea0	-0.3734026
43	0x3f78e520	0.97224617
44	0x3f01c711	0.50694376
45	0x3f999f63	1.2001766
46	0x3f635199	0.88796383
47	0x3f2e358d	0.6805046
48	0x3f5cc37f	0.86235803
49	0x3f59a6d5	0.8502019
50	0xbd8fea1a	-0.07027073
51	0x3e95d5eb	0.2926477
52	0x3f247cb9	0.6425281
53	0x3f01dc71	0.5072699
54	0x3ec65a7a	0.38740903
55	0x3f4feac2	0.81217587
56	0x3f104a11	0.56363016
57	0x3e796175	0.24353583
58	0x3ee733c1	0.45156673
59	0x3f0f2387	0.55913585
60	0x3eb5f9a2	0.35542017
61	0x3f14870c	0.58018565
62	0x3f284b71	0.65740114
63	0x3f449b42	0.76799405
64	0x3f7c2734	0.9849732
65	0x3f5b674c	0.85704494
66	0x3f8775d5	1.0582834
67	0x3f3771f2	0.7165824
68	0x3f0166a5	0.5054725
69	0xbbf750d5	-0.0075474777
70	0x3e8ebf88	0.27880502
71	0x3ecfb6c4	0.40569127
72	0x3f240f57	0.64085907
73	0x3f9530d1	1.1655523
74	0x3f88cc2b	1.0687307
75	0x3f3518de	0.7074107
76	0x3f732583	0.94979113
77	0x3ef23601	0.47306827
78	0x3f7f58c6	0.9974483
79	0x3e3c3da2	0.18382886
80	0x3f01b8e8	0.5067277
81	0x3ee6c287	0.45070288
82	0x3ef302a6	0.47462958
83	0xbc8f0dc5	-0.01746262
84	0xbc913817	-0.017726941
85	0xbc83094e	-0.015995648
86	0xbc93f094	-0.018059053
87	0xbc80707a	-0.015678633
88	0xbc9d0be3	-0.019170707
89	0xbc913bd2	-0.01772872
90	0xbc8c3251	-0.017113836
91	0xbc892c9a	-0.0167449
92	0xbc975a34	-0.01847563
93	0x3decfd5c	0.11571762
94	0x3d5adf33	0.053435516
95	0x3d51ddb8	0.051236838
96	0x3d4af0da	0.0495461
97	0x3d583ea8	0.05279413
98	0x3d64c752	0.05585415
99	0x3d64ac27	0.05582824
100	0x3d544710	0.051825583
101	0x3d5cc6cd	0.05390053
102	0x3d5d43a6	0.054019593
103	0x3f58d783	0.84703845
104	0x3f5885ea	0.84579337
105	0x3f58e753	0.8472797
106	0x3f596bc6	0.84930074
107	0x3f589543	0.84602755
108	0x3f586228	0.84524775
109	0x3f579115	0.8420575
110	0x3f585719	0.845079
111	0x3f58bd7a	0.8466412
112	0x3f593ca8	0.8485818
113	0x3e0d7187	0.13812838
114	0x3e0dd1ef	0.13849615
115	0x3e0f9328	0.1402098
116	0x3e18277a	0.14858809
117	0x3e0a2d90	0.13493943
118	0x3e0dabb4	0.13835031
119	0x3e0df6b5	0.13863643
120	0x3e0bb1be	0.13642022
121	0x3e128566	0.143087
122	0x3e0d6cc1	0.13811018
123	0x3d2a3a25	0.041559357
124	0x3d2e690b	0.042580646
125	0x3d33e41f	0.043918725
126	0x3d1f4b01	0.03888989
127	0x3d34d7f5	0.044151265
128	0x3d31c777	0.043403115
129	0x3d30ded2	0.043181248
130	0x3d31b463	0.04338492
131	0x3d3ff236	0.04686185
132	0x3d128a84	0.03577663
133	0x3f524eee	0.8215169
134	0x3f540894	0.8282559
135	0x3f52f444	0.8240397
136	0x3f4ffa3f	0.8124122
137	0x3f523de5	0.82125694
138	0x3f5171d2	0.818143
139	0x3f5184b6	0.81843126
140	0x3f4c6bd3	0.79852027
141	0x3f53b331	0.826953
142	0x3f50eed7	0.8161444
143	0x3f51f973	0.82021254
144	0x3f4f4879	0.8096996
145	0x3f50157a	0.8128277
146	0x3f508829	0.81457764
147	0x3f4c6218	0.7983718
148	0x3f4effdf	0.8085918
149	0x3f505a82	0.81388104
150	0x3f508b01	0.81462103
151	0x3f4c9f95	0.79931
152	0x3f50dc41	0.8158608
153	0x3dbc2235	0.09186212
154	0x3dba4cc9	0.09096677
155	0x3dc8adaf	0.097987525
156	0x3daf51fe	0.08560561
157	0x3dc0b643	0.09409764
158	0x3dce7aa7	0.10081988
159	0x3da45eab	0.08025869
160	0x3db6b23a	0.08920713
161	0x3db58d6a	0.08864863
162	0x3dba6c3b	0.091026746
163	0x3d7005c3	0.058599245
164	0x3d7890bc	0.060684904
165	0x3d643157	0.055711117
166	0x3d4eb669	0.05046693
167	0x3d49ca59	0.04926524
168	0x3d624396	0.055240236
169	0x3d668aac	0.05628459
170	0x3d740591	0.05957562
171	0x3d64e6e6	0.055884264
172	0x3d587b75	0.052852113
173	0x3f15bccd	0.5849121
174	0x3f137dd3	0.5761387
175	0x3f54f664	0.8318846
176	0x3f7cad7c	0.98702216
177	0x3f1f169b	0.6214387
178	0x3f594644	0.8487284
179	0x3f90b2eb	1.1304601
180	0xbe9e8763	-0.30962667
181	0x3f82228c	1.0166793
182	0x3ef78e80	0.48350906
183	0x3f3af146	0.73024404
184	0x3f0f2dc8	0.5592923
185	0x3f2769ff	0.6539611
186	0x3e49cc2f	0.19706796
187	0x3e113ae2	0.14182618
188	0x3f5f838e	0.8731011
189	0x3f07414e	0.5283402
190	0x3f8afd9b	1.0858644
191	0x3f5600de	0.83595073
192	0x3f56e251	0.8393908
193	0x3f18e2e7	0.59721226
194	0x3f094875	0.53626186
195	0x3e8ba160	0.27271557
196	0x3ea8c33e	0.32961458
197	0x3e43a676	0.19106469
198	0x3f3b0a1a	0.7306229
199	0x3e9cc727	0.3062069
200	0x3f9bc2bf	1.2168807
201	0x3e19f669	0.15035404
202	0x3f0eb7d4	0.5574925
203	0x3f13dd9f	0.5776004
204	0x3ee5317c	0.44764316
205	0x3f8a9304	1.0826116
206	0x3f033071	0.5124579
207	0x3efca954	0.49347937
208	0xbcf5689a	-0.029957104
209	0x3f6d6f23	0.92747706
210	0x3f45ad08	0.7721715
211	0x3f0e4f69	0.5558992
212	0x3f00290a	0.5006262
213	0x3f82b71e	1.0212133
214	0x3e5958c2	0.21225265
215	0x3f1f39ac	0.62197375
216	0x3f528582	0.82234967
217	0x3f251411	0.64483744
218	0x3f9beb9f	1.2181281
219	0x3f002a5b	0.5006463
220	0x3f9d90a2	1.2309763
221	0x3ec469d7	0.38362
222	0x3e27df13	0.1639369
223	0x3f3afb77	0.73039955
224	0x3f429313	0.7600567
225	0x3dbbdc67	0.09172898
226	0x3f6337d1	0.88757044
227	0x3f549f69	0.8305574
228	0x3f0dc6c4	0.5538142
229	0x3f37a333	0.717334
230	0x3f1d8812	0.6153575
231	0x3f5944f1	0.8487082
232	0x3f3ee740	0.7457161
233	0x3f484484	0.78229547
234	0x3f258276	0.6465219
235	0x3ea49d53	0.3215128
236	0xbdb6c449	-0.08924157
237	0x3f2a05d9	0.6641517
238	0x3f03b252	0.5144397
239	0x3de0ab7c	0.10970208
240	0x3f67a320	0.90483284
241	0x3f813a8e	1.0095994
242	0xbec3a573	-0.38212165
243	0x3fa49764	1.2858701
244	0x3e144afd	0.14481731
245	0x3f0c5a1e	0.5482501
246	0x3f15e220	0.58548164
247	0x3f320bc9	0.6954923
248	0x3f47d6f0	0.78062344
249	0x3f0df852	0.5545703
250	0x3f1d3853	0.6141407
251	0x3e233036	0.1593636
252	0x3f048282	0.5176164
253	0x3ec14954	0.37751257
254	0x3d156cb5	0.036480624
255	0x3f93b8bd	1.1540753

map_L1.bias f4 [256]
0	0x3e260470	0.1621263
1	0xbe1f7d2f	-0.15575098
2	0xbe389a74	-0.18027669
3	0xbfc9d006	-1.5766609
4	0xbfdfeb56	-1.7493694
5	0xbfdfaf27	-1.7475327
6	0xbfea5c8e	-1.8309495
7	0xbfe59fe5	-1.7939421
8	0xbfe301aa	-1.7734883
9	0x3e28b3fd	0.1647491
10	0x3e4c74cb	0.19966428
11	0xbfd64950	-1.6741123
12	0xbfdd087a	-1.7268212
13	0xbfd18eaa	-1.6371663
14	0xbe8597e8	-0.26092458
15	0xbfd48dfd	-1.6605831
16	0xbb53e573	-0.0032332807
17	0xbfdd219d	-1.7275883
18	0xbfdfbed2	-1.7480109
19	0xbfe6f809	-1.8044444
20	0xbfd52462	-1.6651728
21	0xbe221e05	-0.15831764
22	0xbfe2ccc7	-1.7718743
23	0xbfb80b8f	-1.4378527
24	0xbfdbf91d	-1.7185398
25	0xbfc5ebab	-1.5462545
26	0x3f503d05	0.8134311
27	0xba3538e4	-0.00069130794
28	0xbfcf07ed	-1.6174294
29	0xbf1c549a	-0.6106659
30	0xbfe1356a	-1.7594426
31	0xbfe57824	-1.7927289
32	0xbfd7fdfa	-1.6874382
33	0xbfe2cbd6	-1.7718456
34	0xbe6a170d	-0.22860356
35	0xbfc780b3	-1.5586151
36	0xbfc91ab1	-1.571127
37	0x3e97b48c	0.29629934
38	0xbfd5b300	-1.6695251
39	0x3ea8a540	0.32938576
40	0xbfe2caf5	-1.7718188
41	0xbfed11e0	-1.852108
42	0xbfe79640	-1.8092728
43	0xbfd5b8cb	-1.6697019
44	0xbe53ac3c	-0.20671171
45	0xbc59fd0e	-0.013304962
46	0xbfd662d6	-1.6748912
47	0xbfed2274	-1.8526139
48	0xbfd1609d	-1.6357609
49	0xbfe7ddaa	-1.8114522
50	0xbfe6f3ba	-1.804313
51	0xbfd949e3	-1.6975673
52	0xbfe737ee	-1.8063943
53	0xbfe1d77a	-1.7643883
54	0xbf6c6a9f	-0.9235019
55	0xbfeb41b5	-1.8379427
56	0xbec682fb	-0.38771805
57	0xbfe34cb0	-1.7757778
58	0xbfe35346	-1.7759788
59	0xbfd0d9f2	-1.6316512
60	0xbff18659	-1.8869125
61	0xbfdbae61	-1.7162591
62	0xbfe1a243	-1.7627643
63	0xbfe50728	-1.7892809
64	0xbfe29613	-1.7702049
65	0xbfe41856	-1.7819927
66	0xbfe2cd67	-1.7718934
67	0xbfe232a9	-1.767171
68	0xbf387cb0	-0.7206526
69	0xbfbf6173	-1.4951614
70	0xbfde69dc	-1.7376056
71	0xbfde3fd3	-1.7363228
72	0xbfeba08d	-1.8408371
73	0xbfdf9bbb	-1.74694
74	0xbfe703fc	-1.8048091
75	0xbfe7a73e	-1.8097913
76	0xbfe50560	-1.7892265
77	0xbf8d5885	-1.1042639
78	0x3dbbbad9	0.09166498
79	0xbfed1e79	-1.8524925
80	0xbfe30d10	-1.7738361
81	0xbda1bc64	-0.07897261
82	0xbfea2f56	-1.8295696
83	0x3eda2608	0.4260714
84	0xbec5a10d	-0.38599434
85	0xbfe1beac	-1.7636313
86	0xbfd66f79	-1.6752769
87	0xbfe21dfc	-1.76654
88	0xbfdb5d49	-1.7137843
89	0xbfd3fa6f	-1.6560801
90	0xbfe49ab8	-1.7859716
91	0xbfe9decb	-1.8271116
92	0xbfe1cd13	-1.7640709
93	0xbfa21f40	-1.2665787
94	0xbfb76b96	-1.4329708
95	0xbfc6d7a2	-1.5534556
96	0xbfdc015a	-1.7187912
97	0xbfeca8d6	-1.8489025
98	0xbfe560e0	-1.7920189
99	0xbf95223c	-1.1651073
100	0xbff119b0	-1.8835964
101	0xbf9b2444	-1.2120442
102	0xbec80234	-0.3906418
103	0xbfbe7c31	-1.488165
104	0xbfdf724a	-1.7456753
105	0xbfe56fce	-1.7924745
106	0xbfe7a2c9	-1.8096553
107	0xbfe4f8f0	-1.788847
108	0xbc833e8c	-0.016021036
109	0xbc0ed43d	-0.008717594
110	0xbfd55c45	-1.6668783
111	0xbf9b4792	-1.2131217
112	0xbfe3da97	-1.7801083
113	0xbfea44cc	-1.8302245
114	0x3f2e3b70	0.68059444
115	0xbfd8aca4	-1.6927686
116	0xbfe349a4	-1.7756848
117	0xbfc751bd	-1.557182
118	0xbfe56970	-1.7922802
119	0xbe67800f	-0.22607444
120	0xbfe388ab	-1.7776083
121	0xbfe68c02	-1.8011477
122	0xbfdb1766	-1.7116516
123	0x3e302835	0.17202838
124	0xbfdfaef7	-1.747527
125	0xbfb986e3	-1.4494289
126	0xbfe1210a	-1.7588208
127	0xbfd2f7ce	-1.6481874
128	0xbe978b4d	-0.29598466
129	0xbfc10199	-1.5078613
130	0xbfd9ca83	-1.7014927
131	0xbfe68552	-1.8009436
132	0xbfd8f303	-1.6949161
133	0xbfe3b7b7	-1.779044
134	0xbff68a47	-1.9260949
135	0xbfdf0f4b	-1.7426542
136	0xbfe93ac4	-1.8221059
137	0xbfd96977	-1.698531
138	0xbfdfcb2a	-1.7483876
139	0xbfea4280	-1.8301544
140	0xbfd2132e	-1.6412103
141	0xbfde625e	-1.7373769
142	0xbfc700d1	-1.5547124
143	0xbfdbb081	-1.716324
144	0xbfdedacd	-1.7410523
145	0xbff10fff	-1.8833007
146	0xbfdb6c19	-1.7142364
147	0xbfdcd042	-1.7251055
148	0xbfe1ae54	-1.7631326
149	0xbfdcbb68	-1.7244692
150	0xbfdcb89c	-1.7243838
151	0xbd8734ac	-0.06601843
152	0xbfe739d6	-1.8064525
153	0x3d0ad48e	0.033894114
154	0xbe167b46	-0.14695463
155	0xbfdd322e	-1.7280939
156	0xbfe09edd	-1.7548481
157	0xbfe39225	-1.7778975
158	0xbfdfd24e	-1.7486055
159	0x3e0e84a5	0.13917787
160	0xbfe3a964	-1.7786069
161	0xbfe3cb90	-1.7796497
162	0xbfead0c9	-1.8344966
163	0xbfea0197	-1.8281735
164	0xbfeb0b46	-1.8362815
165	0xbfe37146	-1.7768943
166	0xbfdcdb0c	-1.7254348
167	0xbfe4f9d4	-1.7888741
168	0xbfe46a90	-1.784502
169	0xbfed13b6	-1.852164
170	0xbfe40c5e	-1.7816274
171	0xbfdd4619	-1.7287017
172	0xbfbe1229	-1.4849292
173	0xbf87ba9d	-1.0603825
174	0xbfe36c0c	-1.7767348
175	0xbfdf071d	-1.7424046
176	0xbfd79957	-1.6843671
177	0xbfe7ae5e	-1.8100088
178	0xbfe33023	-1.7749065
179	0xbfe89d83	-1.8173069
180	0xbfcad1a8	-1.5845232
181	0xbfe1e2ac	-1.76473
182	0xbe15d1b1	-0.14630772
183	0x3e15d73b	0.14632885
184	0xbfe80448	-1.8126307
185	0xbfc4170c	-1.5319533
186	0xbd5fbe13	-0.05462463
187	0xbe30003f	-0.17187594
188	0xbfda56f2	-1.7057784
189	0xbfdd667e	-1.7296903
190	0xbfe9fdeb	-1.8280615
191	0xbdcfa7cf	-0.10139429
192	0xbfe02b2a	-1.7513173
193	0xbfd7237f	-1.6807708
194	0xbfdf585e	-1.7448843
195	0xbfdb2ad8	-1.712245
196	0xbfed53a0	-1.8541145
197	0xbfe454b5	-1.783835
198	0xbcf61746	-0.030040395
199	0xbfe19c52	-1.762583
200	0xbfe314a6	-1.7740676
201	0xbe29599a	-0.16538087
202	0xbfd0fa65	-1.6326414
203	0xbfe0b932	-1.7556517
204	0xbd48b5c3	-0.049001466
205	0xbfdfeb89	-1.7493755
206	0xbf49e2c2	-0.7886163
207	0xbfa6d8cf	-1.3034915
208	0xbec8590a	-0.3913043
209	0xbfcfd7e4	-1.623776
210	0xbfe09bda	-1.7547562
211	0x3e7a832d	0.24464102
212	0xbefdbd41	-0.49558452
213	0x3e66afe0	0.22528028
214	0xbfe2c7fb	-1.7717279
215	0xbfab1a03	-1.3367313
216	0xbfccfcec	-1.6014686
217	0xbdb32f71	-0.08749283
218	0xbfaea8be	-1.3645246
219	0xbfef72ba	-1.8706887
220	0xbfdaef2e	-1.7104242
221	0xbfdeffd0	-1.7421818
222	0xbfe7e5d8	-1.8117018
223	0xbfd7f4c9	-1.6871578
224	0xbe1bd7c2	-0.15219024
225	0xbd9bd698	-0.0760929
226	0xbfe4d6c6	-1.7878044
227	0x3d9ab046	0.07553153
228	0xbfe928a0	-1.8215523
229	0xbfd1a3d6	-1.6378124
230	0xbfe4aaa3	-1.7864574
231	0xbfea9c43	-1.8328937
232	0xbfe133c1	-1.7593919
233	0xbfd3d570	-1.6549511
234	0xbfdcff51	-1.7265416
235	0xbe040cc8	-0.128955
236	0xbfe6d8db	-1.8034929
237	0x3d8b21cb	0.06793555
238	0xbfdd67d0	-1.7297306
239	0xbfa90e37	-1.3207463
240	0xbfec6ded	-1.8471047
241	0xbfde6c5f	-1.7376822
242	0xbfd96b5d	-1.698589
243	0xbf1624f2	-0.58650124
244	0xbfe6b4f0	-1.8023968
245	0xbf498eaa	-0.78733313
246	0xbfde94ba	-1.7389138
247	0xbfe2e9c5	-1.7727591
248	0xbfe535e6	-1.7907073
249	0xbfc0e585	-1.5070044
250	0xbdbaa478	-0.09113401
251	0xbfeb7b9c	-1.8397098
252	0xbfcdb9db	-1.6072344
253	0xbfc704a5	-1.5548292
254	0xbfa08a90	-1.2542286
255	0xbfe2eeef	-1.7729167

map_L2.weight f4 [64, 256]
0	0xbcfc19dc	-0.03077405
1	0x3db54ffb	0.08853146
2	0xbc0ac7c4	-0.008470479
3	0xbd6681d9	-0.056276176
4	0xbdada654	-0.0847899
5	0xbcc9d047	-0.024635447
6	0x3d4b3e67	0.04962006
7	0xbbba7061	-0.005689666
8	0xbc470abd	-0.012148556
9	0x3bd5c4a6	0.0065236865
10	0x3dad4822	0.08461024
11	0xbdb11f6b	-0.086485706
12	0x3db0b8a9	0.08628971
13	0xbdd2679e	-0.1027367
14	0xbcaa36b7	-0.020778043
15	0x3d038f70	0.032119215
16	0x3d05d154	0.032670334
17	0xbd610e18	-0.05494508
18	0x3cd9a77d	0.026569122
19	0x3c3a7d61	0.011382432
20	0xbd486589	-0.048924956
21	0xbc87b985	-0.016567955
22	0xbd4047d6	-0.046943508
23	0xbe1a0295	-0.15040047
24	0x3d8af1e3	0.067844175
25	0xbcad8bb3	-0.021184778
26	0x3c8bccdb	0.017065456
27	0x3d4e114e	0.05030947
28	0x3d7b7a3e	0.061395876
29	0xbe2c72fa	-0.16840735
30	0xbc3f2d07	-0.01166845
31	0x3cda06dd	0.0266146
32	0xbd3bfe7e	-0.045897
33	0xbe23f4dd	-0.16011377
34	0x3e82a765	0.25518337
35	0x3c697082	0.014248015
36	0x3ce25cdb	0.027632168
37	0x3d11068a	0.035406627
38	0xbcada9c7	-0.02119912
39	0x3dc74192	0.097293034
40	0xbd312bdb	-0.043254714
41	0x3d5b8936	0.05359765
42	0xbc9dbdb4	-0.019255497
43	0x3b68ab45	0.0035502475
44	0x3da7fee1	0.08202911
45	0xbe1e72b1	-0.15473439
46	0xbca8b659	-0.020594763
47	0xbd2a7d71	-0.041623536
48	0xbd2dc700	-0.04242611
49	0x3d116277	0.035494294
50	0x3da6b77d	0.08140466
51	0xbd701b1a	-0.058619596
52	0x3db5dda4	0.08880165
53	0x3dd65c31	0.10466803
54	0xbc72e1af	-0.014824315
55	0xbca300fc	-0.01989793
56	0xbd42bdc5	-0.04754426
57	0xbd0f3337	-0.03496095
58	0x3cbe7589	0.023249405
59	0xbace116e	-0.0015721747
60	0x3d73a27c	0.05948113
61	0xbd710d84	-0.05885078
62	0x3d150ec2	0.036391027
63	0xbdbd37a3	-0.092391275
64	0x3b70c8ef	0.003674086
65	0x3c624cc0	0.013812244
66	0xbcfe4140	-0.031036973
67	0x3d9b7443	0.075905345
68	0x3d8285a3	0.063731454
69	0xbd807dbc	-0.06273982
70	0x3c26c898	0.010179661
71	0x3d0571f7	0.03257939
72	0xbc24b06c	-0.010051828
73	0xbd5f7ff3	-0.05456538
74	0xbd9320da	-0.07184
75	0xbb06df49	-0.0020579866
76	0xbd12451c	-0.03571044
77	0x3c717993	0.014738458
78	0x3e68e90d	0.22745152
79	0x3d003da6	0.031308793
80	0x3d0e7077	0.034775224
81	0xbd0873fc	-0.033313736
82	0x3cc45e0a	0.023970623
83	0x3e03947f	0.12849616
84	0x3c7105a1	0.014710815
85	0xbc7de9c2	-0.015497627
86	0xbca5f1b3	-0.020256853
87	0x3ccf6633	0.025317287
88	0x3e14bde6	0.14525566
89	0x3d4867e7	0.048927214
90	0xbd7d04f9	-0.06177232
91	0xbd38504a	-0.044998445
92	0xbde17d3a	-0.11010213
93	0x3bc69a72	0.006060892
94	0xbcc21b9a	-0.023694802
95	0xbd66d516	-0.05635556
96	0xbd162bfb	-0.036663037
97	0x3d0b1b32	0.033961482
98	0xbd228543	-0.03967787
99	0xbcabcc92	-0.02097157
100	0xbd58971d	-0.052878488
101	0xbd975ffc	-0.073913544
102	0x3e5631b4	0.20917398
103	0xbc125fe5	-0.008933996
104	0xbb930bd8	-0.004487496
105	0x3d64bb34	0.055842593
106	0xbd51b82c	-0.05120103
107	0xbdc524a6	-0.09626131
108	0xbca92c15	-0.020650903
109	0xbdb8ab93	-0.090171
110	0x3dc00f01	0.09377862
111	0x3d948b68	0.07253152
112	0x3caffe70	0.02148363
113	0xbd81441d	-0.0631182
114	0xbcb4ed0b	-0.022085687
115	0xbc66848d	-0.0140696885
116	0x3c9a5ba6	0.01884253
117	0x3d870d2c	0.06594309
118	0xbd0f95be	-0.035054915
119	0xbe361afb	-0.1778373
120	0xbd04d19b	-0.032426458
121	0x3dbaa675	0.091137804
122	0xbcea7c24	-0.028623648
123	0x3d11b8df	0.035576697
124	0xbc3f1883	-0.011663559
125	0xbd882982	-0.06648542
126	0xbd817d7d	-0.06322763
127	0xbd347d66	-0.0440649
128	0x3e18f5c8	0.14937508
129	0x3d30a923	0.04313005
130	0xbcb52b22	-0.022115294
131	0x3ce271c8	0.027642146
132	0x3c89ca28	0.016820028
133	0xbc95cc47	-0.018285884
134	0x3d99480d	0.07484446
135	0xbd5e14f9	-0.05421922
136	0xbdc07cd9	-0.09398813
137	0x3d13ef89	0.03611711
138	0x3c2d302a	0.010570565
139	0xbd7bf8df	-0.06151664
140	0x3cdccfad	0.026954496
141	0x3b8c3e4e	0.0042798882
142	0xbd33a600	-0.04385948
143	0xbd1901ea	-0.03735534
144	0x3dc6c54e	0.09705602
145	0x3cb7eeaa	0.022452671
146	0x3d93ba56	0.07213275
147	0x3d8cd811	0.06877149
148	0x3d28643a	0.04111121
149	0x3d875bb9	0.066092916
150	0xbd178f5b	-0.03700195
151	0x3c49bfe9	0.012313821
152	0x3dd8944b	0.1057516
153	0xbd1c2240	-0.0381186
154	0xbbd0f140	-0.0063764155
155	0x3b549b66	0.0032441257
156	0xbd6b7ab9	-0.057490084
157	0x3dd56bb2	0.10420932
158	0xbda40a23	-0.08009746
159	0x3c89b2ae	0.016808834
160	0x3b914dd9	0.004434329
161	0xbd4d0b41	-0.05005956
162	0xbc03ab9b	-0.008036519
163	0xbd870efa	-0.065946534
164	0xb982a77a	-0.00024920312
165	0x3ce63b83	0.02810455
166	0x3bce7312	0.0063003385
167	0x3db5a973	0.088702105
168	0x3de3f92c	0.1113151
169	0xbc9c698f	-0.019093303
170	0xbdb94bd9	-0.0904767
171	0xbdb09398	-0.08621901
172	0x3d470413	0.04858787
173	0x3be2b7a5	0.006918865
174	0xbd087bd6	-0.033321224
175	0xbbcb89f5	-0.006211514
176	0xbc106db9	-0.008815222
177	0x3dd5efc8	0.10446125
178	0x3d8d7997	0.06907957
179	0x3df0c1e9	0.117557354
180	0x3dc30b88	0.09523684
181	0xbd49de19	-0.049284074
182	0x3da54ab6	0.080708906
183	0xbc938c95	-0.01801137
184	0xbc80a8d5	-0.015705505
185	0xba4b70ee	-0.0007760663
186	0x3e357914	0.17721969
187	0xbbeb8d45	-0.0071884715
188	0x3d7340a9	0.059387837
189	0x3be7b75d	0.007071419
190	0xbda11bbd	-0.07866619
191	0x3e7c9722	0.24667028
192	0x3c9e9994	0.019360341
193	0x3bd92f9e	0.006627991
194	0x3acd8cbd	0.0015682202
195	0xbc87f3c9	-0.016595738
196	0x3d3e6495	0.04648264
197	0xbd7b13d7	-0.061298218
198	0x3e7fbf2b	0.24975269
199	0xbd794d98	-0.060865015
200	0xbcb6f5fd	-0.022334093
201	0x3d115a4e	0.035486512
202	0xbd3a4b7b	-0.04548214
203	0x3d5b86a1	0.05359519
204	0x3db06b56	0.08614223
205	0xbd364349	-0.044497762
206	0xbd76ca63	-0.060251605
207	0x3d0b0e3e	0.03394913
208	0xbcc5564a	-0.024088997
209	0xbc87a617	-0.01655869
210	0x3d7e7b28	0.06212917
211	0x3c61fd0d	0.013793242
212	0x3b93d4f7	0.0045114714
213	0xbd17a79e	-0.037025087
214	0xbd1e9603	-0.03871728
215	0xbca2cfa6	-0.019874405
216	0xbd1d5d8d	-0.038419295
217	0x3d70fa4f	0.058832463
218	0x3c3125c0	0.010812223
219	0x3d7ee75f	0.06223237
220	0xbc0a0871	-0.008424864
221	0x3d30b9d2	0.043145962
222	0xbcfbc1a9	-0.030731993
223	0xbca89811	-0.020580323
224	0x3db5171d	0.08842299
225	0x3e02bb3b	0.12766735
226	0x3d19d5fc	0.037557587
227	0x3be85936	0.007090713
228	0xbc36a8be	-0.01114863
229	0x3d47667d	0.048681725
230	0xbd30d16d	-0.043168474
231	0xbd702d15	-0.058636744
232	0xbd84cb90	-0.06484139
233	0x3ce73b4d	0.028226519
234	0xbd8bc8a6	-0.0682538
235	0x3de530c2	0.111909404
236	0xbd1ea6e6	-0.038733386
237	0x3b22e1a5	0.0024853733
238	0xbcc3b40b	-0.023889562
239	0xbb993de9	-0.0046765697
240	0xbd69ba47	-0.057062414
241	0xbd013762	-0.031546958
242	0xbc9ff30a	-0.01952507
243	0x3e116f11	0.14202525
244	0xbd15ed66	-0.036603354
245	0xbc40afe5	-0.0117606865
246	0xbcef01e1	-0.0291757
247	0x3d24f205	0.04026987
248	0x3ca3498d	0.019932533
249	0x3c227ead	0.009917897
250	0xbd043d83	-0.032285225
251	0xbd0ac55d	-0.033879627
252	0x3e35db76	0.17759499
253	0x3d00b01c	0.03141795
254	0x3de86da5	0.11349038
255	0xbe04f7d5	-0.12985165

map_L2.bias f4 [64]
0	0x3c724c57	0.014788709
1	0xbb8427a1	-0.0040330444
2	0x3d9f82d0	0.077886224
3	0x3e897f50	0.26854944
4	0xbf762238	-0.96145964
5	0xbf165bff	-0.58734125
6	0x3e1fc9a0	0.15604258
7	0x3c5a4b3d	0.013323602
8	0xbd36ea55	-0.04465707
9	0xbd83445c	-0.06409523
10	0xbc06a82e	-0.008218808
11	0xbd8ec6a6	-0.06971483
12	0x3f7b71bf	0.9822044
13	0xbf144c3a	-0.5792881
14	0x3e5842f2	0.21119288
15	0xbcbbba20	-0.0229159
16	0xbdb5e169	-0.08880884
17	0x3c14f217	0.009090922
18	0xbd65dba4	-0.05611767
19	0xbc3decda	-0.011592114
20	0xbb15ec3d	-0.0022876405
21	0xbedc0524	-0.42972672
22	0x3d61dc5d	0.055141795
23	0xbe780a90	-0.2422278
24	0x3dcee979	0.10103125
25	0xbdd463c1	-0.10370589
26	0xbe8bed31	-0.273294
27	0x3e49b442	0.19697669
28	0xbd512936	-0.051064692
29	0x3d080439	0.033207152
30	0xbc916297	-0.017747207
31	0xbe610d4e	-0.21977732
32	0xbe478155	-0.1948293
33	0xbeb6ade6	-0.3567955
34	0xbd633baf	-0.05547684
35	0xbe1e9b56	-0.15488943
36	0xbc20eb69	-0.009821751
37	0x3e595b7c	0.21226305
38	0xbd50170a	-0.05080322
39	0x3dc5436a	0.09631999
40	0xbb83633f	-0.004009634
41	0xbd81ca82	-0.063374534
42	0xbf6110cf	-0.8791627
43	0x3d066730	0.03281325
44	0xbf62567b	-0.8841321
45	0xbd407f8a	-0.04699663
46	0xbdb9bfba	-0.09069772
47	0xbd5bf022	-0.053695805
48	0xbe461af8	-0.19346225
49	0x3d8a59b4	0.06755391
50	0x3d6a545f	0.05720937
51	0xbd961c9c	-0.073296756
52	0xbf28dcd0	-0.65961933
53	0xbe00e6f6	-0.12588105
54	0xbe64b63f	-0.22335146
55	0xbd9e7a68	-0.07738191
56	0x3e7e8760	0.24856329
57	0x3e4ed062	0.20196679
58	0x3cca65e9	0.024706798
59	0x3bf80851	0.007569351
60	0x3f0c41b9	0.54787785
61	0xbdcb7094	-0.09933582
62	0xbd229dba	-0.0397012
63	0xbdba8836	-0.091080114

map_L3.weight f4 [16, 64]
0	0x3a2c7905	0.00065793126
1	0xbb1cfd4d	-0.002395469
2	0x3ad32033	0.0016107619
3	0xbd877bb2	-0.0661539
4	0x3efbd29c	0.4918412
5	0xbb410580	-0.002945274
6	0x3d1ea028	0.038726956
7	0xbbc68b6c	-0.006059101
8	0xbb78a86c	-0.0037942184
9	0xbb76cbf3	-0.0037658184
10	0x39dd6b9b	0.00042232577
11	0xbb9c6481	-0.004772723
12	0x3e2ef243	0.17084603
13	0x3e1dce62	0.1541076
14	0xbf204645	-0.6260722
15	0xbc83a7d4	-0.016071238
16	0xbbb70404	-0.0055851955
17	0x3b430659	0.0029758422
18	0x396c2b88	0.0002252293
19	0xba1f4d04	-0.0006076845
20	0x3b4741c4	0.003040419
21	0xbdf294d7	-0.11844795
22	0xbad821bd	-0.0016489547
23	0x3e4e2131	0.20129849
24	0x3a9af3f3	0.001182197
25	0xbc942905	-0.018085966
26	0xbe0e5f48	-0.13903534
27	0xbd5cd01b	-0.053909402
28	0xbb97f9d5	-0.0046379366
29	0x3b412809	0.0029473326
30	0x3a750669	0.00093469635
31	0x3f1fcfe5	0.62426597
32	0xbeb82e4f	-0.3597283
33	0xbae2f50a	-0.0017315459
34	0x3bafd9b9	0.0053665307
35	0xbac8df36	-0.0015325311
36	0xba9ffaa1	-0.001220543
37	0x3aa42bcf	0.0012525263
38	0xbb8944a2	-0.00418909
39	0xbdc8454a	-0.09778841
40	0xbaed0aee	-0.0018084922
41	0xbb7b4751	-0.0038342068
42	0x3e5d4f3b	0.21612255
43	0x39217b54	0.000154001
44	0x3db1b75d	0.08677552
45	0xba7a0802	-0.00095379364
46	0xba04ef70	-0.00050710794
47	0x3a0d66bd	0.00053940323
48	0xbd65fe1f	-0.056150552
49	0x3b3c55a5	0.0028737572
50	0xbb44d347	-0.0030033158
51	0xbb031653	-0.002000232
52	0x3d9546b1	0.07288874
53	0xb9c18618	-0.00036911736
54	0xbbbb8244	-0.005722316
55	0xbb749e37	-0.0037325749
56	0xbeb67232	-0.35634
57	0xba98ed87	-0.0011667468
58	0x3b770a63	0.00376954
59	0xbcb9bc0a	-0.022672672
60	0x3f0c00ef	0.54688925
61	0xbbdf0ae7	-0.0068067196
62	0xbbb99b82	-0.00566429
63	0xbb6a3134	-0.0035734894
64	0x3e1f12cf	0.15534519
65	0x3cc92067	0.024551583
66	0xbc4aa735	-0.012368967
67	0xbe0457da	-0.12924138
68	0x3d2f9fce	0.04287701
69	0x3bb87251	0.005628862
70	0x3be12296	0.006870578
71	0x3c76f1da	0.01507231
72	0x3da4ad69	0.08040888
73	0x3a0fee78	0.00054905517
74	0xbc49b7c2	-0.012311878
75	0xbbdb8b49	-0.0066999537
76	0xbd9d2f64	-0.07675055
77	0xbd3d8e31	-0.046278182
78	0x3e9ee340	0.31032753
79	0x3d9a0bb1	0.07521761
80	0xbce79c95	-0.028272906
81	0xbd42a129	-0.047516976
82	0x3d36d9b8	0.044641227
83	0xbd0d272d	-0.03446119
84	0xbbc1e0d2	-0.0059166932
85	0x3eeeb52d	0.466226
86	0xbced030e	-0.02893212
87	0xbe0af38e	-0.13569471
88	0x3b68bff9	0.0035514815
89	0xbda38ba9	-0.079856224
90	0x3d6d563c	0.057943568
91	0x3d8a2131	0.06744612
92	0x3d740e83	0.059584152
93	0x3d043305	0.03227522
94	0x39a8e1d4	0.00032211712
95	0xbda1445c	-0.07874367
96	0xbdb3da43	-0.087818645
97	0x3b56a6bc	0.003275319
98	0xbbd8c0c1	-0.006614775
99	0xbd62c504	-0.05536367
100	0xbd087c46	-0.03332164
101	0xbe8f8562	-0.2803145
102	0x3d378eca	0.04481391
103	0x3e77f554	0.24214679
104	0x3d866358	0.06561917
105	0xbbc9c575	-0.006157572
106	0xbe01579a	-0.12631074
107	0x3d34e5e1	0.044164542
108	0x3d451d86	0.04812386
109	0xbc2b74c1	-0.010464848
110	0xbd9d0d80	-0.076685905
111	0xbd75ede7	-0.060041334
112	0xbd8c4626	-0.06849317
113	0x3d2e4e4a	0.04255513
114	0x3daa0bdf	0.083030455
115	0x3c542f8b	0.012950788
116	0x3d15dd0c	0.03658776
117	0x3da9bb2b	0.082876526
118	0xbd67f369	-0.05662862
119	0x3dcda4d2	0.100412026
120	0x3e7e9760	0.24862432
121	0xbc906ac5	-0.017629037
122	0xbd5d7604	-0.054067627
123	0xbd2f4757	-0.042792644
124	0x3e9fb367	0.3119156
125	0x3d0987c6	0.03357675
126	0x3c988d0e	0.018621948
127	0x3d5ea3a5	0.054355282
128	0xbb97a956	-0.0046283407
129	0xbac26090	-0.0014829803
130	0x39e3aab4	0.00043423998
131	0x3f1ed711	0.62046915
132	0xbec01190	-0.375134
133	0xbead880b	-0.33892855
134	0x3ea03284	0.3128854
135	0xbbff6691	-0.0077942093
136	0xbb2a7a89	-0.0026012978
137	0x3b7d6dc2	0.0038670157
138	0xbc887795	-0.016658584
139	0x3cc9e792	0.024646554
140	0x3def3a8a	0.11681087
141	0xbf81c502	-1.0138247
142	0xbea3b6f1	-0.3197551
143	0xbcc1b761	-0.023647012
144	0xbc76e03e	-0.015068112
145	0xbbbab61c	-0.0056979787
146	0xbc952be3	-0.018209403
147	0xbc3bc020	-0.01145938
148	0xbc2dedb6	-0.010615757
149	0xbe73d151	-0.23810317
150	0x3d07ac54	0.03312333
151	0x3e3f31f6	0.18671402
152	0xbd01bf4b	-0.03167657
153	0xbdb6e8dc	-0.08931133
154	0x3dbb9ff8	0.09161371
155	0x3c365913	0.011129635
156	0x3b6bc24e	0.003597397
157	0xbce95bdd	-0.028486187
158	0xbc04b8db	-0.008100714
159	0x3ee9b5e2	0.45646578
160	0xbf46f909	-0.7772375
161	0x3d5fe6bb	0.0546634
162	0x3ca5169f	0.020152388
163	0xbf2f543e	-0.6848792
164	0x3ac9836c	0.001537425
165	0x3dff6a67	0.124714665
166	0x3c00db5f	0.007864802
167	0x3eef7a9f	0.4677324
168	0xbc978575	-0.018496254
169	0x3c55e165	0.0130542265
170	0xbf706233	-0.9389984
171	0xbc4ff5a7	-0.012692845
172	0xbe327424	-0.17427117
173	0x3b43d545	0.0029881757
174	0x390643fc	0.00012804562
175	0x3c2033b5	0.009777953
176	0x3eeb00aa	0.45898944
177	0xbd1a3df6	-0.037656747
178	0xbbaa6080	-0.005199492
179	0xbc0975a8	-0.008389868
180	0xbf8dd557	-1.1080731
181	0x3c0e3bcb	0.008681248
182	0xbc3e6bb1	-0.011622355
183	0xbc78c3a7	-0.015183366
184	0xbcb258e9	-0.021770911
185	0x3bd17320	0.006391898
186	0xbb672fef	-0.0035276373
187	0xbd5975ec	-0.053090975
188	0xbea11060	-0.31457806
189	0x3d1498dd	0.036278594
190	0x3bba1b8a	0.0056795524
191	0x3c0f4cad	0.008746308
192	0xbc26986c	-0.010168176
193	0x3d975532	0.073892966
194	0xbbddc642	-0.006768019
195	0xbe20c7db	-0.15701239
196	0x3b53ab21	0.0032298046
197	0xbb9f9baa	-0.0048708515
198	0xbce07ac2	-0.027402285
199	0x3d9231b6	0.07138388
200	0x3dba26fb	0.09089466
201	0x3daa0ff5	0.08303825
202	0xbc7704eb	-0.015076856
203	0xbcf80ed8	-0.030280516
204	0xbdb15e71	-0.086605914
205	0xbd3ab7d7	-0.04558548
206	0x3eacd7e1	0.33758453
207	0xbd1d851d	-0.038457025
208	0x3ba84da1	0.005136207
209	0xbd3ee283	-0.046602737
210	0x3e1b90c2	0.1519194
211	0xbc437729	-0.011930265
212	0x3dda3efd	0.10656545
213	0x3eff05fe	0.4980926
214	0xbe1100d8	-0.14160478
215	0xbde651ab	-0.11246046
216	0x3e0b9010	0.13629174
217	0x3d8de2ba	0.0692801
218	0x3dea7b8a	0.114493445
219	0x3d8ec14d	0.06970463
220	0x3e0fff6f	0.14062284
221	0x3dfb7958	0.12279004
222	0x3d3bcf17	0.045851793
223	0xbd7d567d	-0.06185006
224	0xbdd25c8e	-0.1027156
225	0x3d39fbd5	0.04540618
226	0xbdb270e2	-0.08712937
227	0xbd604643	-0.054754507
228	0xbdc8ae8f	-0.097989194
229	0xbe82ace9	-0.25522545
230	0x3c2872ab	0.010281245
231	0x3e4dd168	0.20099413
232	0x39eea122	0.0004551495
233	0xbd9e4e10	-0.07729733
234	0xbe127b76	-0.14304909
235	0xbce1b03c	-0.027549855
236	0x3d545730	0.05184096
237	0x3bf15412	0.0073647583
238	0xbd1c533b	-0.038165312
239	0xbbda0938	-0.006653931
240	0xbcf1b945	-0.029507289
241	0x3d41a5f6	0.047277413
242	0x3dd3bebf	0.10339116
243	0xbd3a4835	-0.04547902
244	0x3d6085ed	0.05481522
245	0xbd272b2e	-0.040812664
246	0x3da44e2c	0.080227226
247	0x3da605b7	0.08106559
248	0x3e83f8fc	0.25775898
249	0x3d48543b	0.048908453
250	0x3d44ee53	0.048078846
251	0xbd5463f5	-0.05185314
252	0x3ea8052a	0.3281644
253	0xbd3a2701	-0.045447353
254	0x3d4e16eb	0.050314825
255	0xbda42175	-0.08014194

map_L3.bias f4 [16]
0	0x3ef93b08	0.4867785
1	0xbf78ed45	-0.97237045
2	0x3cf9a996	0.030476373
3	0xbf836dbc	-1.0267863
4	0xbf885b61	-1.0652887
5	0x3ecbfde2	0.39842135
6	0xbf853880	-1.0407867
7	0xbf687de3	-0.9081709
8	0xbf7aaa72	-0.9791633
9	0x3eff4287	0.49855444
10	0x3dec4a73	0.115376376
11	0xbf17941f	-0.5921039
12	0x3d152b95	0.036418516
13	0x3e2e81b0	0.1704166
14	0xbf2bfabe	-0.6717948
15	0x3eda0f1f	0.4258966

map_L4.weight f4 [4, 16]
0	0x3e9e1c4a	0.30880958
1	0xb8fb80a7	-0.00011992576
2	0xbcd782d4	-0.0263075
3	0x3a943ace	0.0011309029
4	0x36a249d1	4.8365696e-06
5	0x3e2aa72d	0.16665335
6	0xbb2ec7b7	-0.0026669332
7	0xbacd57ca	-0.0015666422
8	0xbb1cec1d	-0.0023944445
9	0xbe2ea90d	-0.17056675
10	0xbedaec6a	-0.42758495
11	0x399ec2f7	0.00030281369
12	0x3e515a98	0.20444715
13	0x3e3dcd6d	0.18535395
14	0xbe2f8034	-0.1713875
15	0xbea07412	-0.31338555
16	0x3d36a857	0.044594135
17	0xbb1340c2	-0.0022469019
18	0x3c9bbf23	0.01901204
19	0x3ab953eb	0.0014139389
20	0xbacc50b3	-0.0015588015
21	0x3e2a3969	0.16623463
22	0xbbc651da	-0.006052238
23	0xbaf1fd89	-0.00184624
24	0xbad79695	-0.0016448075
25	0xbf019c2c	-0.50628924
26	0x3e1051a4	0.14093643
27	0xbb24434c	-0.0025064526
28	0x3f025bbb	0.5092122
29	0x3ef62d82	0.48081595
30	0x3d0debc0	0.034648657
31	0x3ea82370	0.32839537
32	0x3bab92ad	0.005235991
33	0xbda80a0b	-0.082050405
34	0xbc92cffc	-0.01792144
35	0x3d025e86	0.031828426
36	0x3df5854a	0.119883135
37	0x3c444321	0.011978895
38	0xbd92f416	-0.07175462
39	0xbd7c5df8	-0.061613053
40	0x3babaf48	0.005239401
41	0xb9706744	-0.00022926653
42	0x3be1a673	0.0068862974
43	0xbda6ecba	-0.08150621
44	0xbc7f59a4	-0.015585337
45	0xbc6fe4d8	-0.014641963
46	0xbd32cac9	-0.043650422
47	0x3c3a3e56	0.011367401
48	0xbe98f970	-0.29877806
49	0xba01fd5c	-0.0004958713
50	0x3d0fb408	0.0350838
51	0xbaf93812	-0.0019013903
52	0xba5e27b8	-0.00084745465
53	0x3dbd81b7	0.09253257
54	0xba9bf64c	-0.0011898964
55	0xba037c74	-0.00050157984
56	0xba44a043	-0.00075006875
57	0xbed72120	-0.4201746
58	0xbe348590	-0.17629075
59	0xba33ecd6	-0.00068635994
60	0x3e192e88	0.14959157
61	0x3d37f5ab	0.04491202
62	0x3dd85b7f	0.105643265
63	0xbe8705f3	-0.26371726

map_L4.bias f4 [4]
0	0xbe715b06	-0.23569879
1	0x3e33fd04	0.17576987
2	0xbd8b6738	-0.06806797
3	0xbebba607	-0.36650106

map_L5.weight f4 [2, 4]
0	0xbe775f29	-0.24157394
1	0x3dd34d4f	0.1031748
2	0xbaa2e15b	-0.001242678
3	0xbe382fea	-0.17987028
4	0x3ddbb176	0.10727207
5	0xbc4b2395	-0.01239862
6	0x3a2f2025	0.000668051
7	0xbeb8b65c	-0.3607663

map_L5.bias f4 [2]
0	0x3e7732cf	0.24140476
1	0x3e244c18	0.16044652
