model_AAE_1024/ep_2000_discriminator_model.pth (torch_old, 21281 bytes, 7 tensors)

map_L1.weight f4 [256, 2]
0.13774061 0.10312659 0.21678522 0.21105549 0.16463499 0.08716218 0.03828294 0.06516506
-0.023087993 -0.08848655 -0.2591869 -0.079416595 -0.11569405 0.019635884 0.12610127 -0.0888106
-0.13306515 0.053710386 -0.023019394 -0.12448103 0.014769111 0.17214647 -0.12608443 -0.008121804
-0.059617538 0.11349321 -0.14534569 0.19977945 -0.08692128 -0.13176838 0.037678033 0.13914528
-0.09600347 -0.15947448 -0.009689352 0.3148061 -0.24663758 0.08642185 -0.031991772 -0.10823099
-0.1207262 0.026192535 -0.061980132 0.10548841 -0.010360055 0.102878414 -0.07241858 0.09895604
-0.1646425 -0.05765748 0.06726239 0.012382195 -0.11726664 0.12615517 -0.069852024 0.09987266
-0.046932556 0.09758944 0.13783027 -0.06304922 -0.06515605 -0.11587667 -0.16393656 0.091051616
-0.074782774 0.02382434 -0.17738213 0.011274348 0.0006454712 0.105189264 -0.1654825 0.032728206
-0.16954958 -0.04388664 0.038000714 -0.123004794 0.07716567 0.14455211 0.17078179 0.08478523
-0.0017268391 -0.14744066 -0.08658279 -0.10652596 -0.021126362 -0.10103888 -0.0359114 -0.22691128
-0.031937197 0.033948988 -0.099689566 0.13866393 -0.06469513 0.03743017 -0.094831735 0.0063195117
0.17872097 0.054586694 -0.12254998 -0.14743209 -0.106824405 -0.058828834 0.114514805 0.031711932
-0.22445853 0.013879869 0.1264713 -0.12383746 -0.053234775 0.10647913 -0.028885197 0.037666485
-0.15075429 -0.08040679 0.13492104 -0.069809616 -0.060281426 0.24183913 -0.10318223 -0.030405652
-0.03463808 0.017388958 0.038997915 0.011046663 -0.1326441 -0.08292818 -0.0326108 -0.29629374
-0.18735875 0.051861867 0.05351073 -0.06913889 0.09592992 -0.17422251 -0.07007436 0.15595976
-0.0061258255 -0.08104226 0.06478752 0.07711454 0.16896579 -0.015152494 -0.05778768 -0.09903523
0.1469464 -0.019466046 0.12415173 -0.043650493 0.13335685 0.08369796 -0.10086749 0.003200376
-0.043985333 -0.08314213 -0.040225882 0.06674988 -0.07166848 0.10485525 -0.01243695 0.106956445
-0.10328655 -0.13925669 -0.041045025 -0.12647238 -0.04142447 -0.097540036 -0.07166191 0.12873948
-0.08454131 -0.19304876 -0.14507021 -0.040422153 -0.10085606 -0.09934293 -0.00087767834 -0.20741421
0.030066721 0.059620287 -0.16086891 -0.056382578 -0.06287886 -0.11289758 0.046716515 0.14116077
-0.042701237 -0.15315619 -0.11966281 -0.030829934 0.0023920038 0.11783366 -0.22993453 0.071262665
0.12883429 -0.18667741 0.24762455 -0.06656452 -0.029919006 0.100940585 0.032459665 0.043997094
-0.00856435 0.14098756 0.1621499 -0.20758136 0.00067032245 -0.011459968 0.18135846 0.09758822
-0.051635914 -0.013547102 0.1508232 -0.1225467 0.009601321 0.118641 -0.23614828 0.082571246
-0.16035014 -0.016930293 -0.13173525 -0.18281594 0.10940041 -0.02871984 0.040619474 0.026724907
-0.051455706 -0.03385369 0.0053151343 0.16779205 0.06162928 0.08417327 0.026685948 -0.024155222
-0.02936791 0.05837575 -0.05275791 0.0049221884 0.092913724 0.069024555 0.030984374 -0.086458944
0.11433281 0.14059046 -0.13492694 0.10826512 0.0453194 0.046874076 -0.020294907 0.0029329616
0.15810375 0.068571426 0.05541988 -0.071660675 0.098015934 0.106453456 -0.0067815715 -0.121882804
00000000: e00b 0d3e 0934 d33d f2fc 5d3e ee1e 583e
00000010: 1396 283e 1682 b23d 92ce 1c3d 4275 853d
00000020: 0823 bdbc 7038 b5bd 25b4 84be 2ba5 a2bd
00000030: 01f1 ecbd 6fdb a03c b120 013e 55e2 b5bd
00000040: 3b42 08be 6cff 5b3d 2b93 bcbc e9ef febd
00000050: 24fa 713c 2a47 303e 471c 01be 5111 05bc
00000060: 8531 74bd 216f e83d 80d5 14be fc92 4c3e
00000070: c903 b2bd 4aee 06be 4854 1a3d 1a7c 0e3e
00000080: 789d c4bd 474d 23be 16c0 1ebc 442e a13e
00000090: 908e 7cbe f0fd b03d ce09 03bd 36a8 ddbd
000000a0: 4c3f f7bd ba91 d63c e1de 7dbd 4f0a d83d
000000b0: 38bd 29bc ebb1 d23d 3150 94bd 77a9 ca3d
000000c0: 0b98 28be 402a 6cbd ddc0 893d b1de 4a3c
000000d0: 7e29 f0bd d22e 013e 940e 8fbd 0a8a cc3d
000000e0: 5a3c 40bd f9dc c73d 6123 0d3e f31f 81bd
000000f0: 8970 85bd bf50 edbd fcde 27be 4579 ba3d
00000100: b627 99bd 432b c33c a9a3 35be 0bb8 383c
00000110: d734 293a 786d d73d 3f74 29be 030e 063d
00000120: 689e 2dbe 7ac2 33bd a3a6 1b3d f0e9 fbbd
00000130: 0909 9e3d 7805 143e 6ce1 2e3e e1a3 ad3d
00000140: 1b57 e2ba affa 16be 5152 b1bd 482a dabd
00000150: 3111 adbc 79ed cebd d517 13bd 6e5b 68be
00000160: 94d0 02bd 180e 0b3d 0b2a ccbd ebfd 0d3e
00000170: e17e 84bd 6150 193d 2437 c2bd e813 cf3b
00000180: a102 373e 4c96 5f3d 7cfb fabd 70f8 16be
00000190: c1c6 dabd 81f6 70bd bd86 ea3d 5fe4 013d
000001a0: 75d8 65be 6468 633c b181 013e 7f9e fdbd
000001b0: b50c 5abd bb11 da3d a6a0 ecbc 2c48 1a3d
000001c0: 555f 1abe 51ac a4bd be28 0a3e 58f8 8ebd
000001d0: a8e9 76bd ada4 773e 3451 d3bd 4615 f9bc
000001e0: a9e0 0dbd 4a73 8e3c 47bc 1f3d 10fd 343c
000001f0: dbd3 07be 40d6 a9bd e792 05bd d0b3 97be
00000200: f9da 3fbe 1c6d 543d 112e 5b3d b198 8dbd
00000210: e876 c43d 6367 32be 2583 8fbd eab3 1f3e
00000220: 26bb c8bb 7cf9 a5bd 52af 843d 3aee 9d3d
00000230: 5e05 2d3e 2b42 78bc c6b2 6cbd fcd2 cabd
00000240: 1e79 163e 4277 9fbc 4343 fe3d dcca 32bd
00000250: b38e 083e d669 ab3d 9d93 cebd 66bd 513b
00000260: f729 34bd 6c46 aabd e5c3 24bd 29b4 883d
00000270: edc6 92bd 59be d63d 59c4 4bbc fb0b db3d
00000280: e687 d3bd 4e99 0ebe d41e 28bd fa81 01be
00000290: b4ac 29bd 12c3 c7bd 7bc3 92bd 48d4 033e
000002a0: ff23 adbd 93ae 45be 498d 14be b391 25bd
000002b0: 9f8d cebd 4e74 cbbd ff13 66ba 6464 54be
000002c0: 7c4e f63c 6734 743d d2ba 24be 6bf1 66bd
000002d0: a2c6 80bd d936 e7bd d159 3f3d 738c 103e
000002e0: 7ee7 2ebd fad4 1cbe c611 f5bd 0f8f fcbc
000002f0: 2ac3 1c3b c652 f13d f573 6bbe 29f2 913d
00000300: 23ed 033e 5d28 3fbe 4a91 7d3e fb52 88bd
00000310: b418 f5bc f0b9 ce3d 6df4 043d 4c36 343d
00000320: 7d51 0cbc 0b5f 103e a00a 263e 3590 54be
00000330: 94b8 2f3a 97c2 3bbc 08b6 393e 55dc c73d
00000340: 2e80 53bd aaf4 5dbc 6671 1a3e c4f9 fabd
00000350: dc4e 1d3c 0dfa f23d dbd0 71be 1d1b a93d
00000360: d432 24be 66b1 8abc 9be5 06be 1a34 3bbe
00000370: 520d e03d df45 ebbc 9b60 263d 31ee da3c
00000380: 38c3 52bd 2baa 0abd 942a ae3b aed1 2b3e
00000390: fc6e 7c3d 0963 ac3d 7d9c da3c 2ce1 c5bc
000003a0: f994 f0bc 691b 6f3d ae18 58bd 4f4a a13b
000003b0: 8d49 be3d bf5c 8d3d f1d2 fd3c 6311 b1bd
000003c0: 5227 ea3d f2f6 0f3e 4a2a 0abe 1aba dd3d
000003d0: d6a0 393d 08ff 3f3d 8141 a6bc ee36 403b
000003e0: f3e5 213e 2d6f 8c3d f5ff 623d d5c2 92bd
000003f0: 94bc c83d 4504 da3d f237 debb b19d f9bd

map_L1.bias f4 [256]
-0.053117696 -0.095127195 -0.059188973 0.0069243126 0.024729742 0.08014805 -0.028199973 0.03787498
-0.02006547 0.01892567 -0.03350847 0.021433268 0.003422949 0.0015775756 -0.08745348 -0.046742275
0.05543673 -0.052454147 0.03655091 0.020010628 -0.0044785836 0.023245411 0.04272673 0.097949006
0.049907267 0.06365015 -0.0619458 -0.002078118 -0.07841216 0.020181358 0.03908725 -0.0037843927
-0.062856 0.044157337 -0.015452993 0.0022736345 0.048573773 -0.049956355 -0.08199379 -0.05827995
0.035397846 0.042296667 0.0049276818 0.06616195 0.008411097 -0.02662883 -0.08747914 -0.10986403
-0.05542626 0.060340993 0.03677293 -0.035034586 0.097430155 0.051354114 0.0038714744 0.07223377
0.038635354 -0.0038038637 -0.0023113524 0.028901145 0.055631828 0.064240634 0.045500137 0.07845865
0.041995913 0.03561789 0.02558897 0.019007824 0.010595498 -0.02988234 -0.0685835 0.030369407
-0.06886079 -0.07031446 -0.03712973 -0.064910576 0.02446956 0.09310988 0.06557809 -0.0064556696
0.052816387 -0.037827156 -0.041010097 0.021248424 0.058838207 0.04433923 0.04546652 0.035840005
-0.040193208 0.050809957 0.034621917 -0.059026174 0.040291287 0.034461517 -0.017787319 0.05018596
0.0038514277 -0.05541643 -0.034511972 -0.028789418 -0.022024374 -0.0150152035 0.047493782 -0.06332494
0.012738268 0.055293735 -0.023066802 0.017409831 0.024155155 0.06821743 0.0030553218 0.043925755
0.017250419 -0.041876316 -0.029604817 -0.08907178 0.054245148 -0.045375623 0.05637037 0.062397026
-0.056730196 -0.048753355 0.034524713 -0.0002428869 -0.050224815 0.08449513 -0.04502057 0.022739355
0.023142407 -0.026476054 0.12056955 0.029156357 -0.03902434 0.03607087 0.013772996 0.10110493
-0.019319652 -0.093116835 -0.03692675 -0.07629565 0.092288025 -0.026812665 -0.06883253 0.025240079
-0.11112597 0.035163943 -0.10149094 -0.028785346 0.014957559 0.017095024 -0.010323598 -0.07411763
-0.0027514934 0.051357288 0.056603026 0.14499834 0.052504323 -0.07169849 -0.07136702 -0.07371432
0.07334918 -0.0017911553 -0.07697221 0.019314168 0.00729556 -0.022092022 -0.059501834 -0.036876254
0.012123222 -0.052541006 -0.09369847 -0.035420828 -0.034663387 -0.056918398 -0.10925928 -0.019892538
0.006799256 -0.0031669952 0.051164497 0.023246018 0.033726808 -0.0072532985 0.100237414 0.032770824
0.0014762882 0.08744459 0.0493616 -0.05697781 0.0071862284 0.0855455 0.023750773 -0.098255515
-0.054348283 -0.08686772 0.03670028 0.013711927 -0.01618864 0.051459912 -0.09805518 -0.051619843
0.0047816266 -0.05531708 0.026982874 0.01693927 -0.024595238 0.060681064 0.06712211 0.09106599
-0.044119697 -0.0013678782 0.048167337 -0.013827702 -0.030542223 0.08907014 -0.057166282 -0.0017386749
-0.028815022 0.03492328 0.037690394 0.033825647 0.015406346 0.0603733 0.09763691 0.07434992
0.040192395 0.048433483 -0.0113467295 -0.050732292 -0.058776 0.040238164 0.0624311 0.10135596
0.055619296 -0.020135775 0.038607087 -0.038369033 0.054430094 -0.08438388 -0.06783035 -0.026372412
0.05294892 0.04592441 -0.0013277362 -0.052243818 0.008561472 0.038264163 -0.057141043 0.036587425
0.013197184 0.01776415 0.068727 0.06756964 -0.14568381 -0.024014775 0.08431392 -0.06984895
00000000: f191 59bd 0cd2 c2bd 2370 72bd 58e5 e23b
00000010: 0796 ca3c a924 a43d a103 e7bc cc22 1b3d
00000020: 5760 a4bc 020a 9b3c 2d40 09bd d294 af3c
00000030: 8e53 603b a7c6 ce3a cf1a b3bd d474 3fbd
00000040: a011 633d 29da 56bd 68b6 153d 54ed a33c
00000050: 15c1 92bb 296d be3c 3902 2f3d 7d99 c83d
00000060: 906b 4c3d 035b 823d e1ba 7dbd 0931 08bb
00000070: 8e96 a0bd 6053 a53c f419 203d 9303 78bb
00000080: a6ba 80bd 53de 343d 8d2e 7dbc 4201 153b
00000090: 4bf5 463d 099f 4cbd 5cec a7bd f5b6 6ebd
000000a0: 55fd 103d 453f 2d3d 6478 a13b eb7f 873d
000000b0: b3ce 093c b424 dabc 4328 b3bd 6400 e1bd
000000c0: a506 63bd 1e28 773d 369f 163d 6d80 0fbd
000000d0: 7689 c73d b158 523d 90b8 7d3b 4cef 933d
000000e0: 1b40 1e3d 3e4a 79bb 0f7a 17bb 18c2 ec3c
000000f0: 33de 633d 9890 833d 5a5e 3a3d eeae a03d
00000100: e803 2c3d 11e4 113d f69f d13c 4cb6 9b3c
00000110: bd98 2d3c cfcb f4bc 8275 8cbd 43c9 f83c
00000120: e306 8dbd 0701 90bd 5815 18bd d6ef 84bd
00000130: 6374 c83c 65b0 be3d ce4d 863d 158a d3bb
00000140: ff55 583d a6f0 1abd 34fa 27bd 2d11 ae3c
00000150: 5500 713d 0d9d 353d 1a3b 3a3d f8cc 123d
00000160: a2a1 24bd 1a1e 503d b6cf 0d3d 6ec5 71bd
00000170: 7a08 253d 8527 0d3d b6b6 91bc cb8f 4d3d
00000180: 3c68 7c3b 57fc 62bd 6d5c 0dbd c9d7 ebbc
00000190: 766c b4bc 5402 76bc d788 423d 82b0 81bd
000001a0: 2bb4 503c af7b 623d 97f6 bcbc 109f 8e3c
000001b0: 08e1 c53c 94b5 8b3d cb3b 483b 7eeb 333d
000001c0: c050 8d3c 8086 2bbd cd85 f2bc 446b b6bd
000001d0: 2930 5e3d cadb 39bd 9ee4 663d 0694 7f3d
000001e0: ec5d 68bd 99b1 47bd c969 0d3d 75af 7eb9
000001f0: 89b8 4dbd c80b ad3d 7d67 38bd e247 ba3c
00000200: 2595 bd3c 4fe4 d8bc 2bed f63d 50d9 ee3c
00000210: fdd7 1fbd 0cbf 133d 22a8 613c 1a10 cf3d
00000220: 3f44 9ebc 0ab4 bebd 8140 17bd e540 9cbd
00000230: 8101 bd3d 3ca6 dbbc 12f8 8cbd 48c4 ce3c
00000240: 0396 e3bd 1108 103d 7bda cfbd 3fcf ebbc
00000250: 8d10 753c dd0a 8c3c 4f24 29bc fcca 97bd
00000260: 6652 34bb 055c 523d 93d8 673d 727a 143e
00000270: c60e 573d a8d6 92bd df28 92bd 89f7 96bd
00000280: 1838 963d 33c5 eaba 9ba3 9dbd bf38 9e3c
00000290: 980f ef3b 54fa b4bc 32b8 73bd 8e0b 17bd
000002a0: 7ba0 463c 3d35 57bd fce4 bfbd 6e15 11bd
000002b0: 32fb 0dbd 4423 69bd 54c3 dfbd adf5 a2bc
000002c0: 4bcc de3b 5d8d 4fbb dd91 513d 6f6e be3c
000002d0: 1f25 0a3d 14ad edbb 4649 cd3d b33a 063d
000002e0: 0380 c13a 2616 b33d 642f 4a3d 9061 69bd
000002f0: 747a eb3b 7b32 af3d fb90 c23c 303a c9bd
00000300: 4e9c 5ebd b4e7 b1bd 0853 163d fea7 603c
00000310: 0a9e 84bc a1c7 523d 27d1 c8bd 546f 53bd
00000320: 31af 9c3b 2a94 62bd 300b dd3c 39c4 8a3c
00000330: f47b c9bc b58c 783d 5177 893d ce80 ba3d
00000340: dbb6 34bd 604a b3ba 1d4b 453d 968d 62bc
00000350: af33 fabc 686a b63d 3127 6abd 40e4 e3ba
00000360: 7b0d ecbc b70b 0f3d 3e61 1a3d c38c 0a3d
00000370: e66a 7c3c fe49 773d dcf5 c73d c544 983d
00000380: c8a0 243d 3062 463d a2e7 39bc aacc 4fbd
00000390: 1abf 70bd c6d0 243d c1b7 7f3d b793 cf3d
000003a0: 0fd1 633d c8f3 a4bc 7722 1e3d d928 1dbd
000003b0: 17f2 5e3d 75d1 acbd a3ea 8abd f50a d8bc
000003c0: f7e0 583d 3c1b 3c3d 6f07 aeba 9dfd 55bd
000003d0: 6b45 0c3c e2ba 1c3d ba0c 6abd b2dc 153d
000003e0: 0039 583c 1f86 913c bec0 8c3d f461 8a3d
000003f0: 232e 15be a2ba c4bc c7ac ac3d f70c 8fbd

map_L2.weight f4 [16, 256]
0.1358598 -0.02336695 0.07347744 0.05353839 0.042343285 0.06548062 0.03326581 -0.11052119
-0.0016481213 0.020346984 0.10751997 0.123450615 0.018411672 -0.011176275 -0.09834385 0.031117225
0.066351056 0.09113748 -0.17284617 0.053065464 0.16473253 -0.04872828 0.16800538 0.162189
-0.06140687 -0.06601531 0.02528646 0.07055462 0.08407584 -0.045554794 -0.14497533 -0.03880046
0.10928981 0.015005309 -0.0014666974 0.06761229 0.05874202 -0.066699885 0.14526336 0.02245356
0.07410226 -0.06544874 0.09414744 -0.07835138 -0.14965768 0.118243046 0.0676998 0.11206763
0.014437545 0.0018410578 -0.096975334 -0.049377862 -0.21439247 -0.07607136 0.17901301 0.17525244
-0.034275815 0.030984093 0.12393282 0.08379484 -0.01591252 0.14755616 -0.04529682 -0.08582819
-0.09180187 -0.19537993 -0.0681326 -0.009258846 -0.19247803 0.15778787 0.011006781 0.09092567
-0.18531236 -0.0976907 0.14321524 0.06717874 0.030835511 0.110302836 0.19913626 0.15214723
-0.12947066 -0.035311475 -0.0844352 0.08999199 -0.15308458 0.096465915 0.12582923 0.0837373
0.09645564 0.11537095 -0.15657279 0.061158065 -0.11988307 0.14627838 0.0018206629 0.04209677
-0.27214143 -0.14466473 -0.01103027 -0.115015306 0.12829126 -0.27304396 0.03709073 -0.04410042
-0.055547733 0.07569917 -0.038752206 0.016950916 -0.1586213 -0.15923777 0.06835485 0.05374688
0.04578644 0.020347038 -0.11291556 -0.15673247 -0.06555365 0.014643773 -0.0435958 -0.22749332
0.07907604 0.001680752 -0.07706612 0.081849426 -0.09594652 -0.013152051 0.1103536 0.020519907
0.026033815 0.15381992 -0.12423829 0.13090038 -0.18208057 -0.14388864 -0.045781862 0.035470013
-0.103133164 0.07113753 -0.079892166 0.1303151 -0.15814945 -0.07343307 0.15468574 0.06967053
-0.16581094 -0.026105216 0.04942797 -0.077226885 0.12018246 -0.0028787376 -0.051785782 0.13968424
-0.21098755 -0.10021669 0.12780322 0.15650636 -0.16208395 -0.11538857 -0.030155774 -0.07643966
0.08766049 0.08657805 0.12704322 0.035614684 0.08435192 0.11588586 0.15683693 -0.002819481
0.057762656 0.044566344 -0.040464852 0.15793158 -0.01388953 -0.09663484 -0.09743276 0.040535748
-0.07489638 -0.028164916 0.13910374 0.07427809 0.09783482 0.07861494 0.14910616 -0.19545957
0.033625383 -0.17129718 0.08230071 0.039403167 0.046200793 0.15486205 0.0547404 -0.02223461
-0.06862772 -0.12024838 -0.12601972 -0.16998558 -0.2547334 0.01690022 0.059597082 -0.09400683
-0.12615335 0.17392948 -0.10958195 0.057817675 -0.14107904 -0.04771949 -0.2802992 0.09669877
0.15032046 -0.1592088 0.03914761 -0.17991269 0.19479015 0.17580162 0.0014232417 -0.20946735
-0.06334541 0.06611651 -0.023128325 -0.14210448 0.08365696 0.090143666 0.17496236 0.11390299
-0.02292137 -0.0012761573 0.05401767 0.02630969 -0.03536814 0.09200534 -0.12809893 -0.22905539
-0.13201995 0.16630378 -0.11453892 0.10411721 0.010138023 -0.14248198 -0.02233166 0.09012212
-0.16088952 0.122949444 -0.19722041 -0.08457859 0.11306723 -0.15180644 -0.10679348 0.12001765
0.04265414 0.09164844 0.15782215 0.102186434 -0.18590644 -0.087683946 -0.07692084 -0.036889702
00000000: d51e 0b3e 0c6c bfbc 577b 963d 124b 5b3d
00000010: 2770 2d3d b41a 863d bb41 083d ef58 e2bd
00000020: c605 d8ba b8ae a63c 6e33 dc3d add3 fc3d
00000030: 13d4 963c b21c 37bc 8068 c9bd 8de9 fe3c
00000040: 10e3 873d 4aa6 ba3d 96fe 30be 2c5b 593d
00000050: a5af 283e 4e97 47bd 9a09 2c3e e014 263e
00000060: c585 7bbd 0933 87bd 8d25 cf3c f17e 903d
00000070: f42f ac3d aa97 3abd 6a74 14be 3bed 1ebd
00000080: 56d3 df3d d4d8 753c 333e c0ba 5078 8a3d
00000090: 799b 703d f399 88bd ebbf 143e 87f0 b73c
000000a0: edc2 973d fd09 86bd 5fd0 c03d b076 a0bd
000000b0: dd3f 19be 6929 f23d 31a6 8a3d b783 e53d
000000c0: 748b 6c3c a64f f13a 019b c6bd 7140 4abd
000000d0: b389 5bbe 4dcb 9bbd 304f 373e 6075 333e
000000e0: cc64 0cbd 5ad2 fd3c 7ed0 fd3d a19c ab3d
000000f0: f95a 82bc f618 173e 2989 39bd b1c6 afbd
00000100: 9e02 bcbd ad11 48be 1b89 8bbd 6ab2 17bc
00000110: f618 45be 2593 213e c955 343c 3d37 ba3d
00000120: 86c2 3dbe 1012 c8bd 04a7 123e 0295 893d
00000130: c19a fc3c 74e6 e13d 60ea 4b3e 7ccc 1b3e
00000140: f593 04be c4a2 10bd 5dec acbd b84d b83d
00000150: 34c2 1cbe ec8f c53d 61d9 003e 767e ab3d
00000160: 898a c53d 9b47 ec3d 9e54 20be e180 7a3d
00000170: 4185 f5bd 00ca 153e 4fa3 ee3a aa6d 2c3d
00000180: 1f56 8bbe fe22 14be 4eb8 34bc 258d ebbd
00000190: c95e 033e 6bcc 8bbe 73ec 173d a4a2 34bd
000001a0: 0586 63bd 2b08 9b3d a2ba 1ebd a6dc 8a3c
000001b0: 9f6d 22be 3a0f 23be a1fd 8b3d b025 5c3d
000001c0: 908a 3b3d d5ae a63c 4640 e7bd 7a7e 20be
000001d0: fe40 86bd 70ec 6f3c 8291 32bd 02f4 68be
000001e0: 9ef2 a13d ae4c dc3a d8d4 9dbd aca0 a73d
000001f0: 9c7f c4bd b37b 57bc 1101 e23d 5d19 a83c
00000200: de44 d53c f882 1d3e a570 febd c00a 063e
00000210: 5473 3abe 8b57 13be c385 3bbd 0149 113d
00000220: 7b37 d3bd 8eb0 913d 819e a3bd 5271 053e
00000230: eef1 21be 1464 96bd f065 1e3e 6caf 8e3d
00000240: 58ca 29be 9bda d5bc fc74 4a3d 2129 9ebd
00000250: 3922 f63d 34a9 3cbb 541d 54bd 6309 0f3e
00000260: 1f0d 58be 683e cdbd d9de 023e 3443 203e
00000270: 56f9 25be d850 ecbd 3e09 f7bc 658c 9cbd
00000280: 5887 b33d d54f b13d 9e17 023e b4e0 113d
00000290: b3c0 ac3d 9155 ed3d dc99 203e 0bc7 38bb
000002a0: 8998 6c3d 338b 363d 79be 25bd d1b8 213e
000002b0: e990 63bc 7de8 c5bd d48a c7bd d008 263d
000002c0: 4663 99bd 1cba e6bc 3671 0e3e 1c1f 983d
000002d0: 9f5d c83d df00 a13d 49af 183e 8e26 48be
000002e0: c5ba 093d 8768 2fbe 468d a83d 3765 213d
000002f0: 0b3d 3d3d 2894 1e3e 7837 603d 5b25 b6bc
00000300: b18c 8cbd c844 f6bd 500b 01be b310 2ebe
00000310: 6b6c 82be 5572 8a3c 121c 743d a786 c0bd
00000320: 582e 01be 921a 323e 806c e0bd 3ad2 6c3d
00000330: 0677 10be 8375 43bd 6083 8fbe 010a c63d
00000340: 9bed 193e a207 23be 3f59 203d 083b 38be
00000350: 1277 473e 5705 343e 118c ba3a 9c7e 56be
00000360: 3dbb 81bd 1868 873d 9d77 bdbc d683 11be
00000370: 5754 ab3d 3e9d b83d 5529 333e f945 e93d
00000380: 99c5 bbbc bc44 a7ba a241 5d3d 6b87 d73c
00000390: 2fde 10bd 4c6d bc3d 5e2c 03be 7f8d 6abe
000003a0: 3d30 07be 8a4b 2a3e 6293 eabd 673b d53d
000003b0: f319 263c cce6 11be e3f0 b6bc f291 b83d
000003c0: 39c0 24be ebcc fb3d 26f4 49be 8a37 adbd
000003d0: cb8f e73d 2673 1bbe 8ab6 dabd d0cb f53d
000003e0: 1cb6 2e3d 2db2 bb3d 219c 213e 1f47 d13d
000003f0: 425e 3ebe a493 b3bd ac88 9dbd a819 17bd

map_L2.bias f4 [16]
0.06512857 -0.0072710784 0.16458964 -0.04980066 -0.02060996 0.036202792 -0.021826457 0.03741087
-0.05819681 -0.055815212 -0.06275236 -0.03869366 0.039373957 -0.08146189 -0.15290198 -0.07214226
00000000: 2162 853d 3a42 eebb 308a 283e c7fb 4bbd
00000010: 38d6 a8bc 6149 143d 66cd b2bc 243c 193d
00000020: c75f 6ebd 7e9e 64bd 4f84 80bd 3e7d 1ebd
00000030: 9646 213d 7ed5 a6bd 5692 1cbe 52bf 93bd

map_L3.weight f4 [4, 16]
0.2555067 -0.5051107 -0.27858758 -0.49355733 -0.29012606 0.36594105 -0.40706876 0.22815321
0.17375162 -0.5082556 -0.5430353 0.9360111 -0.5260739 -0.3349042 -0.3203344 -0.26342586
-0.47075146 0.3609918 -0.20828137 -0.7138212 0.21897039 0.13397194 -0.18053448 0.61953115
-0.21013112 0.070443444 -0.58433414 0.6534525 -0.42396218 -0.50614005 -0.6068803 0.19629377
-0.3093666 -0.471717 -0.26995072 -0.24761447 -0.3391773 0.3752599 0.46978286 0.10163625
0.6283939 0.42542726 0.6480564 -0.70338356 0.17491017 -0.12094765 -0.4127137 -0.06607133
-0.1607332 -0.05371436 -0.51202744 -0.074357584 0.056188744 0.009395278 0.14272383 -0.29358813
0.13320114 0.55998343 0.022633033 0.8235091 0.34951708 0.38101488 0.53519726 0.6066238
00000000: c6d1 823e ef4e 01bf 08a3 8ebe 8cb3 fcbe
00000010: 678b 94be a05c bb3e 516b d0be ffa0 693e
00000020: f2eb 313e 0a1d 02bf 5d04 0bbf 6c9e 6f3f
00000030: c7ac 06bf 9078 abbe df02 a4be c1df 86be
00000040: 5606 f1be ebd3 b83e b647 55be fcbc 36bf
00000050: c639 603e f12f 093e 08de 38be 9899 1e3f
00000060: 9d2c 57be a744 903d ec96 15bf aa48 273f
00000070: 9211 d9be 6592 01bf 825c 1bbf 3c01 493e
00000080: 4d65 9ebe e484 f1be fb36 8abe a68e 7dbe
00000090: a6a8 adbe 1122 c03e 6187 f03e ab26 d03d
000000a0: 6cde 203f 9ad1 d93e 06e7 253f f210 34bf
000000b0: a71b 333e 67b3 f7bd 364f d3be 6850 87bd
000000c0: 3e97 24be 9703 5cbd 3b14 03bf ca48 98bd
000000d0: 2b26 663d a7ee 193c 3226 123e 2f51 96be
000000e0: e165 083e 135b 0f3f e968 b93c 7ed1 523f
000000f0: e7f3 b23e 6214 c33e b002 093f b34b 1b3f

map_L3.bias f4 [4]
0.035990227 0.055113155 0.020306328 -0.11963999
00000000: 7d6a 133d 55be 613d 7559 a63c d005 f5bd

map_L4.weight f4 [1, 4]
-1.5206592 -1.9670644 0.057280518 -1.1451578
00000000: f6a4 c2bf c4c8 fbbf fa9e 6a3d 8894 92bf
