model_AAE_1024/ep_2000_decoder_model.pth (torch_old, 708349 bytes, 10 tensors)

map_L1.weight f4 [4, 2]
00000000: 9c8a ba3f cfd4 233f 6bb6 223f e0e3 efbd
00000010: 2270 5cbe 15d5 e9bf d4fc b8be af31 483f
1.457355 0.63996595 0.635596 -0.117133856 -0.2152715 -1.8268152 -0.36130393 0.7820081

map_L1.bias f4 [4]
00000000: 65cd f1be ef58 da3b 6c4f 023f 4a63 063e
-0.47227016 0.0066634337 0.5090244 0.13123813

map_L2.weight f4 [16, 4]
00000000: e944 35c0 d0e8 9cbf 1c70 373f 6a25 3e3e
00000010: a72b 223f a1e0 113f 917c 9fbf 4849 51bd
00000020: 2b37 f7be 1fe0 6dbe fda7 e83f 5d1c 903e
00000030: 4e8b 58bd 0abb 353f 3b7a 0bc0 a3a5 de3e
00000040: 357e 883f 902d 183f 1a26 953f 1306 a7be
00000050: f97b 9c3f a116 253f 6598 ad3f 3284 babe
00000060: 0915 80be e63d 4cbe 46e9 9e3f 40e3 e93e
00000070: bb6f 3c3f 24ad 153f 3980 d7be 1553 21be
00000080: 82ae 5ebf 2e87 a73e 7106 05be 05f1 3d3f
00000090: ac8b 97be b7cc be3e b681 c0bf fb65 803e
000000a0: 2d96 44bf c3a8 2c3e 9ad5 bb3f 732b abbd
000000b0: 7ede 1b3f dbd2 903e 22d0 11bf 99ec efbe
000000c0: 9a28 673f 1cb7 c7be baab ef3e a0af adbd
000000d0: e2ad c83e 390b 283f 2c49 f23f a811 28bf
000000e0: 5fbc f23e 6e6f 193f 3a3e 0640 027c 28bf
000000f0: c49f aa3e 3155 0b3f 8b0b 9cbf a10b eabe
-2.832331 -1.2258549 0.7165544 0.1856896 0.6334786 0.5698338 -1.245989 -0.051095277
-0.48284277 -0.23230027 1.8176266 0.2814664 -0.052867226 0.70988524 -2.1793354 0.43485746
1.0663515 0.5944452 1.1652253 -0.32621822 1.2225333 0.64487654 1.3562132 -0.36428982
-0.2501605 -0.19945487 1.2414939 0.4568119 0.7360799 0.58467317 -0.42090014 -0.1575435
-0.8698503 0.3272032 -0.12990738 0.7419589 -0.2959875 0.3726556 -1.5039585 0.25077805
-0.7679165 0.16861252 1.4674561 -0.08357897 0.6088637 0.2828587 -0.5695821 -0.46860197
0.9029633 -0.3900689 0.46810704 -0.084807634 0.39195162 0.65642124 1.892858 -0.6565194
0.4740934 0.59935653 2.097548 -0.6581422 0.33325016 0.54426867 -1.2191023 -0.45711997

map_L2.bias f4 [16]
00000000: cb46 873e 3e96 003e 9748 9c3f c6c9 483e
00000010: 796a 3bbe 73bf 48be e9dd 2c3f 43dd 97bd
00000020: 53e4 253f 092f 203e c382 b63f 1db7 65bf
00000030: e51b 40bf 410b 6d3f 3a65 793f 134f 4d3e
0.26421198 0.12557313 1.2209653 0.1960822 -0.18302335 -0.19604282 0.6752611 -0.07415249
0.6480152 0.15642942 1.4258655 -0.89732534 -0.75042564 0.925953 0.97420084 0.20049696

map_L3.weight f4 [64, 16]
00000000: a3ba a23f b181 d6be 9680 0c3f 4a81 49be
00000010: fcc5 753f 06af 2c3f 021b 173e e12e 1cbe
00000020: d889 ee3d 6613 f23c 12c3 fd3d 68dc 9cbe
00000030: d9f8 babe fd13 58be 1d8e 23be 5a90 81be
00000040: b35f e0be 437d 8d3e dcc3 56bf 073e 6e3e
00000050: e833 643f c6ce a33f adea 81be 095a 313f
00000060: dd09 4cbf 663f 95be 6b2e 63bf de15 043f
00000070: cfc7 9c3d b2e2 79be 26e6 79be 5f8b bf3e
00000080: e175 46be 4a0e 4f3e e81d 8bbe 93d2 f23e
00000090: 24d2 c4be e47c 82be e815 a9be 3191 043f
000000a0: d87b 8f3d e4ae 483e b196 c13d 2d46 153e
000000b0: 326f 88bd 91ac 1abe b89d 9fbd 6cb2 2e3e
000000c0: 32b8 5cbe 6497 c13d 250e 9dbe 1e21 923d
000000d0: 7988 8fbf 6a18 a6bf fc80 f0be a95c a83d
000000e0: 8f32 0ebf a4ec 85bd 0da3 87bd 8bef db3e
000000f0: 987f b23e 12ad 2e3f 2e0a 1d3f 03ab 1a3d
00000100: cc4a 713e a595 763e 03ec 49be c63e 46be
00000110: 8efc e9bd 2300 a1be 2e62 3d3e 2283 b43e
00000120: 08eb ecbd abb7 a8bc 6551 2dbd ef35 17be
00000130: d4b0 0bbe 4397 6a3b 0c83 533e 15c8 763d
00000140: 2d5c 37bf ab6f 7a3f f398 5dbf 366f 1c3f
00000150: 5adb 643f b5d2 813f 785b a0be 9d60 a43f
00000160: 0f9c 8a3d 9c4f 3e3f b0c3 2cbf 4039 c6bd
00000170: 0497 66bd 51f8 26bf 3af7 d7be e128 2d3f
00000180: 9fbd 02bf 6405 813d 2419 9b3e f840 c43d
00000190: 4bfa e5be 1c0a c9be 9e9b 823e 76aa 8a3e
000001a0: 5c4d 13bf bc09 d9be 4da5 3e3d 6598 1c3d
000001b0: c36c af3e 6381 05be a08b 9bbd 3859 4abe
000001c0: 047a c73e 4078 8fbf c6d2 01be 9cb6 07c0
000001d0: 90df 853f dcba 563f 5dfc 093e 8b40 36bf
000001e0: ec19 4dbe 7c15 9cbf 13d0 e73e a41a 0f3e
000001f0: 7ddf 253f 8d47 1f3f 7521 103f 2a73 bebf
00000200: 00eb b23e a3dc dcbc 07f7 cf3d 2757 26be
00000210: ad6a 0b3e 5233 26be f6c7 c1be 27b1 ed3e
00000220: a640 54be 220e 7d3d 42b7 643e e4f4 823e
00000230: 5d43 7d3b f1d4 333c 6720 70be a513 193d
00000240: fc1e e03e 21c1 d0be d341 253e 6ecb 083d
00000250: f21e a93e dd83 df3e 21e3 b53e d74d bbbf
00000260: 6253 bd3e a5b0 393e 6fe9 5cbd 6534 21bf
00000270: 0de2 04bf 2bde e3bf dc3a 00c0 7ad4 91be
00000280: 2e63 97be 6ef3 06be 3269 bb3d 6c37 893e
00000290: 344f d53c 2e1c a4bd ae1a 1cbe 3e99 38be
000002a0: d706 663c ffd7 813e 1b04 cfbe 6d05 c7bc
000002b0: 8a63 483e cde0 4cbf cf41 5bbf 7063 883e
000002c0: c150 5cbf 85a4 643f 89b9 0bbf 47ed 183f
000002d0: 9d29 4dbe 5f76 843c fcde cbbe 7104 543f
000002e0: bbd5 01be 891c 1a3f 8174 02bf b52b 0c3e
000002f0: 2533 ffbd c6ac 0ebf 78dd 8fbe 443b 5a3f
00000300: e59d 1f40 6af1 25be 7cd6 023d a6ef 053d
00000310: c890 dfbe 3c04 4dbf 62e9 a4bd 9c75 a1be
00000320: 6057 65be 0280 593e fbba 8e3e ff83 d0bc
00000330: 9139 55be 3fc0 3b3d 6419 2cbe b971 2ebe
00000340: 96e1 873f 0c36 763e 7ce7 29bf 3f45 b13d
00000350: 1357 9dbf 8515 c3bf a75f 70bf 5ee3 1e3f
00000360: 4032 dabe 7877 45bc 9d40 7abd 3549 ff3e
00000370: b3d0 0ebe ab6f 5b3f f2be 423f 9324 263f
00000380: 3404 5bbf 8e46 953e 71ad 59bf 0ad5 d13e
00000390: a0ed 583f 3a74 903f 9904 92be 88dd 633e
000003a0: 35b8 1cbf f754 013e 9bfd 85bf e65c c73e
000003b0: 92e2 c63e d27e eebe eadd dbbc b9f5 c93e
000003c0: 4fbc 2140 f089 953e 4ef4 e4be b932 913e
000003d0: a78d 6fbd 39ce f6be 4311 4ebf 991d 793f
000003e0: b70c 84be 5c81 563e d25b de3d 6078 ed3e
000003f0: 6c12 4b3e 1b45 ca3e 84ca ed3e bc54 033f
1.2713207 -0.41895822 0.54883707 -0.19678226 0.96005225 0.67454565 0.14756396 -0.15252258
0.11647385 0.029550266 0.12390722 -0.30636907 -0.3651798 -0.21101375 -0.1597218 -0.25305444
-0.43823013 0.2763463 -0.8389261 0.23265849 0.891417 1.2797477 -0.25374356 0.6927801
-0.7970255 -0.29149932 -0.88742703 0.51595867 0.07655298 -0.24402884 -0.24404201 0.3741102
-0.19380905 0.20220295 -0.27171254 0.4742628 -0.38441575 -0.2548591 -0.33024526 0.51784045
0.07006043 0.19597965 0.0945257 0.14577551 -0.06661834 -0.15104891 -0.07793754 0.1706025
-0.2155464 0.094527036 -0.30674854 0.07135223 -1.1213523 -1.29762 -0.46973407 0.082207985
-0.55545896 -0.06539276 -0.06622896 0.42956194 0.3486297 0.68232834 0.6134366 0.037760746
0.23563689 0.24080522 -0.19718938 -0.19359884 -0.11425124 -0.31445417 0.18494484 0.35256296
-0.11568266 -0.020595392 -0.042313952 -0.14766668 -0.13641673 0.0035795725 0.20655459 0.060249407
-0.71625024 0.9782664 -0.86561507 0.61107194 0.89397204 1.0142428 -0.31319785 1.2841984
0.06768047 0.74340224 -0.67486095 -0.09678888 -0.056296363 -0.6522265 -0.42180806 0.676405
-0.5107059 0.06299856 0.30292618 0.09582704 -0.4491752 -0.39265525 0.25509351 0.27083176
-0.57539916 -0.4239024 0.04654436 0.038231272 0.34262666 -0.13037638 -0.07594991 -0.19760597
0.38960278 -1.1208572 -0.1267806 -2.1205206 1.0458851 0.83878875 0.13475175 -0.71192235
-0.2002942 -1.2194057 0.45275936 0.13975006 0.6479414 0.6221855 0.5630105 -1.4878895
0.34944916 -0.026960677 0.101545386 -0.16244183 0.13614912 -0.16230515 -0.3784787 0.4642422
-0.20727786 0.061781056 0.22335532 0.25577462 0.0038644888 0.010976062 -0.2344986 0.03737225
0.4377364 -0.40772346 0.16138391 0.03339713 0.33031422 0.4365529 0.35524848 -1.463313
0.3697768 0.18133791 -0.053933557 -0.6297057 -0.51907426 -1.7802175 -2.0035925 -0.2848242
-0.29567856 -0.13178799 0.09150924 0.26800096 0.026038744 -0.08013187 -0.15244552 -0.18027207
0.014039717 0.25360104 -0.4043282 -0.02429458 0.19569221 -0.8003052 -0.8564729 0.26638365
-0.8606072 0.89313537 -0.5457998 0.59737056 -0.20035405 0.016169725 -0.3981856 0.8281928
-0.12679188 0.6019979 -0.5095902 0.13688548 -0.12460927 -0.5573238 -0.28098655 0.8524668
2.494012 -0.16205373 0.03194283 0.03269925 -0.43665147 -0.80084586 -0.08052327 -0.3153504
-0.22396612 0.21240237 0.2787703 -0.025453566 -0.20822741 0.045837637 -0.16806561 -0.17035569
1.0615718 0.24044055 -0.6636884 0.08655786 -1.2292198 -1.5240942 -0.93895954 0.62065685
-0.42616463 -0.012052409 -0.061096776 0.4986054 -0.139468 0.85717267 0.7607261 0.6489956
-0.8555329 0.2915539 -0.85030276 0.40982848 0.84737587 1.128547 -0.28519133 0.22252476
-0.6121858 0.12630068 -1.0468019 0.38938063 0.38844734 -0.4658113 -0.026839215 0.39445284
2.5271184 0.292068 -0.4471764 0.2835901 -0.0584847 -0.4820421 -0.8049509 0.9731079
-0.2579095 0.20947784 0.10857357 0.463809 0.19831246 0.39505848 0.4644357 0.5130117

map_L3.bias f4 [64]
00000000: d7e3 5ebd fb07 45bf 8ea4 723e b273 313e
00000010: 9736 36bd aa7a 01bd eeab 223e 7957 b2be
00000020: 6c6b c13e 7a4a 6fbe 2c5f 753e 5bed 3dbe
00000030: c60e 1cbe 5c70 0e3f db15 1ebf 5717 ce3e
00000040: eb73 99bf 3af5 a43e 4e27 dabd 03f8 3abf
00000050: 3fc6 9abe 9a0d c5bd 4d1a 05bf 7600 0fbf
00000060: 559b 08bf 42f5 4fbe 7523 20be 7b65 92bd
00000070: f53d ffbe 4087 1bbf 4e4b 0bbf c56f dd3e
00000080: 186b 353e 3b9f f43e ccfd d4be 1a9d fa3e
00000090: 8ab8 db3e c69c ac3e 4b26 e1be 4604 753e
000000a0: de32 acbf 61fc 0c3e ad29 32bf 3670 5c3e
000000b0: dcd6 0fbf a735 153f 6613 e9be f2dd 02bf
000000c0: 0f42 a03e 5e38 ed3e 4fc9 0c3f 576e 33bf
000000d0: 3d14 9b3e 06c6 413f 25a9 b43d fcfe 20bf
000000e0: 7fa4 d3be db4a 063f a132 fa3d 008b 0dbf
000000f0: 3613 1abf cc2b 0bbf 9bec 63bc 86af f43e
-0.054416504 -0.769653 0.23695585 0.1732929 -0.044485655 -0.031611122 0.15885898 -0.3483236
0.3777727 -0.23368254 0.23962086 -0.18547575 -0.1524001 0.55640197 -0.617521 0.40252182
-1.19885 0.32218343 -0.10652028 -0.73034686 -0.30229375 -0.09621735 -0.51993257 -0.5586008
-0.5336202 -0.20308402 -0.15638526 -0.07148262 -0.49851957 -0.6075325 -0.5441178 0.43249336
0.17716634 0.47777733 -0.41599882 0.48947984 0.4291423 0.3371336 -0.43974528 0.23927411
-1.3453023 0.1376815 -0.6959484 0.2152718 -0.56187224 0.5828499 -0.45522612 -0.5111991
0.313004 0.46332067 0.5499467 -0.7009024 0.30288878 0.75692785 0.08821324 -0.62889075
-0.41336438 0.5245797 0.12216688 -0.5529022 -0.60185564 -0.54363704 -0.013911392 0.47790164

map_L4.weight f4 [256, 64]
00000000: bcac 2e3f ec3c ebbe 0e39 80bd e68b 133f
00000010: 9e21 a0bd 966c 973f 0f6c 7ebd a3c3 e3be
00000020: 17ee a73d 0966 063f a0c2 803e 0dc5 6c3c
00000030: 000a a93e 7f6a 913f bd92 aebe 07f2 0abf
00000040: fb61 1a3e 26ca 25be 3a5f f03e 75fd f93e
00000050: 161e 80be 8b60 2d3f 32bc 29be c2ab 543d
00000060: 8142 f1bc 7e89 a6bf 4f11 643f 554d 85bf
00000070: 207d 593e 8db2 33be 15c4 f33b 7b04 33bf
00000080: 87ae 343e 8dd5 9abe ed69 063e 6b78 e43d
00000090: 12d6 8f3e 88d5 a33e 2b2d a2bc 9e69 173e
000000a0: b89e d33e 3200 693f af32 4bbe 859c 003d
000000b0: 170c 95bc 2a18 583e 60ef 23be a5d6 1fbd
000000c0: 3695 ab3d ab69 79bf b0f5 b43d 71d0 f8bd
000000d0: e291 30be 4228 ee3c 17bd 42bd bdfe 943e
000000e0: ca17 29be 3a02 9d3c 9671 53bd 5b46 1d3e
000000f0: c5e4 0f3f 4839 a0be 36f9 82bf 0478 acbf
00000100: 4d4f d1be 799c 54bd dee0 acbe 63df 41be
00000110: 0739 013e ac63 3cbf 0f68 82bd 0f93 683f
00000120: 766b 923e bfb7 b93e a3bb c3bd 60a7 4dbf
00000130: c4da 5dbe 55cf 88be 2548 2fbd af6c 95be
00000140: 550e 95be fead 4dbe 6c37 2ebf 89a9 5dbf
00000150: d19f 2a3f 2bfe 66bf b664 0cbc 574b 5bbe
00000160: c000 f33e b7fa 6d3f 7a52 5dbf c4cf 6dbd
00000170: af71 4a3e 4a35 8c3e 893d 313e 4185 dbbe
00000180: 040c ed3d 2a27 b6bd d4a7 773e e342 7cbe
00000190: 7180 803d eb47 f33b 58ed ed3d f337 273c
000001a0: c469 e7bd 6065 1fbf 6f77 853e be60 533d
000001b0: d5ee 6a3e e48f 66bd a864 cd3d a2a4 113e
000001c0: 8fa9 cb3d e32d 51be 4df6 24be 0404 ab3e
000001d0: 6736 87bd 4a5f 15be fb92 18be a5cd 72bf
000001e0: 06f9 2b3f f4cf aebd 3b3c 083d b895 02bf
000001f0: 2f97 bebc 1574 b6be 9efd a1be 0fca dfbd
00000200: e5f4 a53d a4fa 3f3e 278b 7ebe 7046 b2bf
00000210: a129 a63e 31a9 a7be 5b7d 7ebe 2507 fd3c
00000220: 6ed2 52be fc40 813e c15f c8be 736d b73e
00000230: 27af 14be 3fea 293f bc80 8a3e 1985 803f
00000240: 29fb a5bc 0d32 27bf 9770 423b a79d 6bbe
00000250: 6ba4 e73d 5d62 16bf 0d6b 22be bb6a 8fbb
00000260: 139a 89bd 2628 4d3e f0c2 f6bd 361f 1f3f
00000270: 821b 503f ee82 b9bd b9d9 c93c cd59 8c3e
00000280: a485 0b3b e1d0 d33e 657b 9cbe 76d3 463e
00000290: 4d06 733c 959b 08bf 9630 7e3e 4148 46bd
000002a0: 47ea d93d 1f0d 063f f483 893e f092 6cbe
000002b0: 2f92 753d 5d2f 793d 8f13 fe3d 3d1d bc3d
000002c0: 2b52 8dbe 5b1a 79bf 9613 fcbb bd8a 533e
000002d0: c30c a5be aba6 9d3d 79ec 42be 078a 0dbf
000002e0: 32d8 c63d 7add f53d d606 7d3e bf87 bebe
000002f0: a359 013f fcbf cebe 4348 083f a03e 12bf
00000300: 33bd d9bc fd78 f03d f6e9 e1be 4eb6 a6bd
00000310: ed15 79bd 7813 b83e 4f38 3bbe 8ec9 853e
00000320: 4b56 84bd 0605 fabe 6d49 e6be ee92 813d
00000330: 3e00 383f 9a2c 52bd 6327 ce3c ab99 513f
00000340: 51a7 84bc d1f6 153f 3581 e73d a0db a13e
00000350: 371c 3f3f 17f8 353f 3cd5 a9bf 819c babf
00000360: 255b 743e a079 bf3c ff49 4b3f 4d8b 4c3d
00000370: 8f7d a53c 3b67 b0bd be1c d3bf c408 283f
00000380: 5c1c 21bf a22d 373f e500 463f ad58 883d
00000390: 94df a83e 14ff 89bd 554d 26bf f55c a6be
000003a0: b3c3 eb3d 05c2 9fbe 1e6e 773e b867 03bd
000003b0: 4cf3 92bd 427b 25bc a2da cb3e 74a0 40bd
000003c0: 6593 9abe b450 643e 6d3e 603d b6d5 ce3e
000003d0: b102 24bd c16d 833e aa11 d2bd dcb9 8c3e
000003e0: 937d 3a3f 5f99 e03d 4099 04bd 74b4 2a3f
000003f0: 8bce 82be 8552 d2bd da7e 893d b733 783e
0.6823232 -0.45944917 -0.06260882 0.57635343 -0.07818912 1.1830013 -0.06211477 -0.44485196
0.08199709 0.52499443 0.25148487 0.014451277 0.33015442 1.1360625 -0.34096327 -0.54275554
0.15076439 -0.16190395 0.46947652 0.48826185 -0.25022954 0.6772544 -0.16575697 0.051921614
-0.029450657 -1.3010709 0.8908891 -1.0414225 0.21239138 -0.1754858 0.0074391463 -0.6992871
0.17644702 -0.3024105 0.13126345 0.111557804 0.2809301 0.3199885 -0.019796928 0.14786384
0.4133203 0.91015923 -0.19843553 0.03139927 -0.018194241 0.21102968 -0.16009283 -0.03902306
0.08378069 -0.9742686 0.08835924 -0.12149132 -0.1724315 0.02907193 -0.04754361 0.291006
-0.16512981 0.0191661 -0.051621996 0.1535887 0.5620845 -0.31293702 -1.0232303 -1.3474126
-0.40880814 -0.051907036 -0.3376531 -0.18932872 0.1261941 -0.7358959 -0.06367504 0.90849394
0.2859761 0.36273 -0.09557273 -0.8033352 -0.21665484 -0.26720682 -0.04279341 -0.29184482
-0.29112497 -0.20085904 -0.6805332 -0.86586815 0.6665011 -0.9023158 -0.008568933 -0.21415459
0.4746151 0.92960685 -0.86453974 -0.05805947 0.1976993 0.27384406 0.1730863 -0.42875102
0.115745574 -0.08894189 0.24185115 -0.2463489 0.06274498 0.007424345 0.11617535 0.01020621
-0.1129947 -0.6226406 0.26067683 0.051605932 0.2294267 -0.05628957 0.10028964 0.14222959
0.0994445 -0.2042766 -0.16109581 0.334015 -0.06602173 -0.14587131 -0.14899819 -0.9484504
0.67176855 -0.08535758 0.033260565 -0.510097 -0.02326545 -0.3563544 -0.31638807 -0.109272115
0.081033505 0.18747956 -0.2485777 -1.3927746 0.32453635 -0.3274627 -0.24852507 0.030887196
-0.20588085 0.25244892 -0.39135554 0.3582569 -0.1451994 0.66373056 0.27051342 1.0040618
-0.020261364 -0.65310746 0.002966916 -0.23009358 0.11310657 -0.5874384 -0.15861149 -0.004376737
-0.067188405 0.20034847 -0.120489 0.62157 0.81291974 -0.09058176 0.024639951 0.27412263
0.0021289373 0.413703 -0.30562893 0.19416603 0.014833045 -0.533624 0.24823222 -0.04840875
0.10640388 0.5236377 0.26858485 -0.23102927 0.059953865 0.060836185 0.12406074 0.09185264
-0.27601752 -0.9730584 -0.0076927645 0.20658393 -0.322363 0.07697805 -0.1903552 -0.5528874
0.09709205 0.12005134 0.24709639 -0.3721294 0.505274 -0.40380847 0.5323526 -0.5712681
-0.026579475 0.11741827 -0.4412381 -0.081402406 -0.060811926 0.35952353 -0.18283199 0.26130337
-0.064617716 -0.48831958 -0.44977894 0.06326853 0.7187537 -0.051312067 0.025165265 0.81875104
-0.016193064 0.58579737 0.11303941 0.31612873 0.7465243 0.7108168 -1.3268199 -1.4579011
0.23862894 0.023373425 0.79409784 0.049937535 0.020201473 -0.0861344 -1.6493146 0.65638375
-0.629339 0.71554005 0.77345115 0.066575386 0.32983077 -0.067381054 -0.6496175 -0.32492796
0.11511936 -0.31202713 0.241631 -0.032081336 -0.071753114 -0.010100188 0.3981524 -0.04702802
-0.30190578 0.22296411 0.054747034 0.40397424 -0.04004163 0.25669673 -0.102572754 0.2748555
0.7284786 0.10966753 -0.032372713 0.666816 -0.25548205 -0.102696456 0.06713648 0.24238478

map_L4.bias f4 [256]
00000000: ec2a c1bd b25a eebb f9e5 72bd a83a 2ebe
00000010: ccf4 af3d 9f10 02bf 824d 3e3e 0d44 493f
00000020: e9b9 383d 7d82 833e 39df 26bf eaae 5d3e
00000030: 65ef 11bf 2fb5 a93d f0f6 7bbd 4296 b9bd
00000040: 36d1 48be 839d 05bf e40a 22be c12c 413e
00000050: e3c2 3bbe d80c cdbe 5220 43bf 57f2 18be
00000060: 4af8 83bd 2320 f9bd 46b1 31be 09bd 05bc
00000070: 5ee7 efbe d01e a33c bb53 32be 1b2d 103e
00000080: 1554 36be 1152 31bf ce90 18be 48ce 3cbe
00000090: 7398 48be fdb8 723e f3a5 b6bd 4744 563d
000000a0: b783 68be 3417 fa3e 9a3e a8bd 9d70 a5be
000000b0: f3e5 44bd d5fb 72bd c157 1e3f 5e86 3cbf
000000c0: 4eac e7ba ccc2 02be 2fb5 84be 6820 37be
000000d0: f6bc 60bb e3c7 453e ba5f 893c e189 91be
000000e0: 80aa 383e f611 4a3e 5135 b9bd 14c6 34be
000000f0: 3b70 d03e 8c5c e1bb 2a49 9d3c 403e 91be
00000100: 6479 a2bd 204a 7abd a9ce d1bc 1b40 d4be
00000110: 0d5f c1bd 6399 89bd 07ed 393d 8521 64be
00000120: ace2 953c b1ac 8fbe 950b cbbd d7ab bbbd
00000130: 478e b23e 3673 6cbe 7f0c 97bd 6043 cebe
00000140: c206 a83e ef61 8bbd de51 99be dfae 70bb
00000150: 312a f5be 3a2b a33d fff4 1c3e ab38 4ebd
00000160: df6a cbbe 4f4e 82bd 8adb 19bd 8f48 41bf
00000170: ea7c 4ebc c4f8 3cbe 6b86 92be 6e0a f13e
00000180: 7541 4a3e 6d9f ec3d 8a0a 903e 19b4 29be
00000190: 8a48 27bd f217 023f 8a71 1ebc 92a6 51be
000001a0: feaf e33e 38df e7bd 0389 6d3d 42cf 53bd
000001b0: dd74 f5be 7a0f 3abf 92a7 cdbe 1d5e 3abf
000001c0: 538a 223f d69a 29bd 5f62 e13c 2696 b23e
000001d0: acbd c3bd 7353 35bd 518c 2fbf b666 00bf
000001e0: b8fd debd 7c37 3bbf f83a 1bbc 33d6 09bf
000001f0: 4e01 d3bc 9839 64bd ecf9 f5be b92e 063d
00000200: 9d66 673e 7adc 4e3e b607 7cbe 755d 43bf
00000210: fc32 c63d 65cb 93bf aba7 c33e 7c96 7e3d
00000220: 7492 c5bd f093 f8be d612 93bf c942 82be
00000230: 8d1c a53d dd42 f83e c525 243e 85b6 e0be
00000240: e8d6 45bf 0a65 183f f3cb adbe 615d 51bf
00000250: 1e5a 2fbe e3fd 0ebd 3118 83bd 27f0 c33e
00000260: b099 26be d6f3 82be 7c66 d83d 4468 30be
00000270: c24f c2be 7b3d 34be f851 913e c932 b1bf
00000280: aa2a c1bd 3dfe f03c 520f 4cbc 2bec a6bd
00000290: e48a 3dbf d4ff 6f3d 06ff 79bf 520d 213d
000002a0: 57e9 55bc 15a1 46bd 1dbf 033d 3b2d 49bd
000002b0: 9bbe a03d bd4d 35bf e141 293e 1f80 2c3b
000002c0: 7a45 8f3c 61d4 97bd ada6 6abe 6939 433e
000002d0: 68e1 afbd a53e 88be 3b30 86be 3908 49bd
000002e0: afb1 efbe 52e3 5fbe 7249 6bbe 3df0 e5be
000002f0: a538 35be 9c0d 473e 9a68 8ebd 2102 81be
00000300: dca7 cfbe 5a6c 68be 60ee 33be d68f 643e
00000310: f322 babd 750f 33bf a94c 51bd 34eb a9bc
00000320: 320c 0d3f 850b 60be f029 78be 51d9 933e
00000330: 7b85 b23e 12be 15be 90fe c8be 26d4 92bc
00000340: ace7 13be ebf9 d4bd 6d1b 2e3e 7503 38be
00000350: 7679 82bd eee9 45be 8ac6 38be fc38 13bf
00000360: 404b f53e 22b0 43be ee5c 79bc db2e 0bbf
00000370: 01c0 da3a 0267 01be bbf5 26be a1fa eabc
00000380: b0e4 dbbb 0947 24be 96da 133f 369d 333d
00000390: e1b0 193f c0eb 9c3d ab44 f2bc 0264 a4be
000003a0: 1621 cbbc c485 42be 4188 cdbb fa6d 86be
000003b0: e58c 913d ca06 89bd e219 5cbb acc2 3fbe
000003c0: e702 ef3d dbed 453e 31d5 abbb b94c d9bd
000003d0: 698b 033e c6a7 713e 5550 4cbe 2a34 01bd
000003e0: c1dd cc3d 3505 f6be 6d07 c23e 555c 303d
000003f0: a6a4 ad3e a315 74be 2e38 08bc e1a2 73be
-0.09432015 -0.0072739953 -0.05930135 -0.17014563 0.08591613 -0.5080661 0.18584254 0.7861946
0.045099173 0.25685492 -0.6518436 0.21648756 -0.5700591 0.08286511 -0.061514795 -0.090618625
-0.19611058 -0.5219347 -0.15824467 0.18864729 -0.18336062 -0.40048862 -0.7622119 -0.14936195
-0.06443842 -0.12164333 -0.1735278 -0.008162745 -0.46856207 0.019912153 -0.17414753 0.14079706
-0.17805512 -0.6926585 -0.14898989 -0.18438065 -0.19589405 0.2370338 -0.08918371 0.052311208
-0.22706495 0.48845828 -0.08215065 -0.3231248 -0.04807086 -0.059322197 0.6185265 -0.7364253
-0.0017675252 -0.12769622 -0.25919482 -0.17883456 -0.0034292317 0.19314532 0.016769279 -0.28425506
0.1803379 0.19733414 -0.090433724 -0.17653686 0.40710625 -0.0068774875 0.019199926 -0.28367805
-0.0793331 -0.061105847 -0.025611239 -0.4145516 -0.094419576 -0.06718709 0.045392063 -0.22278412
0.018296562 -0.2806144 -0.099143185 -0.09163635 0.34874174 -0.23090824 -0.0737543 -0.40285778
0.32817656 -0.06805789 -0.29945272 -0.0036725325 -0.47883752 0.07967229 0.15327834 -0.05034701
-0.39729974 -0.063625924 -0.037562884 -0.7550134 -0.012603024 -0.18454272 -0.28618178 0.4707827
0.19751532 0.115538456 0.2813304 -0.16572608 -0.040840663 0.5081779 -0.0096706245 -0.20473698
0.4447021 -0.113218725 0.057991993 -0.05171133 -0.47940722 -0.72679865 -0.40166909 -0.72799855
0.63492316 -0.04140743 0.027512727 0.3488018 -0.095576614 -0.044269037 -0.6857348 -0.50156724
-0.10888237 -0.7313154 -0.009474508 -0.5384247 -0.025757458 -0.05571899 -0.48042238 0.032759402
0.22597738 0.20201293 -0.24612316 -0.7631448 0.09677693 -1.1546446 0.38213858 0.06215523
-0.09647074 -0.48550367 -1.1490123 -0.25441578 0.08062086 0.48488513 0.16030033 -0.4388925
-0.77281046 0.59529173 -0.33944663 -0.8178311 -0.1712422 -0.034910094 -0.064010985 0.3826916
-0.16269565 -0.25576657 0.10566422 -0.17227274 -0.37951475 -0.17601578 0.2838285 -1.3843623
-0.09431966 0.029418105 -0.0124548245 -0.08150514 -0.74040055 0.058593586 -0.9765476 0.039319344
-0.013056121 -0.048493464 0.03216468 -0.0491154 0.07848855 -0.70821744 0.16529037 0.0026321483
0.017489184 -0.07413555 -0.22915144 0.19064869 -0.08587915 -0.26610294 -0.26208672 -0.049080107
-0.4681525 -0.2186406 -0.22977236 -0.4490985 -0.1769739 0.19438785 -0.06953545 -0.25196937
-0.40557754 -0.22697583 -0.17571402 0.22320494 -0.09088697 -0.6994546 -0.0510985 -0.020742036
0.55096734 -0.21879394 -0.24234748 0.28876737 0.34867463 -0.14623287 -0.39256716 -0.017923426
-0.14443845 -0.103992306 0.1700265 -0.17970069 -0.06370823 -0.19327518 -0.18044487 -0.57508826
0.47908974 -0.19110158 -0.01521991 -0.5436837 0.0016689302 -0.1263695 -0.16304676 -0.028683962
-0.0067106113 -0.16042723 0.5775541 0.0438511 0.6003552 0.07662153 -0.029573759 -0.3210755
-0.02479605 -0.1899634 -0.0062723462 -0.2625578 0.071069516 -0.06690748 -0.0033584763 -0.18726605
0.116704755 0.19329016 -0.0052439203 -0.10610337 0.1284615 0.23599157 -0.19952519 -0.03154389
0.10003234 -0.48050848 0.3789629 0.043056805 0.3391468 -0.23836379 -0.0083141755 -0.23792602

map_L5.weight f4 [618, 256]
00000000: f3ef 033f e165 0e3e 082d 13be 28ba bf3e
00000010: 0607 3c3e cc68 b9be d2e6 82bf debc 4abd
00000020: c83f 313e 79ee 34bf 0ff5 3abd 5967 e1bc
00000030: a27e 1e3e 96e6 393e ab67 c33e a880 cc3e
00000040: a907 d53e 2758 e7bd 5f44 cb3d c767 c73d
00000050: d8b6 373e 4056 ea3e d9c0 eebe f808 693e
00000060: 5f7e 70be c79a 85bd 4c98 f3bd 6959 42be
00000070: 9158 863e 1524 8fbd d5c6 4ebd 41aa 363e
00000080: cc36 d4be 6e0d 9b3e f2d6 23bf 0cb5 d7be
00000090: 406f 323e f8f8 d5be 6af7 413e d23b ae3e
000000a0: 58c8 88be bf7f 6c3d e7bb 923c abd5 6ebf
000000b0: 2d0f 943e b5c5 13be cdab 993d f19a 913e
000000c0: 1cc3 9ebf 43f1 a3be f102 6a3e dfed 733e
000000d0: 8e72 90be 0abf 803e 376c 3ebe 9c0e 973e
000000e0: bd69 043d bff8 56be 3721 c4bb 01da 2d3d
000000f0: 64dc 34be 16df 6c3b 881f c53d c32a 0a3f
00000100: b87c c73c 6d78 1f3e cbbe 433d e5f8 f5be
00000110: 45f4 423e 68a4 363d 5298 adbe 6a42 a1be
00000120: 7b26 b63d cc95 7e3e 988d dbbe 4ab3 383e
00000130: 05d6 7ebc a05d d33e 4fc7 263e 50b5 68bf
00000140: 766c 793e c07f 4fbe 68db 873e 4e03 973e
00000150: c83f 503e 7049 08bf a736 b8be 6d0d f8bd
00000160: f9f4 6a3e 3634 80bd 2ffd 19be f5b7 9bbe
00000170: 0182 0e3e 194a 1e3e 812b 703e 2aee 8cbe
00000180: 0693 97be 98fa 3fbe 29ca e7bd df0e 8dbe
00000190: 887b 59be 123a 143c ec31 bdbd 23e4 ba3e
000001a0: 3734 ad3e 3554 e4bd 3123 9e3e 6cc5 743e
000001b0: 7397 293e a96e 32bd 8270 163e 38e7 d83d
000001c0: 7c64 813d f982 773e 03e3 1cbd c375 be3b
000001d0: 1f22 933e 029b 103e b4c2 1b3e b610 0a3e
000001e0: 4395 a1bf 90e7 813d 29d6 9f3d ab7c 3b3e
000001f0: 1870 30be ab4a 563e 870e 123e bf6e c33e
00000200: c935 dc3e b55e 1c3d c463 dd3e 0b7b cebd
00000210: c3db 9c3e 2cf3 d43c 324c e6bd 25dd a1be
00000220: 6be0 b2bd 3c9f 3a3d e057 073c fecc 703e
00000230: 1a39 103f ba65 43be 8c63 cabd dd6c 963e
00000240: 2da0 8fbd 0479 3ebd 115b 05be 5616 eb3e
00000250: a286 4e3e 32e7 b83c 6559 65be af76 6ebe
00000260: f1c5 cabe f35f b13e 946c debe 8b04 fd3e
00000270: 25b5 223d 2bf2 b1bd 44c2 35be 6c49 f73d
00000280: 69ba 8e3e ba09 69bc ad95 e03d e67e 93be
00000290: fbdb 5f3e 779d 013e 0f8b dcbd e883 7e3e
000002a0: ac13 34be 24e0 c9bc 475a e93d a23f b03c
000002b0: fe17 1bbe 0af4 12be f58a 8fbd 1736 4a3d
000002c0: 60e3 ca3e 8ad3 aa3e a2dc 1bbf ce43 3a3c
000002d0: 45d2 b93c 3db0 4bbc d3e2 bdbe 6b08 93be
000002e0: 533a b83e 54b8 80bc 067d bfbe 5752 953e
000002f0: 7ab2 a23e aa37 373c d4f3 68be 4edb a03d
00000300: 7ac1 b53e 70fc 55be f1b3 8cbd 48a6 a03e
00000310: 6193 e2bd cf5f 813e 7135 e53e 1d49 e2be
00000320: db4c 693e 46ac be3e 2f0c af3e 065e 2abe
00000330: b248 30be 124d f73d c505 1f3e 9d94 7f3e
00000340: 947e 8a3e f3fc a0bd 23d9 abbd 5f93 16bf
00000350: 959e aebf 67fc babe 3c4c 3cbe 7851 103e
00000360: 41fc 4e3d 04d6 8a3e 72fa 283d 7a7d 833e
00000370: 599f 74be 9e72 873e f139 493d 451e 9dbd
00000380: 1ff0 b53d 22fd 11be 2e33 10be 136b c6bd
00000390: 33a1 11bc 4947 3dbf 82f8 5d3e 1ff3 8dbe
000003a0: f2bd c13c 4083 02bf 2264 02bf 5a1a 823e
000003b0: f21c 90be b314 783e 620a adbe 09af 7b3e
000003c0: 0ea6 b4bc 96c3 b33d 42d3 11bf 1fa6 113e
000003d0: 709d 593d e955 5cbe e904 583e 0dc4 46be
000003e0: 6b42 3a3d 251c 8b3e d975 03be a11c f63c
000003f0: d09c 95be 672c b43c ff4f b33d 0d0e 2c3e
0.5153801 0.13906051 -0.14372647 0.37446713 0.18362054 -0.36212766 -1.0226691 -0.049496524
0.17309487 -0.7067638 -0.045643862 -0.0275151 0.15477994 0.18154368 0.3816503 0.39941907
0.41607407 -0.112961106 0.0992515 0.09736591 0.17940843 0.4576893 -0.46631506 0.22757328
-0.23485707 -0.06523662 -0.11894283 -0.1897942 0.26239446 -0.06989304 -0.05048259 0.17838384
-0.41448057 0.30283684 -0.63999856 -0.42130315 0.17425251 -0.4179151 0.18942037 0.34030014
-0.2671535 0.057739016 0.017911864 -0.9329478 0.28917828 -0.14430888 0.075034715 0.28438523
-1.2403293 -0.32020006 0.22852685 0.2382121 -0.28212398 0.2514575 -0.18595968 0.29503334
0.032327402 -0.20993327 -0.005985405 0.042444233 -0.17662197 0.0036143712 0.09625155 0.539715
0.024351463 0.15573283 0.047789376 -0.48041454 0.19038494 0.044590384 -0.33905274 -0.31495982
0.08894058 0.2486183 -0.42881465 0.18037143 -0.015553956 0.41282368 0.16286968 -0.9090166
0.24357781 -0.20263577 0.2653458 0.2949471 0.2033683 -0.53237057 -0.35979196 -0.12111936
0.22945012 -0.062599584 -0.15037988 -0.30413786 0.1391678 0.15457954 0.23454095 -0.27525455
-0.29604357 -0.18747938 -0.11317856 -0.27550408 -0.2123853 0.009047048 -0.092380375 0.3650218
0.338289 -0.11148874 0.30886224 0.23903435 0.1656168 -0.043562565 0.14691356 0.105909765
0.06317994 0.24171056 -0.038302433 0.005812378 0.2873697 0.14121631 0.15210992 0.13482937
-1.2623676 0.06342995 0.0780452 0.18309276 -0.1723026 0.20926921 0.14263354 0.3817043
0.43009785 0.038176257 0.43240178 -0.10082062 0.30636415 0.02599486 -0.11245002 -0.31614032
-0.087342106 0.045562014 0.008260697 0.23515698 0.5633713 -0.19081774 -0.09882268 0.2937993
-0.07012973 -0.04650213 -0.1302302 0.45915478 0.20168546 0.02257118 -0.22397383 -0.23287462
-0.39604142 0.34643516 -0.43442214 0.4941753 0.039723534 -0.08688768 -0.17749888 0.12074551
0.27876595 -0.01422351 0.109660484 -0.28807753 0.2186126 0.12657724 -0.10768711 0.24855006
-0.17585629 -0.024643011 0.11394172 0.021514717 -0.15145871 -0.14350906 -0.07008926 0.04936799
0.39626598 0.33364516 -0.60883534 0.011368705 0.022683272 -0.012432155 -0.37087116 -0.2871736
0.35981998 -0.015712894 -0.37400073 0.29164383 0.31776792 0.011182705 -0.22749263 0.07854329
0.35499173 -0.20897079 -0.068702586 0.31376863 -0.110632665 0.2526841 0.44767335 -0.44196406
0.22783224 0.3724081 0.34188983 -0.1663743 -0.17215231 0.12075247 0.15529545 0.24959035
0.27049696 -0.07860746 -0.08391025 -0.5881862 -1.3642145 -0.36520693 -0.18388456 0.14093578
0.050533537 0.27116406 0.04125447 0.2568167 -0.23888911 0.26454633 0.049127523 -0.07671789
0.0888369 -0.14256719 -0.14082024 -0.096883915 -0.008888531 -0.739369 0.2167683 -0.2772455
0.023650143 -0.5098152 -0.5093404 0.2541073 -0.28147084 0.24226646 -0.33796984 0.2457849
-0.022051837 0.087775394 -0.5696298 0.14223526 0.05312866 -0.21517147 0.21095623 -0.19410725
0.045473497 0.2716991 -0.12837924 0.030042948 -0.292212 0.021993829 0.087554924 0.16802235

map_L5.bias f4 [618]
00000000: 7244 f4be 91b0 d3be 920d efbe 9842 e7be
00000010: c31a 49bf 3974 56bf 644b 87be 375b acbe
00000020: 82c8 babe e4a7 2bbe 5ca8 6bbe 6cf2 54be
00000030: 20c0 cbbe 95fd a7be 137d e1be 5aa9 8dbe
00000040: 8ec2 bfbe 8ca1 f1be 6426 edbe d74a dcbe
00000050: a951 e8be 20cd c5be a9ec f5be c102 debe
00000060: 5be7 0fbf 0779 cdbe 491a efbe 1477 ebbe
00000070: bd85 e1be e282 e5be 4680 00bf 1f21 a6be
00000080: 5ef1 fabe b038 16bf 50fc e4be d24f 11bf
00000090: e7eb f8be 95b5 0abf 4a29 b6be f507 c9be
000000a0: d031 f0be fcd3 a8be 5ee2 3fbe 005e e6be
000000b0: 03d1 e6be f0d0 a1be ef0d ddbe cf01 dcbe
000000c0: 22d6 b1be 8e97 b5be 4634 02bf 1e8c ffbe
000000d0: 8004 13bf ae4a e2be 1492 ecbe 2df7 d5be
000000e0: 5a4f c8be 5c98 b7be ae7e 09bf 2125 12bf
000000f0: cf7b 48be cf12 fcbe a3bb 10bf e6d3 ecbe
00000100: 7828 bfbe bb06 dcbe aafc 96be 5c0b b3be
00000110: ad0a e4be 7c6d 9fbe 703a 06bf cc52 05bf
00000120: 1bbf afbe 41f8 11bf f390 0abf 946c 04bf
00000130: f008 d4be 5248 03bf 56e6 e3be 74a0 0abf
00000140: 626d bdbe 9f22 10bf bafe bfbe db31 83be
00000150: 97ec 7dbe 1fd4 95be 3120 8bbe 2336 82be
00000160: eeb0 7abe cb82 9ebe 8e66 74be 5578 8ebe
00000170: d26d 8dbe 5d9d 66bf 5d55 0abf b426 efbe
00000180: 961e f5be 8006 d9be 9a90 dfbe d847 ebbe
00000190: 4cac e7be f1bf e6be ff3e edbe bc16 a0be
000001a0: 1f08 99be 84ab 8bbe 91b1 b0be 15f6 b3be
000001b0: acf0 a8be 7dc1 a0be 6578 9ebe e937 acbe
000001c0: ebf7 a7be 876b b2be 4e2d b6be 275f b2be
000001d0: 63a7 b1be 08fa c7be 9ca0 a9be 2f60 b9be
000001e0: c106 c0be 7ffc aabe a077 afbe ad4f 8cbe
000001f0: 6fbd 76be 28c6 88be e90f 97be 710e 81be
00000200: 0773 8ebe d308 63be 75ce 71be fe78 88be
00000210: 5bf7 78be f457 a4be af29 91be 7854 9dbe
00000220: 0bfa 96be 2e0d 99be befa 8dbe 481c 98be
00000230: f174 95be 122c 9bbe fc4d a0be b8af 90be
00000240: 254c 96be bf22 9abe d270 a6be 53b6 9abe
00000250: 3dc7 98be 244e 97be 0ade 96be f35a 77be
00000260: 0c27 9ebe f639 a5be aba8 a1be 6b0c a5be
00000270: c3d6 b2be fa62 a6be 6c5d a9be f894 b9be
00000280: 7a91 a8be 51dc 98be 8a18 b6be 8721 93be
00000290: 2706 9ebe b930 9ebe 5948 9dbe 115e 94be
000002a0: aab4 9dbe 7e10 98be d0da 95be 2919 acbe
000002b0: cbef 90be 6964 fdbe eaad debe 11ef dabe
000002c0: 4e5c fabe 480e debe 9da9 f4be fe60 e0be
000002d0: a30c 26be 902b 02bf 8673 04bf 9eb2 0ebf
000002e0: 946c 01bf c558 febe 1333 01bf 59de 8dbe
000002f0: 3ebd e0be ce5a acbe 54f1 fdbe a79c 07bf
00000300: 2218 ddbe fec1 b7be 5083 f3be 7e45 0dbf
00000310: 1e16 a5be 36fe 06bf b42e dabe 05db b3be
00000320: 0591 b4be 1991 dfbe 077c 91be 55a9 09bf
00000330: f192 ebbe 4772 12bf 5af8 b3be 74a4 d4be
00000340: abfc f8be 35ec 95be 9191 06bf 9097 afbe
00000350: 27c2 06bf 9848 f3be 3f97 f9be dfe9 16bf
00000360: 644c f5be d2ce bebe 2a31 f6be 6205 f1be
00000370: 69f3 e3be 502d cfbe 2be5 05bf 7c09 ffbe
00000380: a180 a6be 9a4c c9be bb65 0fbf f389 e6be
00000390: dbcb 07bf 4a20 cbbe 8505 e5be 1d7a ffbe
000003a0: 8cfb 0abf 72ad b1be 26cf cebe 679a f9be
000003b0: baac 083f 6957 fabe b95c bebe 1ea8 eabe
000003c0: a299 c0be 1398 04bf edf7 4fbe e736 0cbf
000003d0: 7faf b1be 9e9b e6be 8e4d d8be 4230 e4be
000003e0: ffe9 0dbf c882 02bf 5814 0dbf a52d bcbe
000003f0: 1d88 cabe 03b0 ddbe 1b23 cabe 80e0 e0be
-0.4770847 -0.41345647 -0.4669004 -0.45167994 -0.7855646 -0.8377109 -0.26424706 -0.3366334
-0.364811 -0.16763264 -0.23013443 -0.20795602 -0.39795017 -0.32810655 -0.44040737 -0.27668267
-0.3745312 -0.47193563 -0.46318352 -0.43025848 -0.45374802 -0.3863306 -0.4803212 -0.43361476
-0.56212395 -0.401314 -0.4669974 -0.45989287 -0.44047347 -0.44826418 -0.5019573 -0.32447144
-0.49012274 -0.5868025 -0.4472375 -0.5676242 -0.4861748 -0.5418332 -0.35578376 -0.39263883
-0.46913004 -0.3297423 -0.18738696 -0.4499359 -0.45081338 -0.3160472 -0.43174693 -0.4297013
-0.34733683 -0.3546719 -0.5086101 -0.49911588 -0.5742874 -0.441976 -0.462052 -0.41790143
-0.3912304 -0.35858428 -0.5370892 -0.57087904 -0.19578479 -0.492331 -0.5653631 -0.46255416
-0.37335563 -0.42973885 -0.29489642 -0.34969604 -0.44539395 -0.31138217 -0.5243292 -0.52079463
-0.3432549 -0.5701943 -0.54127425 -0.5172818 -0.4141307 -0.5128223 -0.4451167 -0.5415108
-0.36997515 -0.5630283 -0.37499028 -0.25623974 -0.24797283 -0.29263398 -0.27172998 -0.25431928
-0.24481556 -0.30959162 -0.23867247 -0.2782618 -0.2762285 -0.9008387 -0.54036504 -0.46709216
-0.47874898 -0.42387772 -0.4366501 -0.4595325 -0.4524864 -0.45068315 -0.46337125 -0.31267345
-0.29889008 -0.27279294 -0.34510472 -0.35148683 -0.32996118 -0.3139762 -0.3095123 -0.33636406
-0.32806334 -0.34847662 -0.3558144 -0.3483822 -0.34698018 -0.39057946 -0.33130348 -0.36206195
-0.37505153 -0.33395764 -0.34270954 -0.27404538 -0.240957 -0.2671368 -0.29504326 -0.2520633
-0.27822134 -0.22171335 -0.23613913 -0.2665481 -0.24313109 -0.32098353 -0.28352115 -0.30728507
-0.29487643 -0.29892868 -0.27730364 -0.29709077 -0.29190782 -0.3030706 -0.31309497 -0.28259063
-0.2935497 -0.30104634 -0.3250795 -0.30217227 -0.29839507 -0.29551804 -0.29466277 -0.24155788
-0.30889165 -0.32270783 -0.31573996 -0.32236037 -0.34929475 -0.32497388 -0.33079088 -0.36246467
-0.3292349 -0.29855588 -0.35565597 -0.28736517 -0.3086407 -0.30896547 -0.3071926 -0.28978017
-0.30801898 -0.29700083 -0.29268503 -0.33612946 -0.28307948 -0.4949067 -0.4349206 -0.42760518
-0.48898548 -0.4337027 -0.47785655 -0.43824 -0.16215758 -0.5084772 -0.51738775 -0.557413
-0.505563 -0.496771 -0.5046856 -0.277087 -0.4389438 -0.33663028 -0.4959818 -0.5297341
-0.43182474 -0.35890192 -0.4756112 -0.5518416 -0.32243437 -0.52731645 -0.42613757 -0.35128036
-0.3526689 -0.43665388 -0.28414938 -0.53774005 -0.46010545 -0.57205623 -0.35150415 -0.41531718
-0.4863027 -0.29281774 -0.52565867 -0.3429532 -0.5264 -0.47516322 -0.48748204 -0.5895061
-0.47909844 -0.37267166 -0.48084384 -0.4707442 -0.44521645 -0.40464258 -0.5230281 -0.49811924
-0.3252001 -0.39316255 -0.56014603 -0.45027122 -0.53045434 -0.39673072 -0.44730774 -0.49897853
-0.5429008 -0.3470264 -0.40392417 -0.48750612 0.5338856 -0.48894814 -0.37180117 -0.45831388
-0.37617213 -0.51794547 -0.2030942 -0.54771274 -0.34704205 -0.45040601 -0.4224667 -0.44568068
-0.55435175 -0.50980806 -0.5510917 -0.36753574 -0.3955697 -0.4329835 -0.39479908 -0.4392128
