model_AAE_128/ep_100_encoder_model.pth (torch_old, 705884 bytes, 10 tensors)

map_L1.weight f4 [256, 618]
00000000: ced6 df3e e3af c33d 078e a03c 8d08 9c3d
00000010: 53c6 fb3d 636a 943e 8f94 b63d 161f 6d3d
00000020: d7ca 9e3e df7e 9e3b e9a0 553e 8f25 0e3e
00000030: d549 0e3e 8c09 3abe 6891 f53d 0c04 6c3d
00000040: e39c 54bd 390e 243e e906 043e b1f9 6c3e
00000050: fae0 253d 7dd2 2ebe 9869 75bd 5059 473e
00000060: f9e9 623e 063a 5b3d b32a 813e 4212 3f3e
00000070: 43db 2f3f b6b7 7fbd 9a78 083d 2a6c 8a3e
00000080: a830 a23d 9531 913e 02f8 47bc 1ab0 983e
00000090: 5034 843e ad0d 3a3e de22 4c3e f0c0 a23e
000000a0: bcdf 5b3e e6f3 c3bd bafe a0be 7f40 063d
000000b0: 7df6 da3e 8710 b23d 89e6 6f3e 0643 ebbd
000000c0: d5b1 ad3e ae51 103e bf89 d13e f25d ab3e
000000d0: 049a 923e 91c0 1e3e 2d42 30be 9bde 633e
000000e0: 27ce 273e 5e2e c53e 023c a3ba b1bc 523e
000000f0: 1160 553e 5225 443e 797a 43be bd8b bebc
00000100: 30a7 52be f980 b73d 0fd6 993d 3201 733e
00000110: 48d3 0d3e fc0e bd3e 5ab8 063f 5e11 9f3e
00000120: aa10 8dbb 1d3f b73d 7392 933e 8134 be3e
00000130: 1ba7 103e 53af d6bb b7d1 7d3e 48fb e33d
00000140: 7537 9f3e 6768 c73d 3dba b23c 68da f83d
00000150: 6946 f53d 8ddb 073e f146 083e 44e9 0d3e
00000160: b6f4 c33d 45c2 f83d 034b 073e 9553 083e
00000170: 3b75 123e 90d7 1cbf 14dd 0e3e b36d 173e
00000180: 8122 2f3e 77ad 253e d99f 363e 6005 263e
00000190: 3a69 0f3e 4833 4e3e a893 293e 42bc 0f3e
000001a0: 2303 1d3e 0655 363e 7c58 023e 32e0 113e
000001b0: 0221 083e 4957 353e 549b c53d 61ce 183e
000001c0: e44f 213e ac3c 99bd ac4e 47bb acbb fcbc
000001d0: a524 05bd 21a7 eebd f0d9 8ebc 0bfe 89bd
000001e0: ed08 ecbd 5676 bdbd 85d5 54bd 67d4 053e
000001f0: 8092 153e 9a5b e63d 1809 053e a4ae b63d
00000200: 8e8b d33d e0a8 103e 1132 083e afc9 093e
00000210: f4f6 063e cb91 853d a4d4 e33c 3741 9e3d
00000220: 2ffe 053d 9a5c d93d 7ddb 433d 8aa8 943d
00000230: 9f33 dd3d f74e 223d ae63 3d3d 99b0 5c3d
00000240: 81da c93d 9f76 c03d aaeb 0d3e 8afd 303e
00000250: 4f40 243e eafd e53d f499 943d 6c7b 053e
00000260: 4853 0f3e c6f1 41bd 9b76 6fbd 4779 c4bd
00000270: b01f 82bd b7d6 e4bd b706 cfbd 1a45 94bd
00000280: b7cf c5bd d906 acbb 9683 13be f08b ec3d
00000290: f5e5 9c3d 4e10 ce3d 612c e23d 3cff 1d3e
000002a0: 9bd0 083e 42df be3d 4954 fa3d aa3e 173e
000002b0: 82c3 283e 56ce 76bd e0e0 243f e70b 963e
000002c0: b7c6 423d 3418 32be 9041 453e 9b87 aa3d
000002d0: d356 80be 442d 32be dcf7 f43e ba4a 0e3e
000002e0: 56bc 643e b27b 9a3e 353d 06bb 29c5 043f
000002f0: 8caf 603e d28d 473d 7b78 423e f1b9 013e
00000300: 34bc 7f3e 9227 08be aaa5 333e 4f29 053f
00000310: 261f 863e 7cc5 ab3d 5b3b 01be 49ff 8b3a
00000320: 2a49 d43d c4ea 573d 0386 213e 937f 413e
00000330: ec26 e5bd c46d 803e 2ec9 dd3e 9904 cc3e
00000340: 9a2d e63e 952a 363e 1f3b 9b3b ad7d 4c3e
00000350: 5cd0 0f3e 477a 763e ae64 e03d 2bc5 783e
00000360: 78bb 10bd b567 f63b 0a76 113e b21d 633e
00000370: ee39 a63d 7d40 723e 076e 9c3e f931 8c3e
00000380: 05a1 723e 7100 c23c 9fd6 2e39 ef80 b43c
00000390: ea53 3f3e 41c6 733e 5287 6ebe 6e69 d33d
000003a0: 4064 dbbd 50d9 12bc e72a 0a3e ae25 ba3e
000003b0: c085 573e b35d 873e de75 56be 8203 463f
000003c0: 38b6 8e3c 3696 6a3e 8175 a5be d134 a93e
000003d0: 413e 413d 2eec 3f3e 7467 533e fc33 25be
000003e0: b0f9 0f3d 810f 473e c9e9 663e 9116 9a3e
000003f0: a6b6 843d e3a4 9e3e e818 043f e648 273d
0.4371857 0.09555032 0.019598974 0.076188184 0.12293687 0.28987417 0.08915054 0.057890974
0.3101413 0.0048369016 0.20862164 0.13881515 0.13895352 -0.18167704 0.11990625 0.057621047
-0.05190743 0.1602105 0.12893261 0.23142125 0.040497757 -0.17072482 -0.059915155 0.19467664
0.22159566 0.053522132 0.2522789 0.18659309 0.6869394 -0.06243106 0.03331814 0.27035648
0.07919437 0.2835814 -0.012205126 0.29821855 0.2582116 0.1816928 0.19935176 0.31787825
0.21472067 -0.09568004 -0.3144434 0.032776352 0.4276618 0.086945586 0.23427786 -0.11487393
0.33924738 0.14093658 0.40925404 0.33470112 0.2863313 0.15503146 -0.17212744 0.22252886
0.16387235 0.38511938 -0.0012453797 0.20579793 0.20837428 0.19154862 -0.19089688 -0.023259992
-0.2057159 0.089601465 0.075115316 0.23730925 0.13850129 0.36925495 0.5262505 0.31067938
-0.004304965 0.08947585 0.2882267 0.37149432 0.14126246 -0.006551662 0.24787031 0.111319125
0.31096998 0.0973671 0.021817321 0.12151033 0.1197632 0.13267346 0.13308312 0.13858515
0.09568159 0.12146429 0.13212208 0.13313134 0.14302532 -0.6126642 0.13951522 0.1478794
0.17103006 0.16179453 0.17834415 0.16212988 0.14004984 0.2013675 0.16560233 0.14036658
0.15333228 0.17805871 0.12729067 0.1424568 0.13293841 0.17709078 0.09648767 0.14922477
0.15753132 -0.07482275 -0.0030411882 -0.030851208 -0.03250565 -0.11652971 -0.017437905 -0.06737908
-0.1152514 -0.092510864 -0.05196144 0.13069306 0.14606667 0.1124794 0.1299175 0.08920029
0.10329352 0.1412692 0.13300349 0.13455842 0.13180143 0.065219484 0.027811356 0.077272825
0.03271311 0.106133655 0.047816742 0.07258709 0.108008616 0.039626088 0.04623764 0.053879354
0.098561294 0.09397625 0.1385943 0.17284217 0.16040157 0.11230071 0.07255927 0.13035363
0.13996613 -0.047349714 -0.05846272 -0.09593444 -0.063537 -0.11173766 -0.10108703 -0.072397426
-0.09658759 -0.0052498397 -0.14405665 0.115501285 0.07661048 0.100617036 0.11043621 0.15429395
0.13360827 0.09319927 0.12223107 0.14769998 0.1648083 -0.06025537 0.6440563 0.29305956
0.04755279 -0.17392045 0.19263291 0.08326646 -0.25066242 -0.1740008 0.47845352 0.13895693
0.2233747 0.30172497 -0.002048326 0.5186334 0.21941966 0.048719235 0.18991272 0.12668587
0.24974138 -0.13296345 0.17543665 0.52016157 0.2619564 0.083872765 -0.12620299 0.0010680939
0.103655174 0.052714124 0.15773778 0.18896322 -0.111890644 0.25083745 0.4331755 0.39847258
0.44956666 0.17789681 0.0047372724 0.19969817 0.14044327 0.24070083 0.10956703 0.24293964
-0.035335034 0.007519687 0.14205185 0.22179297 0.08116518 0.23657413 0.30552694 0.27381876
0.23694237 0.023681851 0.00016673886 0.022034137 0.18684354 0.23806097 -0.23293808 0.103228435
-0.107124805 -0.008962944 0.13492928 0.36356872 0.21047115 0.26438674 -0.209434 0.773491
0.017420873 0.22908863 -0.3231621 0.33048108 0.04717851 0.18742439 0.20644933 -0.16133112
0.03515023 0.19439508 0.2255012 0.30095342 0.0648015 0.30985174 0.51600504 0.040841006

map_L1.bias f4 [256]
00000000: 3c45 933d 3f66 5cbf 8524 83bf 3bdc 5fbf
00000010: d0e4 50bf 567b 80bf 703f 6fbf b577 79bf
00000020: 6a35 78bf e00b 59bf 202f 24bf 4d33 2abf
00000030: 5cca 09bf 7b76 473e a448 22bf 3e6e 54bf
00000040: e249 83bf 13bd 86bf 7a09 2dbf 00e5 83bf
00000050: af66 00bf 2ba8 78bf 3cdb 61bf fe5e 36bf
00000060: b306 86be 8402 a6be 792b 52bf 538e 80be
00000070: 219c 4fbf 571f 52bf 4813 60bf bf82 7abf
00000080: 3492 77bf 1c32 8fbf a04e 74bf 5e93 5abf
00000090: cbf9 dcbe 2314 80bf 3a3b b23e 8fc2 28bf
000000a0: cafa 7ebf f42d 7ebf 11dd 80bf c37f 70bf
000000b0: 8b9c 923d 5eef 063e f6e5 7fbf 1f43 82bf
000000c0: f57b 67bf 77da 12bf cc02 51bf 91b8 68be
000000d0: d495 86bf caf1 71bf 3392 133e 97f1 60bf
000000e0: d533 65bf b14c 80bf 5a75 64bf 3cbc 87bf
000000f0: 172d 56bf 7d35 65bf 5487 4fbf 7f10 3ebf
00000100: d9a2 56bf f143 37bf 7dfa f9be 3cfe 56bf
00000110: fa9f 75bf 792f bf3e e672 6c3e 6953 6cbf
00000120: a237 7bbf 3fe9 23bf 2cf0 60bf 7c36 54bf
00000130: 18be 8bbf ed40 5cbf 8a02 dc3e f07a 7cbf
00000140: 9849 283e 800a 18bf 6659 19bf 9f62 29bf
00000150: dbd6 67bf 3fde 6cbf 71c8 89bf 0977 81bf
00000160: 21f4 8abf 9572 85bf 3c07 5fbf 3c4a 5dbf
00000170: 455b 73bf 6e4e 72bf 788a 2b3e c8cf 5cbf
00000180: 07b5 31bf 44d7 80bf ccf0 3dbe 32ef a3be
00000190: e1d6 78bf 3d4a c03e 083f 10bf 6491 6dbf
000001a0: a470 19bf e32d 7dbf d91f 75bf 4ff5 86bf
000001b0: 961c 49bf 1d2e 283e f60c 5cbf f904 b1be
000001c0: 91df 55bd fe01 59bf e01a 6ebf 88cc 583e
000001d0: 84bb d0be 0a83 72bf 2a0e 7dbf f2f9 4bbf
000001e0: 9eba 52bf 96c3 10bf 1907 80bf b747 083e
000001f0: b191 733d c1d1 6ebf df19 5dbf 3e3e 39bf
00000200: e532 a4be 93d5 88bf 173d 75bf de69 58bf
00000210: 2d27 82bf 6cfa 59bf e539 60bf 7af5 2cbf
00000220: 01fa 1ebf bb0f 64bf 4fa3 3ebf 2dcb 51bf
00000230: 7af4 42bf ef68 b4be 2bc9 29bf 71d9 7abf
00000240: ee2f 75bf 672f 3abf 9ee0 43bf 720e 8abf
00000250: 12ce 8cbf 0cee 933e 85f6 1fbf e137 7dbf
00000260: 2c6f 64bf 4c94 57bf e888 75bf 5d68 7bbf
00000270: f9b7 26bf edb0 63bf 4fe1 40bf fb22 f93d
00000280: b9f3 6fbf ebc4 7fbf fed6 77bf ccce 0fbf
00000290: e514 7dbf fea9 72bf bc64 2dbf df19 26bf
000002a0: 47dc 6cbf 61d0 70bf 7396 92be 3d1d 86bf
000002b0: 99b1 dfbc 8127 81bf a933 53bf 423c 91bf
000002c0: c93e 50bf f32c 83bf 9cf6 7e3e fd8a 7ebf
000002d0: 9c6e 80bf 7909 49bf 0fdc a7ba 50d7 fabe
000002e0: b280 68bf 382d 53bf 1193 b4be eec5 48bf
000002f0: 71fb d63e 6a66 78bf 83d3 b5bd 3a2c 7bbf
00000300: 8c14 31bf 37b1 eabe ab44 80bf 2a6c 33bf
00000310: acdf 75bf d0a2 14bf 6f08 503f bffd 8ebf
00000320: 3d4e 47bf 56cb 623e 0d0d 12bf 7da9 6dbf
00000330: 5215 29bf 81c4 6abf b8e3 3dbf 36f2 44bf
00000340: 4128 87bf 4d13 62bf f7a4 7bbf 2b30 31bd
00000350: fdd8 1e3e 5dce f3be 80fb 77bf 59ee 30bf
00000360: 056a 81bf 5d38 77bf b1f4 67bf 1565 73bf
00000370: a4ff 5fbf b023 8e3e 94c9 77bf 285c 6dbf
00000380: 3b1e aebd 84e0 6abf 5b8e 6bbf 0ec2 21bf
00000390: 4a96 6abf f113 1fbf 1892 54be 642a 35bf
000003a0: c575 60bf ae34 3bbf ca19 4ebf 1f0b 76bf
000003b0: 2ff8 5bbf 0d1e 17bf 2132 88bf 0bf8 81bf
000003c0: 5225 4ebf 96b5 63bf fc45 1abf 6790 56bf
000003d0: beee 973e 5c73 c13e 9e1a e7be afd9 84bf
000003e0: c54d 86bf 18c4 55bf 0993 81bf e025 60bf
000003f0: c142 38bf 356c 45bf 14e5 4abf fba9 81bf
0.0719094 -0.86093515 -1.024552 -0.8744542 -0.8159914 -1.0037639 -0.9345617 -0.97448283
-0.96956503 -0.84783745 -0.6413441 -0.6648453 -0.538244 0.1947879 -0.6339209 -0.82980716
-1.0256922 -1.0526451 -0.67592585 -1.030426 -0.5015668 -0.97131604 -0.8822515 -0.71238697
-0.26176986 -0.32423794 -0.82097584 -0.25108585 -0.8109761 -0.8207907 -0.8752942 -0.9785575
-0.96707463 -1.1187167 -0.9543247 -0.85381114 -0.43159327 -1.0006145 0.3481081 -0.6592187
-0.99601424 -0.9928887 -1.0067464 -0.9394495 0.071587645 0.13177249 -0.9996027 -1.0176734
-0.9042352 -0.573646 -0.8164489 -0.22726656 -1.0514474 -0.94509566 0.1441124 -0.87868637
-0.89532214 -1.0023404 -0.89241564 -1.060432 -0.8366255 -0.8953474 -0.8106587 -0.7424392
-0.83842236 -0.71588045 -0.4882392 -0.8398168 -0.9594723 0.37340906 0.23090705 -0.92314774
-0.98131764 -0.6402778 -0.87866473 -0.82895637 -1.0917387 -0.8603657 0.42970687 -0.9862509
0.16434324 -0.5939102 -0.59902036 -0.6616611 -0.9056222 -0.9252662 -1.0764295 -1.0114452
-1.0855752 -1.0425593 -0.87120414 -0.864414 -0.9506114 -0.94650924 0.1675204 -0.8625455
-0.6941685 -1.0065694 -0.18548888 -0.3201843 -0.9720288 0.3755664 -0.5634618 -0.92799973
-0.599375 -0.9889814 -0.9575172 -1.0543612 -0.78559244 0.16423841 -0.85957277 -0.34574106
-0.052215163 -0.84768665 -0.9300976 0.21171772 -0.40768063 -0.947312 -0.9884974 -0.7967826
-0.82316005 -0.5654844 -1.0002166 0.13308607 0.059465114 -0.9328881 -0.863676 -0.723606
-0.3207008 -1.0690178 -0.9579634 -0.8453654 -1.0168205 -0.8514774 -0.8758834 -0.6756207
-0.62100226 -0.890865 -0.7446794 -0.81950647 -0.7615429 -0.35236308 -0.6632258 -0.9798804
-0.9577626 -0.7272858 -0.76514614 -1.0785658 -1.1000388 0.28892553 -0.62485534 -0.9891339
-0.89232135 -0.8421066 -0.9591203 -0.9820612 -0.6512447 -0.8894184 -0.75343794 0.12164875
-0.93731266 -0.9990985 -0.9681243 -0.5617492 -0.9886001 -0.9479064 -0.67731833 -0.64883226
-0.92523617 -0.9406796 -0.2863041 -1.0477673 -0.027306365 -1.0090181 -0.825007 -1.1346514
-0.813458 -1.0248092 0.24898762 -0.9943083 -1.0033755 -0.7853008 -0.0012806671 -0.48992395
-0.90821373 -0.82490873 -0.35268453 -0.78427017 0.4198871 -0.9703127 -0.08878233 -0.9811436
-0.6917198 -0.4583833 -1.0020956 -0.7008692 -0.9604442 -0.5806093 0.8126287 -1.1171187
-0.7785376 0.22147879 -0.57051164 -0.92836744 -0.6604816 -0.9170609 -0.74175596 -0.76932085
-1.055916 -0.883107 -0.9829859 -0.043258827 0.15512462 -0.4761838 -0.96868134 -0.6911369
-1.011048 -0.9657038 -0.90607744 -0.95076114 -0.8749945 0.27761602 -0.9679196 -0.92718744
-0.0850186 -0.91748834 -0.9201409 -0.6318673 -0.9163557 -0.62139803 -0.20758855 -0.7076781
-0.876797 -0.7312726 -0.805081 -0.9611072 -0.85925573 -0.5903023 -1.0640298 -1.0153822
-0.80525696 -0.88948953 -0.6026304 -0.8381409 0.29674333 0.37783325 -0.45137495 -1.0378932
-1.0492483 -0.8350234 -1.0122997 -0.8755779 -0.7197686 -0.77118236 -0.79255795 -1.0129999

map_L2.weight f4 [64, 256]
00000000: 3595 2d3e 81ea 183c 9c99 6dbc eb0e eb3b
00000010: beba a3bc 177b 3f3c 80db 743b 2ea4 b43b
00000020: 9a4d 42bc c685 67bb d71d 583b b634 14bb
00000030: 337c d93b 2dc8 b63d c489 f73a 2600 373c
00000040: c2d9 4f3c a9ef 44bc df17 173d 956c 22bc
00000050: d00e fcbc 75f9 8fbb cbc2 b3ba 384b b83e
00000060: c009 a5be 59b2 ee3d fe5e b13c 2cf6 843c
00000070: 597d 71bc a043 32bc 55eb 2bbc c56e 22bc
00000080: 5e23 34bc 1a77 e6bb 9ab4 34bc 327a a5bb
00000090: a345 a13a 7651 3f3a bda7 80be 45df 0abc
000000a0: d84d 9cbb ff7f f23b e028 063c 5692 7d3c
000000b0: 092b 973e 93bb a83c ba19 75bc 8376 7e3b
000000c0: d310 8f3b a524 af3b 4353 a9bb 2e45 b63f
000000d0: 3e4a 92bb b7bd d7bc 6b96 04be b421 f7bc
000000e0: ef28 d53a ca88 953b 511c 2d3b 5237 62bc
000000f0: eb1d 7bbb 5224 e039 5ce0 c43b e2b2 48bc
00000100: 2f86 053c ca60 46bc bf2b 94b9 bdf7 50bb
00000110: 8407 3a3c ac61 85be deb0 8cbc 0a49 063c
00000120: 569a eabb 4a1a 5b3b 7cd2 6abc 558f 3ebc
00000130: 4bce f2ba 8e0d 8a3c 759d 06be 1944 8cba
00000140: 27a7 38bd 8d7a 6f3c 106a a43d 9757 033c
00000150: ce11 4f3c f33b f33b bc5a a4bb 9e1d 43bc
00000160: edca 623c f25d 37b8 2e40 b537 8de4 1ebb
00000170: 68f1 49bb dff1 f0bb 8605 44be 9135 48bb
00000180: 0b84 42bc 8fd0 2b3c d098 f73b 381a f4bd
00000190: 48d1 053c aed1 7bbd 4cd0 9dbb 9ab1 3bbc
000001a0: f23d 843c 002e 4abc 6634 9abc e9af bebc
000001b0: 1076 07bc 426e 86bd 8af2 093b de2a 47bc
000001c0: 8882 3bbe 0297 123b 96e9 a7bc 3374 35be
000001d0: 00ad 2b3b 6358 fc3b 730c 59bc 419f 6e3c
000001e0: 880a 5fbb af09 c6bb 06da ba3c 6ae7 31be
000001f0: dfa1 8abe aa1d d0bc 609f 6d3c 1e2f 6d3c
00000200: a19f 5abb 6d2c 303d a00e b6bb b91b 7ebc
00000210: 6e36 cabb 8939 6d3c 0a6d 833b 8c5a 6d3b
00000220: 6773 073c c261 523c 6bc3 383c 2404 39bc
00000230: 8e3b e33d aa2b b03e b3fb 2abd 3a4a d0bc
00000240: e039 363c 125f abbc e133 b4bc bc0d 8ebc
00000250: 0067 3b3c 0234 9fbe 0f7f 213d a497 bbbc
00000260: 273c 833c f98c 90bc bfea cb39 356d 8abb
00000270: 2849 1b3c 7f39 12bc 7b4c 57bc b337 e0bd
00000280: 7407 41bc d8bd 7cbc 17ef f83b 50e8 973b
00000290: dc2e 823b 0735 963c ae83 4cbc 2e17 083c
000002a0: cc41 5c3c 5993 05bb 14a5 ca3d 5bfd d43a
000002b0: 7767 eebd 1567 aa3b ffd7 dc3b c86b 3a3c
000002c0: 553a 81bc 0eaf 8f3c e26d 20be c375 f8ba
000002d0: c282 4e3b a226 783c ace2 75be ee98 613c
000002e0: a501 c2ba 465e 753c 0e1d 97bb 170d 49bc
000002f0: 540e 71be 44de fc3c 2d91 ae3d 717b 4abc
00000300: f451 0b3d 2928 783c e769 7fbc c3e0 6abc
00000310: 6a2f 9abc 691a 9d3b 1be5 5cbe dca3 a73b
00000320: 8e14 383a 1d10 45be fa0d e6bc 2f84 b03a
00000330: db16 3eba c76c e63b 55a7 be3c 79a8 16bc
00000340: 9bb7 21ba deef 18bc bf52 1bbc 0628 6cbc
00000350: 1e49 07bd 2f06 5abc fb48 183c a323 bbbb
00000360: df65 1ebb 8f03 bebc 2730 c4bb 0217 21bc
00000370: 1f51 42bc d365 c53d aa6f d6ba ff02 2abc
00000380: d958 ccbe 0d02 b1bc eff7 cb3b 4281 32bc
00000390: 1978 6dbb 6d5a a9bb f85d 44be 8b00 55bc
000003a0: 2375 4abb 46f2 0dbd b313 523b 9e72 a5bc
000003b0: 9611 f43a 988a 04bc 6b28 82bb 84f9 173c
000003c0: 07c3 513b 7a52 34bc f087 313c 74ed a83b
000003d0: 2117 22be 9209 2bbe 7de0 433e f7b9 833c
000003e0: bc54 cb3c 1a36 a2bb c439 053b da6a 9fbc
000003f0: 0276 903a 2458 3abb e96a 253c e66e b5bc
0.16951449 0.009333254 -0.014501955 0.007173409 -0.019986507 0.011687062 0.0037362278 0.005512736
-0.011859322 -0.0035327538 0.003297677 -0.0022614426 0.00663712 0.08924899 0.0018885662 0.011169469
0.012686195 -0.01202003 0.036888 -0.009913583 -0.030768782 -0.0043937513 -0.0013714669 0.35994887
-0.32234 0.11655111 0.021651741 0.016230665 -0.014739358 -0.010880381 -0.010493119 -0.009914105
-0.01099476 -0.007033241 -0.011029387 -0.005049967 0.0012304079 0.00072982104 -0.25127974 -0.008476083
-0.004770022 0.007400512 0.008188456 0.015476784 0.2952502 0.020597255 -0.014959747 0.0038827963
0.0043660193 0.0053449445 -0.0051673963 1.4239862 -0.0044644168 -0.02633558 -0.12948005 -0.030167438
0.001626281 0.0045634257 0.0026414583 -0.013807135 -0.0038317393 0.0004275167 0.006008191 -0.01224968
0.008149668 -0.012108037 -0.00028261353 -0.0031885945 0.011354331 -0.2605108 -0.01717418 0.008196125
-0.0071595116 0.0033432418 -0.01433241 -0.011630853 -0.0018524615 0.016852167 -0.13146003 -0.0010701447
-0.045081284 0.014616621 0.08028042 0.0080164885 0.012638522 0.007422918 -0.005015699 -0.011908917
0.013842327 -4.3718093e-05 2.1606767e-05 -0.0024245114 -0.0030814055 -0.007353052 -0.19142732 -0.0030549506
-0.011872302 0.010486736 0.0075560585 -0.11919063 0.008167572 -0.061479263 -0.0048160907 -0.011455918
0.01614282 -0.012340069 -0.018823814 -0.02327724 -0.008267894 -0.06563999 0.0021049106 -0.012156216
-0.18311512 0.002236784 -0.020497125 -0.17720108 0.0026195645 0.007700966 -0.013247597 0.014564336
-0.0034033377 -0.006043635 0.02280904 -0.17373434 -0.27076623 -0.02540477 0.01450333 0.014476566
-0.0033359306 0.043011118 -0.0055559427 -0.015509539 -0.0061710393 0.0144790495 0.004010801 0.00362173
0.00826726 0.01284069 0.01127706 -0.011292491 0.110953435 0.34408313 -0.041743945 -0.025426019
0.011122197 -0.020919356 -0.021997394 -0.017340533 0.011438131 -0.31094366 0.039427813 -0.022899456
0.016019894 -0.017645346 0.00038894077 -0.0042244443 0.009477891 -0.008924841 -0.013140793 -0.10948124
-0.011781562 -0.015426122 0.007596861 0.004635848 0.003972871 0.018335832 -0.012482567 0.008306308
0.013443422 -0.0020382016 0.098947674 0.0016249822 -0.11640828 0.0052002766 0.006739616 0.011378236
-0.015774885 0.017539527 -0.15666917 -0.0018955994 0.0031511043 0.0151459295 -0.2401225 0.013769371
-0.0014801515 0.01497609 -0.004611618 -0.012271187 -0.23540622 0.030867703 0.08523784 -0.012358532
0.034013703 0.015146294 -0.015589214 -0.014335814 -0.018821437 0.004794408 -0.21571772 0.005115969
0.0007022106 -0.19244428 -0.028082836 0.0013467128 -0.00072513305 0.0070320102 0.02327315 -0.00919544
-0.0006169022 -0.009334533 -0.009480177 -0.014413839 -0.033028714 -0.013307138 0.009294744 -0.0057110353
-0.0024169607 -0.023195056 -0.0059871855 -0.009832146 -0.011860161 0.09638562 -0.0016360183 -0.010376691
-0.39911535 -0.021607423 0.0062246243 -0.010895075 -0.0036234914 -0.0051682503 -0.19176471 -0.013000618
-0.0030892573 -0.034654878 0.0032055199 -0.020196255 0.0018620964 -0.008089684 -0.0039721034 0.009275798
0.0032007114 -0.011005992 0.010835633 0.0051552597 -0.15829135 -0.1670287 0.19128604 0.016079886
0.024820678 -0.004950297 0.002032862 -0.01946013 0.0011021497 -0.0028433884 0.01009629 -0.022147607

map_L2.bias f4 [64]
00000000: 157b b2be b40b a2be d71e 42be 1bef 13be
00000010: 4ec0 33be abf6 dbbd de0b 9dbd b5ac 75be
00000020: 4c92 7cbe 5340 813c aa31 8ebe 6e4a a3be
00000030: 058f 803d 8843 9abd c662 2f3e 488b d5be
00000040: d04b c5bd 534b 2dbf a915 d5bd 0db8 a5bd
00000050: eac3 30be a09d d9bc d5d5 c7bc 5dcd b93d
00000060: 7753 29be 9656 29be e4a8 d4bd b83b b4be
00000070: f604 15be 3d84 32be 61ee f4bd 4fb2 24be
00000080: d19f edbd 5d8d acbd 04b9 43be 9295 f7bd
00000090: aadc 0fbe be6d f3bd c204 05be 0708 d53c
000000a0: 0a79 91bd 6232 38be c76e 50be 8fd3 48bf
000000b0: ab64 31be 4266 93be b6b1 92be c840 573e
000000c0: d9b5 e6be 604c 27be d31f adbd 7a6e e4be
000000d0: f53c 0abf 44ba ba3d edd2 4fbe 953b 54be
000000e0: 059a 063c f8cb 95be b450 a9be be50 1dbe
000000f0: 5323 24be 4e77 64bf 946a 61be bf00 ddbd
-0.3485953 -0.31649554 -0.18957077 -0.1444668 -0.17553827 -0.107404076 -0.07668279 -0.23991664
-0.24665183 0.015777742 -0.27772266 -0.31892723 0.06277279 -0.07532412 0.17127523 -0.41707826
-0.09633601 -0.6769306 -0.10404522 -0.080917455 -0.17262235 -0.02656442 -0.024393955 0.09072373
-0.16535746 -0.16536936 -0.10383776 -0.35201812 -0.14552674 -0.17433257 -0.1195953 -0.16083644
-0.11602748 -0.084254004 -0.19113547 -0.12089075 -0.1404902 -0.11886166 -0.12990096 0.026004804
-0.071031645 -0.1798797 -0.20354758 -0.7844781 -0.17323558 -0.28788954 -0.28651208 0.21020806
-0.45060614 -0.16337729 -0.084533356 -0.44615537 -0.53999263 0.091175586 -0.20295306 -0.20725854
0.008215432 -0.29257178 -0.33069384 -0.15362832 -0.160291 -0.89244545 -0.22013313 -0.10791158

map_L3.weight f4 [16, 64]
00000000: 91a6 29b9 91cf 61be 9a25 80bd c96b 883c
00000010: 45cf 963e 85a0 25bd 83ee 81bd 4384 42bc
00000020: ba5e 38bd 3fc7 5abd 6c80 4b3e cec6 bc3b
00000030: fb82 05bb 0ec0 3b3c f5f2 c6be 80c4 81be
00000040: c20c cebc 1752 573d 5dfb 00bd a5fe 923c
00000050: 6d31 1abd b555 b03d e7a6 c23d 4456 ef3c
00000060: d28b a1bc 66d0 d8bc 7d5e 13bd f7ea 85bd
00000070: 32f2 e0bc 33c9 d23c e3f0 0abd 17f7 9ebc
00000080: e193 5fbc 06fb 0cbb 0a4a 40bd bd07 2fbd
00000090: 9c21 0bbd 6572 6abd 0a50 b53c ab71 b73a
000000a0: 6e24 74bc 0af9 48bd 1e98 9f3a 1439 3c3e
000000b0: bb61 21bd dce2 ca3c b522 c53d dd1e 7e3e
000000c0: f2b1 3cbe f172 85bd bbf5 2abd c2bf 31be
000000d0: 81df e43d 7d44 2d3e 73a7 6fbd cce3 65bc
000000e0: 0e14 313d 024e a2be 9065 c43e 52fe 50bc
000000f0: 0fbc d0bc 2d40 5e3c 32bf 13bd 48b5 dd3b
00000100: bdef afbc 1e28 5c3d 236e c23b 7f7e 5db9
00000110: 4edc 41bd 5271 97ba 53e8 df3b e8e0 083a
00000120: 64fb 3dbb 4285 5cbb 61bc e33e 0cee 5d3c
00000130: 2ba9 9b3b b9fc dbba f1b3 ad3d 82f8 4c3e
00000140: 44f6 883b e715 2f3e 4e60 b13b 1607 c6bb
00000150: 6d49 eaba b25a 6abb effe 973e dda3 a03b
00000160: d697 023b c91b c13a 3ef8 333b 8f57 0c3f
00000170: 144a a43a ebb0 163b 9835 c43b 9d4a 973b
00000180: 3072 a3b9 8a17 bd3b 2d2c febb bbfb b93b
00000190: 1263 903b 8888 093c 4603 9a3b b6f0 3cbe
000001a0: 4ac6 a53b bc42 a5b9 56e3 a53b 18d8 0ebe
000001b0: b1d0 0b3e f0b6 5a3a a4b9 da3b 84d4 6dbd
000001c0: 0d3a 0fbd d077 5c38 fa05 d83b 644b 4dbe
000001d0: 7cf7 123e 246f f1bd ecd3 39bb 21ae 74ba
000001e0: 0705 953a 22e6 fc3d 6749 8b3c a936 cbb8
000001f0: 7751 6abb 14ea 5fbe 3f5e 6d3b 938f 8fba
00000200: fd22 67bd 18ee 683d 039f bf3b fce9 703b
00000210: 8aa6 53be 193e 16bb 0a1f 8e3c 87cd 363c
00000220: 2843 8fbb a4dd a7bb 65a5 8cbe 53f8 0f3c
00000230: 8860 803c ff39 16ba 93db dbbd 2dc0 183e
00000240: e9c1 ec3b e0e8 333f 522e 873c 4bc4 febb
00000250: 02ae 7739 5c61 443d 632f 403f b426 023b
00000260: 7a82 813b fded 453c 252a 263c d5e3 92be
00000270: 845e 6ebb a8b7 b03a 06c3 893c 638e 12bb
00000280: fdd8 253c 0b74 b33a 1127 05bc ed1c eeb9
00000290: a7f1 ac3b a0ac 5d3b 98d6 523c 993c 283f
000002a0: fef7 1a3c fa2b 3c3b 6e04 8c3c 3325 ebbe
000002b0: b052 6cbe 79c5 a03c 725a 4c3d 16dd 713d
000002c0: 7b4d cbbc 38e8 693b c089 e63a 85fe b9be
000002d0: 33de e2be 98dc 39be 26df f5ba 84ce 483c
000002e0: a385 6c3c 844f 333e 6ef5 9b3d f74f 153a
000002f0: ccbf f2ba a262 64be 1bcf b8ba 3200 fb3a
00000300: 2aae 67bd 5c57 083e 845f 953c 292f a1bd
00000310: f6fe 443d 9329 6abd e051 353d de2a 6bbd
00000320: 361d 733d 6cb7 3bbe 93e3 e3bd 753e 10be
00000330: 8e70 803b ac41 e0bc d0b6 d2bd 93db 00be
00000340: 405a 32bd 6993 6f3a 5f20 433d d9d1 333d
00000350: 792d a2bb 9766 03bd 2892 163e ab7d abbc
00000360: 5105 3abd 7f3f 29bd 2ac4 05be 65b4 f23c
00000370: 60a2 b93c 9f5d 18be 98f0 863d fa3f 1dbd
00000380: da47 afbb 28c1 d03c 447a 06bd ce59 d4bc
00000390: a1b3 f33c d1c9 c53c 0bf6 e43c 12ad dcbd
000003a0: 3853 a2bd 2f65 9ebd e0f7 fbbc 1b58 cebd
000003b0: cd1f 193e b731 2d3d a79f 9f3c 376f de3d
000003c0: f3a6 893e 7576 47bd 505f 78bd fbce d73d
000003d0: 109e a8bd 179e 9dbe ca4b d0bc eadc 66bb
000003e0: 38f6 b73c 41f2 0ebd b127 8b3d 249d 32bd
000003f0: 8944 723d e2a9 90bd b9c6 e2bd 068b 5ebc
-0.00016179147 -0.22051837 -0.06257172 0.016652958 0.2945501 -0.040436286 -0.063443206 -0.011872354
-0.045012213 -0.053412672 0.19873208 0.005761004 -0.002037226 0.011459364 -0.38857237 -0.2534523
-0.025152568 0.05256852 -0.03148972 0.01794369 -0.037644792 0.08610097 0.0950449 0.02921594
-0.019719992 -0.02646656 -0.035978783 -0.065389566 -0.027459238 0.025730705 -0.033921134 -0.019404931
-0.013646097 -0.0021511926 -0.04694561 -0.04273199 -0.0339676 -0.057238 0.022132892 0.0013995668
-0.014901264 -0.049065627 0.0012176072 0.18381149 -0.039399844 0.024766378 0.096257605 0.24816461
-0.18427256 -0.06516064 -0.041738253 -0.17358306 0.111754425 0.16920657 -0.0585093 -0.014031362
0.043232016 -0.3170014 0.38358736 -0.012755947 -0.025480298 0.013565105 -0.03607101 0.006765995
-0.02147662 0.053749196 0.0059335395 -0.00021123326 -0.04732924 -0.0011554158 0.006833115 0.0005221502
-0.0028988952 -0.0033648764 0.4447966 0.013545524 0.004750391 -0.0016783691 0.08481587 0.20016673
0.004179748 0.17098199 0.0054130917 -0.006043325 -0.0017874666 -0.0035759625 0.29686686 0.0049023465
0.0019926927 0.0014733012 0.0027461196 0.54821104 0.0012534284 0.0022993635 0.005987834 0.004617049
-0.0003117486 0.0057706283 -0.007756731 0.0056757606 0.0044063414 0.008394368 0.0047000973 -0.18451199
0.0050590383 -0.00031520973 0.005062501 -0.1394962 0.13653828 0.00083433 0.006674962 -0.058064
-0.03496747 5.256367e-05 0.0065925093 -0.2004829 0.1435222 -0.117887765 -0.0028355075 -0.00093338086
0.0011369296 0.12348582 0.017002774 -9.6899756e-05 -0.0035754123 -0.21866637 0.0036219505 -0.0010952823
-0.05642985 0.05686769 0.005847813 0.003676056 -0.20668998 -0.0022925197 0.017348785 0.0111574
-0.0043720193 -0.005122857 -0.27469936 0.008787232 0.01567103 -0.0005730688 -0.1073524 0.14917059
0.0072252643 0.70277214 0.01650158 -0.007774865 0.00023620579 0.04794441 0.75072306 0.0019859495
0.0039523216 0.012080667 0.010141884 -0.28689447 -0.0036372254 0.0013482468 0.016816627 -0.00223627
0.010122535 0.00136912 -0.00812699 -0.0004541645 0.0052778306 0.0033824816 0.012868546 0.65717465
0.00945854 0.0028712736 0.017091956 -0.45926818 -0.23078418 0.019625412 0.049890943 0.059048735
-0.024817219 0.0035691392 0.001758866 -0.36326995 -0.4431015 -0.18150556 -0.001875852 0.012256268
0.014436158 0.17510802 0.076151714 0.00056958146 -0.0018520295 -0.2230325 -0.0014099808 0.0019149838
-0.05656258 0.13314575 0.018234022 -0.07870323 0.048094712 -0.057168555 0.044267535 -0.05741393
0.05935403 -0.18331689 -0.11127391 -0.14086325 0.0039196676 -0.027375065 -0.10288775 -0.12583761
-0.0435431 0.0009139092 0.047638293 0.0439013 -0.0049492684 -0.03208026 0.14704192 -0.020933947
-0.045415226 -0.04132032 -0.13063112 0.029627034 0.022660434 -0.14879464 0.06588858 -0.03839109
-0.0053491415 0.02548273 -0.032831445 -0.025921728 0.02974874 0.024144085 0.027949354 -0.10775198
-0.07926029 -0.07734143 -0.030757844 -0.100753985 0.14953537 0.04228374 0.019485308 0.10861056
0.26885185 -0.048696954 -0.060637772 0.10537525 -0.08233273 -0.30784675 -0.025426764 -0.003522689
0.022456273 -0.034899 0.0679468 -0.043606892 0.05914739 -0.070636526 -0.110730596 -0.01358295

map_L3.bias f4 [16]
00000000: 58a0 dbbe 799a 03be 1720 b03e af9f 043d
00000010: 6118 14bf 9d84 aabd 3a79 2a3e e0dd d1bd
00000020: d0e6 95bf 5e55 b7be 2a30 d5bd 6dc8 32bf
00000030: d4fc d3bd 3f2b b6bd 05b1 f23e 8c08 c4bd
-0.4289577 -0.12851895 0.34399483 0.03237885 -0.578497 -0.08326075 0.16647807 -0.102473974
-1.1711063 -0.35807317 -0.10409577 -0.69837075 -0.103509575 -0.08894967 0.4740068 -0.09571943

map_L4.weight f4 [4, 16]
00000000: 9150 763e a06f 9c3d 7224 f4be 3b9a 3a3c
00000010: 4f8f 13be 52f6 833a 0b5a c2bd b260 d3bb
00000020: 54ae 3ebf eedc fb3c 5e7d 35bc fdb4 2abe
00000030: 76b5 2cbc e11f 913a 7a2c 9bbc 622f b6bb
00000040: 88ed 0a3c 254c f4bd 6474 4bbe 7a68 3f3b
00000050: a8fa bcbd f6d0 533b e9ea a13c f792 a0bb
00000060: 799d 3abe 77a6 dabe 1751 26bb 74a2 00be
00000070: 8e2d b63a b219 a9bb 5e59 4f3d b311 a2ba
00000080: 39d5 2c3f c058 acbe 0243 f0bc 018b a23c
00000090: e353 a23e e343 c6bb a7d8 01bf fa49 ba3b
000000a0: 469c 06bf 5151 75bd 5d46 f0bc 633f a0bd
000000b0: d21e 2fbd 451d 263d 19d6 33be 8eab a5bb
000000c0: a7d0 98be 7a61 cabe ad14 1a3d 91d9 87bb
000000d0: 2298 adbe 7555 4bbc ea02 913e 9210 1abc
000000e0: edba 36be 212a 36bd b75b 283c e417 08be
000000f0: 4e7d be3c 83c6 dbbc 75ad 0c3e c9eb 823a
0.24054171 0.07638478 -0.47684056 0.0113893105 -0.14410137 0.0010067916 -0.094898306 -0.006450736
-0.74484754 0.030744996 -0.011077253 -0.16670604 -0.0105413105 0.0011072123 -0.018942107 -0.0055598477
0.008479483 -0.11928586 -0.19868618 0.002920656 -0.092274964 0.0032320595 0.019765334 -0.004900332
-0.18224134 -0.42705128 -0.0025377923 -0.12561971 0.0013899074 -0.005160534 0.050622337 -0.0012364894
0.6751285 -0.3366146 -0.029328827 0.019841673 0.31704625 -0.006050573 -0.5072121 0.005685088
-0.52582204 -0.059892002 -0.029330427 -0.0782459 -0.042754002 0.040555257 -0.1756214 -0.0050558513
-0.2984669 -0.39527494 0.037617374 -0.004145809 -0.3390513 -0.012410511 0.28322536 -0.009403365
-0.17844744 -0.04447377 0.010275773 -0.13290364 0.02325311 -0.026828056 0.13738044 0.0009988482

map_L4.bias f4 [4]
00000000: 573c 10bf 1500 873f 7feb 92be adcb 09bf
-0.5634207 1.05469 -0.28695294 -0.5382641

map_L5.weight f4 [2, 4]
00000000: 91b1 85be a3f8 b33e 1bf4 9e3d 1a06 8bbc
00000010: 5ba2 893d 0f67 943e 5a74 45be 44a5 b9be
-0.26112035 0.35150632 0.07761403 -0.016970683 0.0672042 0.28984877 -0.19282666 -0.362589

map_L5.bias f4 [2]
00000000: 557c b93e ad7d 303e
0.3622767 0.17235442
