model_AAE_128/ep_100_discriminator_model.pth (torch_old, 21281 bytes, 7 tensors)

map_L1.weight f4 [256, 2]
000000 ae 87 1e 3e 2b a4 f4 3d 35 b0 05 3e 30 56 06 3e
       0.15481445 0.11945375 0.13055499 0.13118815
000010 39 7f 0f 3e db 35 ed 3d 4d 1a 80 3c 41 6d a8 3d
       0.14013375 0.11582538 0.015637541 0.082239635
000020 52 78 ab 3b 02 d1 fc bd 76 75 09 be a1 5a cb bd
       0.005232849 -0.123445526 -0.13423714 -0.099293955
000030 a0 28 f4 bd 2e c4 66 bd 16 23 d2 3d ac 55 37 3d
       -0.11921811 -0.056339435 0.10260598 0.044759437
000040 ab a1 34 be ba 04 17 bd 31 02 ca bd e5 42 04 be
       -0.17639796 -0.036869742 -0.09863699 -0.12916143
000050 d5 89 da 3c 48 4d 47 3e fa 22 fe bd 60 a6 e2 bc
       0.026677052 0.19463074 -0.12409015 -0.027667224
000060 18 16 8a bd 13 04 d3 3d 57 6e 1b be ef db 54 3e
       -0.06742495 0.103035115 -0.1517881 0.20787023
000070 12 01 c2 bd 92 e9 2d be ec 05 26 3d dd 32 e2 3d
       -0.094728604 -0.16983631 0.04053299 0.11044858
000080 c9 9c 91 bc 39 b6 76 be 1f d2 b2 bd 39 0c 07 3e
       -0.017774956 -0.2409295 -0.08731484 0.13188256
000090 aa 90 e9 bd 35 c1 61 3d 1c ad 79 bd ab a5 08 be
       -0.114045456 0.055115897 -0.060956106 -0.13344447
0000a0 a7 36 b3 bd 42 c0 54 3c 8b d1 68 bd 90 41 ae 3d
       -0.087506585 0.012985291 -0.05684046 0.08508599
0000b0 6c ab e3 bc dd 17 0a 3e c5 ea a3 bd 0e 1b e8 3d
       -0.027791701 0.13485666 -0.08003763 0.11333285
0000c0 14 88 eb bd bd cf 52 bd 51 e3 8d 3d f2 da 04 bc
       -0.11500564 -0.051467646 0.06928123 -0.008108841
0000d0 2e b0 4b be 0c d4 32 3d 4e ad 84 bd 4b 22 b8 3d
       -0.19891426 0.043659255 -0.06478368 0.08990916
0000e0 8a 92 cb bd 0d 07 bb 3c a0 6c 48 3e 1b d7 71 bd
       -0.099400595 0.02283051 0.19572687 -0.05904303
0000f0 5f a0 59 bd 95 f4 73 bd b7 9d 55 be 8e 6c 73 3d
       -0.053131457 -0.059559423 -0.20860945 0.059429698
000100 12 3f 07 be 55 06 a1 bc 25 f9 27 be 29 72 89 bd
       -0.13207653 -0.01965634 -0.16403635 -0.067112274
000110 3c 47 54 bb 87 ce e3 3d 84 bd 11 be a3 04 8a 3c
       -0.0032391092 0.11123376 -0.1423245 0.016847914
000120 1e 71 23 be 1e ff 7f 3d fc e9 51 3d da 90 12 be
       -0.1596112 0.062499158 0.051248536 -0.14313069
000130 ec e6 14 3e 94 c1 c8 3c e4 d0 8b 3d b8 d4 ee 3d
       0.14541215 0.024506368 0.06826952 0.11661667
000140 32 0b ec bc 6c c0 51 be 8b ad b5 bd 56 e7 ce bd
       -0.028813932 -0.2048356 -0.08870991 -0.101027176
000150 9c 1d 18 3c ae ca 55 be d2 95 96 3b 4e 65 df bd
       0.009284403 -0.20878097 0.0045954967 -0.10907994
000160 78 6e 46 bd 20 63 86 3d fd 09 fc bd 15 f5 11 3e
       -0.048445195 0.06561875 -0.123065926 0.14253648
000170 55 f0 0b be c5 d1 87 bd 47 09 2f be 53 4e 33 bd
       -0.13665898 -0.06631807 -0.17093383 -0.043775868
000180 86 54 29 3e 65 9b 50 3d dc 17 f9 bd 9a 5b 21 be
       0.1653615 0.050929446 -0.12162754 -0.157576
000190 96 47 c9 bd c8 5b be bb 22 c2 cc 3d 6f 63 45 bd
       -0.09828107 -0.005809281 0.099979654 -0.04819053
0001a0 e7 6d 35 be 2d 1f 5e 3d 02 52 1b 3e 3b 30 94 bd
       -0.17717706 0.05422895 0.15168002 -0.07235762
0001b0 db 70 86 bd 4f bf e6 3d 01 b4 09 3d 99 48 ee bb
       -0.06564494 0.11266958 0.03361893 -0.007271838
0001c0 4c d1 2a be 7f 0c e9 bd 21 41 0c 3e ae 7d 41 bd
       -0.16681403 -0.113793366 0.1369672 -0.047238998
0001d0 b5 d6 7d bc 4d ec 53 3e 88 44 0c be 4e 72 80 bd
       -0.015493085 0.2069561 -0.13698018 -0.06271802
0001e0 bf 4c f2 bc 15 d9 fd 3c d2 62 0a 3d 47 a1 e5 bc
       -0.029577611 0.030987302 0.03378565 -0.028031005
0001f0 d5 94 0a be 86 46 c2 bd 93 08 d1 3c f9 6b 26 be
       -0.13533337 -0.094861075 0.025516784 -0.16252126
000200 ee aa 17 be 14 ef c8 3c e7 c2 88 3d d7 a7 bb bd
       -0.14811298 0.024528064 0.066778 -0.09162872
000210 c0 b8 b0 3d d0 63 f2 bd 45 d2 7e bd b5 33 01 3e
       0.08628988 -0.11835444 -0.062212247 0.12617381
000220 18 b9 6c 3b 29 e3 b6 bd 21 b8 fa 3d 09 e1 bf 3d
       0.0036121067 -0.08930046 0.12242151 0.09369094
000230 d8 52 2a 3e 58 09 b6 bd 41 bf ad bd 65 d0 e5 bd
       0.16633165 -0.08888501 -0.084837444 -0.11221389
000240 f3 b8 00 3e d3 74 21 bd 4f 39 00 3e a3 64 1f bd
       0.12570553 -0.039418053 0.12521861 -0.038914334
000250 43 bc 1c 3e 23 a0 e2 3d e3 b9 ec bd 89 46 0e bc
       0.15306191 0.110657 -0.115588926 -0.008683809
000260 1e cf 8f bc f5 05 e5 bd 37 4e 6e bd 4d cc 7f bb
       -0.017554816 -0.11182777 -0.05818006 -0.0039031685
000270 7e c1 5b bd 49 49 a2 3d 9f 32 1a 3d e7 fb f0 3d
       -0.053651325 0.07924134 0.037645932 0.117667966
000280 5b fc 00 be cc 3a 20 be 55 57 16 bd 5f ec 05 be
       -0.12596266 -0.15647429 -0.03670438 -0.1307845
000290 94 75 4b bd 0e 80 b4 bd c9 f2 b8 bd f3 e2 eb 3d
       -0.049672678 -0.08813487 -0.090306826 0.115178965
0002a0 53 9f 20 bd dd 49 21 be 71 1a 42 be e2 3d 88 3c
       -0.039214443 -0.15750833 -0.18955399 0.01663107
0002b0 c0 b4 d0 bd a6 a9 f6 bd ea 91 44 3d 2f b6 11 be
       -0.10190725 -0.120440766 0.047990717 -0.14229654
0002c0 65 07 59 bc 56 e3 91 3c d4 b2 32 be be cb 4c bd
       -0.013246392 0.017808598 -0.1745103 -0.04999899
0002d0 ba 98 39 bd 09 97 f5 bd e8 8e 60 3b fd b9 a6 3d
       -0.045311667 -0.11991698 0.0034264866 0.08140943
0002e0 99 9d fe bc df 36 10 be 20 d5 ac bd d1 1e 01 bd
       -0.031081008 -0.14083432 -0.08439088 -0.03152353
0002f0 c2 cd 43 3b 1f b3 3e 3e e1 6f c5 bd be 55 9f 3d
       0.002987728 0.18623017 -0.0964048 0.07780026
000300 95 30 cb 3d f6 b3 31 be c2 27 56 3e a1 e7 07 be
       0.09921376 -0.17353806 0.20913604 -0.13271953
000310 c4 37 67 bd d3 73 d0 3d aa ee e3 3d de 24 12 3d
       -0.056449667 0.10178342 0.11129506 0.03567969
000320 74 fb bd bd 86 82 e2 3d 37 71 43 3e ff 15 86 be
       -0.092764765 0.110600516 0.19086157 -0.26188657
000330 68 96 11 bd c0 70 46 bd 11 1f 29 3e a5 46 0e 3e
       -0.03554383 -0.04844737 0.16515757 0.13894136
000340 d2 02 98 bd 84 6d 34 bd 34 a6 3d 3e 82 4c d7 bc
       -0.07422413 -0.044049755 0.18520433 -0.026281599
000350 04 6e ed 3b bd 53 dd 3d 0c d6 85 be 6d 45 a0 3d
       0.007245781 0.108069874 -0.26139867 0.07825742
000360 4e e4 31 be 62 8e c6 bc 2e 57 ff bd be 0a 4f be
       -0.17372248 -0.024237815 -0.124678 -0.20218942
000370 2b 9e d2 3d da ec b4 bc 76 58 e7 3c e1 bf 3d 3b
       0.102840744 -0.022085596 0.028240424 0.002895348
000380 d2 eb 6c bd af 83 3a bd 20 ab a5 bd eb 9e 12 3e
       -0.057842083 -0.04553574 -0.0808928 0.14318435
000390 4e 91 c8 3d 71 dc e6 3c 54 63 5e 3d eb dc d3 bc
       0.0979334 0.028181287 0.054293945 -0.025862178
0003a0 8b 9c bc bb 5c a3 33 3d ca 1b 16 bd f6 77 e8 3c
       -0.005755966 0.043856964 -0.036647595 0.028377514
0003b0 ec 15 b9 3d 2b f8 0d 3e 8f f2 0d 3e 3d 62 8f 3b
       0.090373844 0.138642 0.1386206 0.0043757246
0003c0 aa 6a cb 3d 8e 95 0f 3e ab c5 42 be a7 98 b0 3d
       0.09932454 0.14021894 -0.19020717 0.08622866
0003d0 61 9b 08 3d f7 d2 a0 3d a6 31 b1 bd 21 06 08 be
       0.033351306 0.07852738 -0.08652048 -0.13283588
0003e0 f0 a1 13 3e 2e 5c cb 3d 6c b3 a5 3d 5e 4b ad bd
       0.14417243 0.09929691 0.08090863 -0.08461641
0003f0 f6 e6 92 3d 65 d3 3f 3e d1 da f9 3c 2a 28 e2 bd
       0.071729586 0.18732984 0.030499848 -0.11042817

map_L1.bias f4 [256]
000000 eb 18 79 bd a1 6b 9f 3d 44 95 b2 bd 32 ad 67 3b
       -0.06081478 0.077842005 -0.087198764 0.0035351035
000010 cf b5 9f 3c b4 dc 0e bb 4f 7e 9b 3c 6c 35 0b bd
       0.019495873 -0.002179903 0.018981127 -0.033986494
000020 c4 4d 2b 3d f5 4b 91 3d 0d b9 21 bd a6 01 0d 3d
       0.04182221 0.07094566 -0.03948312 0.0344254
000030 89 24 22 3c 10 46 58 3b 16 6f 3e 3d f7 29 04 3c
       0.009896406 0.0033000745 0.04649266 0.008066646
000040 16 21 39 3d 11 bb fb 3c 33 79 30 bd cc 61 fb bc
       0.04519757 0.030728849 -0.043084335 -0.030686282
000050 5f 20 32 bd 84 68 a6 3c bb cc 2e 3d 00 c7 e5 3c
       -0.043487903 0.020313509 0.042675715 0.028048992
000060 bd 25 ce bd cb db c4 3d 57 15 5c 3d 2d 92 9b 3a
       -0.10065792 0.09612235 0.05373129 0.0011869125
000070 4f e6 a7 bc 87 08 08 3c 55 c9 98 bc 9e 54 20 3d
       -0.020495562 0.008302814 -0.01865069 0.039143197
000080 6b 03 f1 3c 12 f7 5a 3d c9 57 98 bc c1 ae 9d 3b
       0.029420575 0.05345828 -0.018596547 0.004812092
000090 85 29 aa bc 2c b8 b6 bd 5a 53 28 bd 55 ef e3 3d
       -0.020771751 -0.08921847 -0.041095115 0.11129633
0000a0 7a 37 a5 3d 08 82 17 3d 44 38 06 3d 1c 9d 8c 3c
       0.08067222 0.03698924 0.032768503 0.01716476
0000b0 83 64 99 3a 2e 19 fb bb e1 21 3f 3d 95 11 07 3e
       0.0011702928 -0.0076629138 0.04666317 0.13190301
0000c0 fb a5 4b bc c5 4d e5 3c 94 c3 b4 bc c3 d4 c7 3d
       -0.01242971 0.027991185 -0.022065915 0.09757378
0000d0 e4 9e 73 3d c5 8c 3e 3d 08 d6 08 3c ee 85 79 3a
       0.0594777 0.046520967 0.00835181 0.0009518553
0000e0 e2 02 3f 3d 6c 6c 20 bd e6 03 e3 bd ec 02 3d 3d
       0.04663361 -0.0391659 -0.11084728 0.046145365
0000f0 1e 0e a4 3d 10 34 cd 3d d6 5e d4 3c e5 b5 fb 3b
       0.08010505 0.10019696 0.025924128 0.0076815956
000100 3e ea 50 3d 03 3a 46 3d 4c 0c 80 3d 18 a6 8e 3c
       0.05100464 0.048395168 0.062523454 0.017413184
000110 7a e0 9c bc 5d f6 44 bd cc 7d 16 bd 66 6e 1c 3d
       -0.019150008 -0.048086513 -0.036741063 0.03819122
000120 0b 0d b6 bc 0b 6a b6 bc 28 d2 ae bd aa d2 11 bc
       -0.022223016 -0.022267362 -0.08536178 -0.008900324
000130 2f 13 de 3c d8 38 e7 3d 23 bd ad 3d e8 f6 c1 bb
       0.027108757 0.11290139 0.084833406 -0.005919326
000140 2e 4e 69 3d 7a fa 48 bd cf 8e cb bd 98 0c 36 3d
       0.056959324 -0.049066998 -0.09939348 0.044445604
000150 9b ff 0b 3d 5b a7 30 3d 2a fc 42 3d 7e 9f 70 3c
       0.03417931 0.043128353 0.047603764 0.014686463
000160 5a 93 b8 3d 86 10 5a 3d 00 dc 60 bc 6d cc 55 3c
       0.0901248 0.053238414 -0.013724327 0.013049227
000170 85 7a 69 3c 38 15 cf 3c b9 5e 03 bd b9 4e 60 bc
       0.014250402 0.025278673 -0.032072756 -0.013690644
000180 16 5a aa 3c 0e 48 45 bd 67 35 59 3b 2c d4 ca bb
       0.02079491 -0.04816442 0.0033143403 -0.0061898436
000190 1b 00 d5 3d a9 10 7c bb 79 f9 7a 3d 3d ad 80 bd
       0.10400411 -0.0038462079 0.061273072 -0.062830426
0001a0 7b 9f 96 3d d8 3f 89 bd 75 38 a3 bc 32 71 46 3d
       0.07354637 -0.0670163 -0.019924382 0.048447795
0001b0 d5 83 18 3d fb 04 46 bd a7 ea 43 3d 0c d3 cd 3d
       0.0372351 -0.048344593 0.047831204 0.100500196
0001c0 64 98 cf bc 49 3f a8 3b 7c 34 11 bc da 8c b7 bd
       -0.02534122 0.0051344973 -0.008862611 -0.08962412
0001d0 38 c9 9d 3d f0 ed 09 be d8 de 4f 3d 5c b1 8c bd
       0.07704395 -0.13469672 0.05074963 -0.06869766
0001e0 b8 75 a8 3c ca 49 9a 3c cc 63 4b 3d 73 7a 27 3d
       0.020563945 0.018834013 0.04965572 0.04088826
0001f0 96 d3 f6 bc 55 79 2d 3d 64 60 0d 3d 20 a1 a1 bd
       -0.030130189 0.04235204 0.034515753 -0.0789206
000200 4c 9d e1 bd b8 c5 84 bd a7 68 f6 3c 04 ab dc 3a
       -0.1101633 -0.06483024 0.030079199 0.0016835635
000210 37 3c 08 bc aa d0 d8 3d e9 a5 7c 3c 30 b4 29 bd
       -0.008315138 0.105866745 0.015420415 -0.041431606
000220 8e 0b 89 bc 6e e0 0f 3d 29 93 f4 3a 64 8b f9 bc
       -0.016729143 0.035126142 0.001865958 -0.030461974
000230 41 01 b1 3d a9 68 07 bd bf e0 9e bc 4f 91 16 3d
       0.08642817 -0.033058796 -0.019394277 0.03675967
000240 b7 48 9e bc 4e 35 b1 3d a2 a5 ac 3d 92 43 1e bb
       -0.019321783 0.08652745 0.084300295 -0.0024149162
000250 d4 7d 17 3d 7b cf 8b 3d 10 e5 d5 bc 66 a4 1a bd
       0.036985233 0.06826683 -0.026110202 -0.03775444
000260 53 74 94 bd e9 5a b2 3c 29 d1 de 3d 5d 0a c4 3c
       -0.072487496 0.021771865 0.10879738 0.023930723
000270 b0 12 a1 3d 8e e3 8e bd 55 15 c1 bd 23 b3 98 bd
       0.078648925 -0.06976996 -0.09427897 -0.074560426
000280 1a fa 22 3c d7 a8 81 bd 08 ac 62 3c 78 56 66 3d
       0.009947324 -0.06331032 0.013834961 0.056234807
000290 1d 45 67 3b 47 41 55 3d 20 50 0b bd 29 dd b9 bc
       0.0035288997 0.052064206 -0.03401196 -0.022688465
0002a0 85 45 80 3b 9c cb be bd 5e f8 18 3d 9d 23 a1 bc
       0.0039145374 -0.09316179 0.037346236 -0.019670302
0002b0 21 9c 85 bd b1 6e f8 3c 30 0a 2f 3d 47 5d 34 3d
       -0.0652392 0.03032622 0.042734325 0.04403427
0002c0 78 01 0d 3b 99 2c 1c bd 26 77 2b 3d a4 ff 81 bd
       0.0021515768 -0.03812847 0.041861676 -0.06347588
0002d0 1a 8d fd 3c 2a a3 6c bc 7d 82 12 ba 2a 9d 09 be
       0.030951072 -0.014443198 -0.0005588902 -0.1343886
0002e0 fd 9e 74 3d 19 e4 29 bd f4 da 50 3c 05 03 65 bd
       0.059721936 -0.041477297 0.012747515 -0.055911083
0002f0 c2 2d 74 3d bd 6a d5 3c 33 48 50 bd 1f 5f 13 3c
       0.05961395 0.026051873 -0.050850105 0.008994847
000300 92 b0 3b bd 47 7a 92 bd cb 7a 48 3b aa 6e a5 3d
       -0.045822687 -0.07152229 0.0030590768 0.08077748
000310 ae 26 5c bd 41 66 81 3c 28 0c ac bb 5c 04 3a 3d
       -0.053747825 0.015795829 -0.0052504726 0.045414314
000320 ee 81 98 ba 00 5a 3d bd 30 59 7a bd 9e ea b4 bc
       -0.0011635402 -0.04622841 -0.061120212 -0.02208453
000330 f7 32 d7 3b ee ca 64 bc 9d 0f 9f 3d 70 e0 2b 3d
       0.006567355 -0.013964398 0.0776665 0.041962087
000340 85 6e a8 3d 6b 8b 3e bd cf bd 92 3d 33 25 5b 3d
       0.08224205 -0.046519678 0.07165109 0.053502273
000350 e9 5b 68 bd cf 48 3a bd c5 92 94 3c a0 9c ca 3d
       -0.056728277 -0.045479592 0.018136391 0.09893155
000360 ce 7d ec 3c b1 1f fb 3d da fd 01 3d cd 0a 50 3d
       0.028868582 0.12261904 0.031736232 0.05079155
000370 ec 57 63 bc d6 15 67 3d 56 0e 73 3d cb 6f e8 3d
       -0.013875943 0.05641731 0.059339844 0.11349448
000380 59 49 07 3d c6 dc 9d 3d 85 a9 a5 bd c6 38 4b bd
       0.033028934 0.07708125 -0.08088974 -0.04961469
000390 1a 4a 1f bd 45 e2 0b 3d 86 e1 01 bd 77 5c 57 bd
       -0.038889028 0.034151334 -0.031709217 -0.052578416
0003a0 9b d0 7c bc 1c 7f 5c bc 41 73 39 bb 01 aa bb 3d
       -0.015430595 -0.01345804 -0.0028297456 0.09163285
0003b0 62 1d 26 bc 60 13 10 3c 13 7e e5 bc fe 65 87 bc
       -0.010138841 0.008793682 -0.028014218 -0.016528126
0003c0 3b 0c 79 3d 4a 8a 54 3d 3b e5 10 bb 83 6a 17 3d
       0.06080268 0.051889695 -0.0022109288 0.036966812
0003d0 ea 2a c4 bd 3a c7 5f 3d 78 c3 ab bd b4 6c cf 3d
       -0.09578498 0.054633357 -0.08386892 0.10128155
0003e0 87 0d c7 3b 55 47 ec 3c 9b 35 e0 bb 92 1c 24 3d
       0.0060746106 0.028842608 -0.006842328 0.04006631
0003f0 cf 9e cc 3b c9 aa 92 bd 32 de 3b bb d4 8e e1 b9
       0.0062445174 -0.07161481 -0.0028666374 -0.0004302176

map_L2.weight f4 [16, 256]
000000 19 fa f9 3d ec dd 95 bc 5d 6e a0 3d 1e b0 a6 3d
       0.122059055 -0.018294297 0.0783355 0.081390604
000010 46 c9 37 3d d9 51 ff 3c 0d 5b 52 3d ef 7b e9 bd
       0.044869684 0.031166958 0.051356364 -0.114005916
000020 fd 85 a1 3c 82 a9 c1 3c b1 96 21 3e 50 47 11 3e
       0.01971721 0.023640398 0.1578014 0.1418736
000030 ca 29 2a 3d 1f 0c 9b 3d 30 df cb bd 37 8f 2f 3d
       0.04154376 0.07570671 -0.09954679 0.04286119
000040 78 28 3c 3d 26 bb 29 3e 6b fa 61 bd a6 be 36 3d
       0.04593703 0.16575298 -0.055170458 0.04461541
000050 3a 58 09 3e 64 b4 bc 3c f0 40 51 3e 53 76 63 3e
       0.13412562 0.023035236 0.20434928 0.22213106
000060 65 25 89 bd 12 1e a1 bd 17 aa 4e 3e f9 56 0f 3e
       -0.066965856 -0.078670636 0.20182072 0.13998021
000070 fb a7 06 3e b9 2a 4c bd d4 6d 29 be 1a db 87 bc
       0.13150017 -0.04984543 -0.16545802 -0.016583968
000080 af 41 10 3e 4d f0 34 3a d3 82 a4 3d 89 bb 04 3e
       0.14087556 0.00069022627 0.08032765 0.12962164
000090 f8 d0 de 3d 6f 74 c5 bd 30 b5 cd 3d 3e 41 ec 3c
       0.108797014 -0.096413486 0.100443244 0.028839704
0000a0 b5 14 36 3d 08 73 7a bd a3 f6 ce 3d 53 12 71 bd
       0.04445334 -0.06114486 0.10105636 -0.058855366
0000b0 58 be 65 bd 43 3c d0 3d 69 7a a7 3d 92 ab eb 3d
       -0.05608973 0.10167744 0.08177645 0.11507334
0000c0 9f 8a d1 3a 8b 68 85 bc 31 b7 af bd d6 ec 85 bd
       0.0015986747 -0.016285202 -0.08579863 -0.065393135
0000d0 1a 11 d1 bd 04 08 7c bd b6 f2 63 3e 9b 71 02 3e
       -0.1020834 -0.06153108 0.22260556 0.1273865
0000e0 18 af b9 bc 02 3c d6 bd 0c 9e 43 3e 81 03 d4 3d
       -0.022666499 -0.10460664 0.19103259 0.10352231
0000f0 20 b6 ff 3b fd 6f 07 3e 06 9f 25 bd b7 1e fc bd
       0.0078036934 0.13226314 -0.04043486 -0.12310546
000100 9e e0 de 3d 46 df 6b bc 65 75 af 3d 15 0f 65 3d
       0.10882686 -0.014396494 0.08567313 0.055922586
000110 42 ed 60 be f2 ed 0a 3e 7f 13 d0 bd 4e a6 d3 3d
       -0.21965507 0.13567331 -0.101599686 0.103344545
000120 23 d1 55 be 63 63 10 be eb 1b 07 3e b2 93 b7 3d
       -0.2088056 -0.14100413 0.13194244 0.089637175
000130 3f 23 58 3d 67 28 f7 3d 63 b6 62 3e 46 ba 2d 3e
       0.05276799 0.12068253 0.22139888 0.16965589
000140 2a cd 03 be c6 13 29 bd 38 dd ab bd 62 85 fb 3d
       -0.12871233 -0.041278623 -0.083918035 0.122813
000150 f7 5c 4b be 9e 8e ac 3d 96 8c ef 3d 46 03 8b 3a
       -0.19859682 0.084256396 0.116967365 0.0010605834
000160 fe 42 dc 3d 20 3f aa 3d 0c 32 1a be 9f 4b bd 3d
       0.10754965 0.083128214 -0.15058154 0.09242939
000170 38 94 0c be ae 14 f5 3d 54 00 43 3d 28 4c 16 3e
       -0.13728416 0.11966835 0.047607735 0.14677489
000180 73 67 d3 be a3 87 78 be 8f 5c 33 3d 96 36 0c be
       -0.41289863 -0.24270491 0.043789443 -0.13692698
000190 22 d1 38 3e 3a 7d 9d be fa 65 0f 3d 8c ef 4c bd
       0.18048528 -0.30759603 0.03500936 -0.050033137
0001a0 5a e4 23 bd 2b 47 8b 3d 11 78 1c 3c f4 6c 46 3d
       -0.040012695 0.068006836 0.00955011 0.04844375
0001b0 fe 69 07 be 5b 07 24 be 27 80 a5 3d 77 16 53 3d
       -0.13224027 -0.16018431 0.08081084 0.051535096
0001c0 3d ec 59 3d 50 5a d0 3d d4 0f f9 bd 98 8d 35 be
       0.05320381 0.10173476 -0.12161222 -0.17729795
0001d0 0f 45 46 bd b1 9a bd 3c 73 6d 2d bd 48 a7 42 be
       -0.048405703 0.023145052 -0.042340707 -0.19009125
0001e0 e8 3a aa 3d 31 f7 b9 3d 7b 46 7b bd 04 1c 9c 3d
       0.08312017 0.09080351 -0.061346512 0.07622531
0001f0 8c 8d c3 bd eb 31 fd bc 86 04 02 3e 64 90 5f bc
       -0.09548482 -0.030907592 0.12697038 -0.013645265
000200 69 93 ba 3c 31 1f 1b 3e 16 07 af bd 3a 9d 0c 3e
       0.022775369 0.15148617 -0.085462734 0.13731852
000210 49 c1 94 be 76 6e f3 bd d7 ba 54 bc 8e d4 8e 3c
       -0.29053715 -0.11886303 -0.012983999 0.017435338
000220 c5 10 34 bd dd db c0 3d fc b9 4a bc 9a 2f 52 3e
       -0.043961305 0.094169356 -0.012373444 0.20525971
000230 e0 86 89 bd 73 6b b3 bc 5f f0 87 3d 02 af 93 3d
       -0.067151785 -0.021901822 0.06637644 0.072111145
000240 92 fe 3f be 41 b0 04 bd b3 a1 a8 3d 80 c7 08 be
       -0.18749455 -0.03239465 0.08233967 -0.13357353
000250 53 48 19 3e 45 7a 02 3b d9 45 3c bd b0 93 12 3e
       0.14968996 0.0019909304 -0.04596505 0.14314151
000260 ca 45 56 bd d4 0d d1 bd cc e7 fd 3d 5a a9 04 3e
       -0.05231265 -0.10207716 0.12397727 0.12955227
000270 10 9b 33 be 25 7e 02 be 81 b0 e6 bc ed 20 c0 bd
       -0.1753962 -0.12743433 -0.028160335 -0.0938128
000280 65 fe 53 bd 54 11 08 3e 23 b8 6c 3e ae 3d 7a 3d
       -0.05175628 0.1328786 0.23117118 0.06109398
000290 08 59 34 3e b2 de f7 3d 68 0e 35 3e 96 75 22 3c
       0.17612088 0.12103023 0.17681277 0.00991573
0002a0 49 0e 16 3e 08 dd fc 3d b9 fb 01 bd d2 61 06 3e
       0.14653887 0.12346846 -0.031734202 0.13123253
0002b0 ed 7f 5f bd d9 9f da bd 2a 86 ab bd 77 10 1a 3d
       -0.05456536 -0.1067502 -0.08375199 0.03761336
0002c0 d2 53 e5 ba 2c ad 0f 3d d3 6f 3b 3e 79 ab 7c 3d
       -0.0017496294 0.03507726 0.18304376 0.061686967
0002d0 55 39 8c 3d d8 d2 83 3d a8 1a 40 3e bb 88 29 be
       0.06846873 0.064367 0.18760169 -0.16556065
0002e0 30 ce 5b 3e 8e 7d 55 be 73 f5 b7 3d c2 f6 00 3d
       0.21465373 -0.20848677 0.089823626 0.031485327
0002f0 ac 42 39 3d db 54 34 3e b2 37 c3 3d 76 2c 30 bd
       0.0452296 0.17610495 0.095321074 -0.04301115
000300 93 a1 bb bd 1c 5a bd bd 8e 5e 09 bd 3e 61 08 be
       -0.09161677 -0.092457026 -0.03353744 -0.13318345
000310 50 bf ac be 33 15 68 3d 4b a7 d5 bd f6 d1 d4 bd
       -0.3373971 0.056660842 -0.10432299 -0.10391609
000320 d3 06 62 be 9b 93 2c 3e 7b 05 cc bd 65 b8 9b 3d
       -0.22072916 0.16853182 -0.09961983 0.0760353
000330 e1 fb bf 3c bb 78 2a be d6 19 f9 bd 1c 06 03 3d
       0.023435535 -0.16647618 -0.12163131 0.03198825
000340 ca 8e 1f 3e b3 23 1c be 1b ba 31 3d 85 7e 2c be
       0.15581813 -0.15247993 0.043390375 -0.16845138
000350 0a 22 70 3e 60 31 e9 3d 78 82 b5 3d 51 f1 77 bd
       0.23450485 0.11386371 0.088627756 -0.06053287
000360 83 85 3b bd 23 ae 70 3d 18 0d 8f 3c 53 da 1d be
       -0.045781624 0.05875982 0.017462298 -0.15415315
000370 89 c5 67 3d cb a9 67 3d a8 db 24 3e e0 51 0f 3e
       0.05658487 0.05655841 0.16099417 0.13996077
000380 1f 85 39 bd db c6 17 bd 6d 14 40 3d ad 0f e7 3c
       -0.04529297 -0.037054878 0.04689448 0.028205717
000390 03 3e 6d 3d 78 21 c3 3d c0 75 c4 bd c4 28 18 be
       0.057920467 0.09527868 -0.095927715 -0.14859301
0003a0 24 e0 08 be 25 a7 3e 3e 13 2d 53 be 73 58 04 3e
       -0.13366753 0.18618448 -0.20622663 0.12924366
0003b0 88 51 a4 bc da b3 6c 3c d5 ae 96 bb 32 f7 59 3d
       -0.020058408 0.014447177 -0.0045984783 0.05321426
0003c0 0d 26 25 be 38 5c e6 3d 6f 52 87 be 1a a6 ab bd
       -0.16127796 0.11248058 -0.2643008 -0.08381291
0003d0 1a 66 85 3e 9b f6 19 be f1 9b da bd c6 2b f2 3d
       0.2605446 -0.15035479 -0.10674275 0.11824755
0003e0 2b be 27 3d f6 2b ef 3d 89 70 1b 3e 63 71 a6 3d
       0.040952843 0.11678307 0.15179648 0.081270956
0003f0 e2 26 65 be 4b 8f 0b bd 0c f1 3a be 05 ae 4f bd
       -0.22378114 -0.0340722 -0.18256015 -0.050703067

map_L2.bias f4 [16]
000000 70 a8 58 3d 52 69 a7 bd a6 51 b0 bd a6 3b 73 bd
       0.05289501 -0.08174385 -0.08609323 -0.059383057
000010 9c d4 cf bd 8a da 0b 3d 14 3f 89 3b ed dd 9e bc
       -0.10147974 0.034143962 0.0041884277 -0.019392932
000020 3b ef cf bc 48 bc 2b bd 13 55 46 bb e8 04 6a bd
       -0.025382629 -0.041927606 -0.003026311 -0.057133585
000030 b0 82 55 bd 65 5a 59 bd 33 4f 73 3d 1c 75 a3 bd
       -0.052126586 -0.053064723 0.059401702 -0.07981321

map_L3.weight f4 [4, 16]
000000 71 7c a5 3e 0b bd 30 bf ed b0 25 be 15 c3 0e bf
       0.32321504 -0.69038457 -0.16180773 -0.5576642
000010 00 36 eb be f6 fc c9 3e f0 16 f9 be 37 96 d4 3d
       -0.45939636 0.39450806 -0.48650312 0.10380214
000020 c4 0f 80 3e 54 63 10 bf 24 3e 18 bf 2b 22 4e 3f
       0.25012028 -0.5640156 -0.5946982 0.80520886
000030 82 0f fd be fd db 9a be 3a f7 07 bd 91 14 91 bd
       -0.49425894 -0.30245963 -0.033194758 -0.07084001
000040 2e 6d cd be 3b e2 04 3e 9c ad fc bd 94 67 28 bf
       -0.4012236 0.12976925 -0.12337801 -0.6578305
000050 83 98 bc bb 52 8b 76 3e 39 df 6b be 12 8b 0b 3f
       -0.0057554855 0.24076584 -0.23034371 0.5450908
000060 67 10 60 bd 72 9f d3 3d 95 0e ee be 80 e0 14 3f
       -0.054703142 0.10333146 -0.464955 0.5815506
000070 f9 89 82 be 01 7f e6 be 58 de bb be 13 f1 d8 3e
       -0.2549589 -0.4501877 -0.36693072 0.42371425
000080 82 3d a8 be 5d 5a 25 be 82 89 95 be d1 a3 8f be
       -0.32859427 -0.16147752 -0.29206473 -0.2805467
000090 bc e4 3f bd 0f dc 61 3e 07 a9 14 3f 7e 9d 23 3e
       -0.046848997 0.22056602 0.58070415 0.15978047
0000a0 a7 1d d0 3e 41 82 ce 3e 75 95 f3 3e 0e 4c 22 bf
       0.40647623 0.4033375 0.47574964 -0.633973
0000b0 ef 94 8a bd 29 88 50 be a8 3f 11 bf 54 29 3e be
       -0.06766688 -0.20364441 -0.56737757 -0.18570453
0000c0 f5 4d de bd 28 2b 71 be df d6 d3 be 00 8b 28 be
       -0.10854713 -0.23551619 -0.4137487 -0.16459274
0000d0 fd 99 00 be 94 e7 ef 3d a7 4b 8f 3d c2 00 99 be
       -0.12558742 0.11714092 0.069968514 -0.2988339
0000e0 1c ca 64 3e ed d2 06 3f 5c 01 b8 bd 21 a5 2c 3f
       0.22342724 0.526656 -0.08984634 0.67439467
0000f0 bd 38 c8 3e 38 d1 39 3e c7 82 c8 3e c9 a4 38 3f
       0.39105788 0.18146217 0.39162275 0.7212644

map_L3.bias f4 [4]
000000 99 cf 71 3d cc 73 59 be de c2 9e bd 52 bf 7f 3d
       0.05903587 -0.21235579 -0.07752012 0.062438317

map_L4.weight f4 [1, 4]
000000 69 6b 99 bf 45 c9 a4 bf b3 9d 7f 3d b2 dc 50 bf
       -1.1985904 -1.2873923 0.062406253 -0.81586754
