model_AAE_128/ep_100_decoder_model.pth (torch_old, 708349 bytes, 10 tensors)

map_L1.weight f4 [4, 2]
1.2151891 0.70161474 -0.38531232 0.5344818 0.07197214 -1.4410491 -0.7320783 1.283802
00000000: 518b 9b3f 069d 333f a847 c5be cdd3 083f
00000010: 2166 933d 4c74 b8bf 7c69 3bbf a053 a43f

map_L1.bias f4 [4]
-0.41331306 0.016306367 0.25384426 0.084450744
00000000: c59d d3be ee94 853c e0f7 813e 83f4 ac3d

map_L2.weight f4 [16, 4]
-0.41624987 -0.25872374 1.462332 -1.1110307 0.02016118 0.25751203 -0.58327127 0.71353275
-0.14629011 -0.28948116 0.95843196 -0.10018948 -0.4846317 0.37788245 -1.4058653 1.1182456
0.64800733 0.52481484 -0.25204298 0.07039193 0.802587 0.034341224 0.77416694 -1.0889574
-0.086720705 -0.14541785 0.52507246 -0.26337272 -0.104668416 0.32614836 -0.16744953 0.55099225
-0.56882703 0.2768738 0.102363184 0.2532071 -0.3899465 0.47905007 -0.8465742 1.1584319
-0.4354892 -0.038272627 1.8036076 -0.88049144 0.38666576 -0.01812865 0.5869084 -1.333768
1.0216986 -0.2605477 -0.10486202 -0.16683628 0.48581442 0.67292625 0.25391406 -0.75000954
0.6453705 0.69313437 0.4360988 -0.8732391 0.0039010344 -0.09596583 -0.958481 0.35700092
00000000: b41e d5be 7077 84be b22d bb3f 4136 8ebf
00000010: 0f29 a53c 9ed8 833e 4451 15bf 15aa 363f
00000020: 13cd 15be e036 94be cc5b 753f 2430 cdbd
00000030: a521 f8be cf79 c13e 65f3 b3bf ac22 8f3f
00000040: cfe3 253f 445a 063f c70b 81be a529 903d
00000050: 5776 4d3f 62a9 0c3d ce2f 463f f562 8bbf
00000060: a09a b1bd 6be8 14be 266b 063f cad8 86be
00000070: 655c d6bd ebfc a63e e477 2bbe d40d 0d3f
00000080: a69e 11bf 67c2 8d3e caa3 d13d 5ca4 813e
00000090: 11a7 c7be 0d46 f53e 16b9 58bf 7f47 943f
000000a0: 71f8 debe c2c3 1cbd 9ddc e63f e367 61bf
000000b0: 0ef9 c53e 8982 94bc a13f 163f e9b8 aabf
000000c0: 05c7 823f 8266 85be e6c1 d6bd 21d7 2abe
000000d0: abbc f83e e544 2c3f 0601 823e a000 40bf
000000e0: 0037 253f 4171 313f 5848 df3e 998c 5fbf
000000f0: 7fa8 7f3b bc89 c4bd 035f 75bf d3c8 b63e

map_L2.bias f4 [16]
0.19147189 -0.06828688 0.7045196 -0.022083003 -0.35315153 -0.39981034 0.5759274 -0.04672975
0.5914452 -0.025700498 0.15858348 0.018704472 -0.6143195 0.41240585 0.5346905 -0.0049362835
00000000: 3511 443e fed9 8bbd 665b 343f 6ae7 b4bc
00000010: 47d0 b4be f1b3 ccbe fa6f 133f b267 3fbd
00000020: f468 173f da89 d2bc b563 223e 1f3a 993c
00000030: 0b44 1dbf dc26 d33e 7ae1 083f 8cc0 a1bb

map_L3.weight f4 [64, 16]
0.7541287 0.026896155 0.26078907 -0.26003528 0.5794833 0.08984696 -0.17015994 0.4451804
-0.24336196 -0.024120908 1.0966519 -0.10066304 0.351472 -0.117472306 -0.06234172 -0.07194279
-0.08397357 -0.124555 -0.06476091 0.11047148 -0.07861254 -0.38132307 0.3318427 0.13049157
-0.585183 -0.68695223 -0.29463676 -0.44990152 -0.512496 0.099872746 0.1470103 0.04325829
-0.3288402 0.34443885 -0.12239497 0.6966301 0.058717884 -0.17514001 -0.15898341 0.4208283
0.28385228 0.56450385 -0.3911193 0.020079471 -0.22642964 -0.28697696 -0.20940647 0.24391447
0.16055296 0.20052552 -0.1420804 0.04377049 -0.3127554 -0.82690847 -0.08895615 -0.027085263
-0.6178397 -0.25038365 -0.14347395 -0.20079836 -0.33482385 0.19963826 0.23150608 -0.17323026
0.07534595 0.34146264 -0.17125705 0.018710515 0.34446278 0.7983018 0.13001068 0.39067963
-0.07855866 0.4608301 -0.18757884 1.0168431 -0.33043787 -0.18013287 -0.0043579955 0.11647693
-0.510921 0.54396933 -0.7542686 0.084950976 0.59192586 0.59115314 -0.49465734 0.8407448
-0.38791713 0.47421145 -0.040384058 0.1837557 1.1855156 -0.36173016 -0.14747319 0.16618846
-0.93000764 0.050440088 0.02250736 0.5782 -0.27096182 -0.78033864 0.25949135 0.10868188
0.0044978624 0.52539086 -0.8413509 -0.8980981 -0.028511828 -0.4400712 -0.39828143 0.1180141
0.29882696 -0.07054078 -0.4497216 -0.7333983 0.3461095 2.2815912 -0.18026464 -0.2108136
-0.19995186 -0.15662287 0.4298346 1.5597758 1.309877 0.25264713 0.11779741 -0.45593253
0.33787894 0.2048203 -0.13667157 -0.28885436 0.13763914 -0.8429009 -0.23472247 0.6491331
-0.5356877 -0.33905846 0.43540433 -0.5613943 -0.30121157 0.3678705 0.05759684 0.05435459
0.31921253 -0.35938433 0.20003746 -0.07914537 -0.01883551 1.3770883 0.23455 -0.23851883
-0.23691165 0.24673966 0.54233795 1.2254412 0.14537653 0.1822476 0.05256486 -0.26029316
0.02744201 -0.5754099 0.43912485 -0.0998768 -0.4566028 -0.7847529 0.30493295 -0.37250227
0.26436198 -0.14777751 0.24050665 -0.7236321 -0.26252252 -0.22494589 -0.31734 0.043539204
-0.32738966 0.47159877 -0.31467822 0.14165857 0.33846048 0.25888708 -0.23004492 0.31939152
-0.37819657 0.25241977 -0.24234736 0.33010483 0.4944635 -0.31231084 -0.0477333 0.28171748
0.11484165 -0.279517 0.340558 0.11978959 0.33195567 1.3757244 0.19397123 -0.3639031
0.035360485 0.32992664 0.48966435 1.314907 0.25078765 0.09551885 -0.103202514 -0.34629872
-0.040458396 -0.016207702 -0.29874998 -0.17472453 -0.11680256 -0.90862143 -0.21709234 -0.310542
-0.355153 -0.50102913 -0.1645123 -0.63132685 -0.77438694 0.29593897 0.25616467 0.058582753
-0.8340634 0.19876611 0.032946516 0.8032473 0.01631919 -1.1916714 0.1598957 -0.13978349
0.4243741 0.6521439 -0.7522823 -0.43670318 0.27734274 -0.7379659 -0.2873003 0.20610411
0.5076193 0.2016332 -0.3413686 -0.03820478 0.18841684 -0.71263516 -0.40273649 0.31992644
-0.31919596 -0.32573938 0.40311065 -0.5103404 -0.51924443 0.34039184 0.42170602 -0.05060987
00000000: 940e 413f 5355 dc3c 2586 853e 5823 85be
00000010: 0459 143f af01 b83d 683e 2ebe afee e33e
00000020: e133 79be 3699 c5bc 175f 8c3f 6d28 cebd
00000030: 23f4 b33e 5295 f0bd 085a 7fbd be56 93bd
00000040: 56fa abbd b116 ffbd 5ea1 84bd df3e e23d
00000050: 9dff a0bd c73c c3be 49e7 a93e 959f 053e
00000060: 8ece 15bf 1adc 2fbf a1da 96be 7e59 e6be
00000070: f032 03bf 158a cc3d de89 163e 9b2f 313d
00000080: be5d a8be 4a5a b03e 37aa fabd 5a56 323f
00000090: 2a82 703d e757 33be 8ccc 22be cf76 d73e
000000a0: 1655 913e 5383 103f ca40 c8be b47d a43c
000000b0: 2cdd 67be a5ee 92be a66e 56be b7c4 793e
000000c0: ff67 243e 9056 4d3e 867d 11be af48 333d
000000d0: 7a21 a0be 46b0 53bf a42e b6bd eae1 ddbc
000000e0: be2a 1ebf 4932 80be d6ea 12be 169e 4dbe
000000f0: 086e abbe f96d 4c3e ee0f 6d3e 4663 31be
00000100: fa4e 9a3d 31d4 ae3e 025e 2fbe cb46 993c
00000110: 6d5d b03e 825d 4c3f 8521 053e 2907 c83e
00000120: 5de3 a0bd ecf1 eb3e ab14 40be ea27 823f
00000130: 272f a9be c074 38be 84cd 8ebb 758b ee3d
00000140: b8cb 02bf 9341 0b3f bf17 41bf c7fa ad3d
00000150: 7488 173f d055 173f ba43 fdbe 0d3b 573f
00000160: 139d c6be d8cb f23e c169 25bd 742a 3c3e
00000170: fabe 973f b234 b9be 3603 17be 4f2d 2a3e
00000180: fb14 6ebf 449a 4e3d 5b61 b83c ea04 143f
00000190: 82bb 8abe 46c4 47bf 0ddc 843e 9b94 de3d
000001a0: ce62 933b 0480 063f c662 57bf c2e9 65bf
000001b0: a391 e9bc 0351 e1be 8beb cbbe 60b1 f13d
000001c0: d9ff 983e af77 90bd e941 e6be febf 3bbf
000001d0: 4435 b13e 9705 1240 4b97 38be 85df 57be
000001e0: 2ec0 4cbe bf61 20be 4813 dc3e bca6 c73f
000001f0: 0daa a73f f75a 813e c53f f13d fd6f e9be
00000200: 78fe ac3e 6abc 513e a2f3 0bbe b8e4 93be
00000210: 46f1 0c3e 5ac8 57bf 165b 70be 962d 263f
00000220: d422 09bf 1299 adbe 51ed de3e 89b7 0fbf
00000230: 6738 9abe 8659 bc3e aaea 6b3d eba2 5e3d
00000240: d36f a33e 3901 b8be 9fd6 4c3e f816 a2bd
00000250: ed4c 9abc 6e44 b03f e02d 703e 483e 74be
00000260: f898 72be 52a9 7c3e a9d6 0a3f 42db 9c3f
00000270: 96dd 143e 1d9f 3a3e 404e 573d 2545 85be
00000280: 11ce e03c 104e 13bf f9d4 e03e 358c ccbd
00000290: d8c7 e9be 91e5 48bf 2c20 9c3e 9eb8 bebe
000002a0: 745a 873e fd52 17be 6047 763e f43f 39bf
000002b0: 5a69 86be 3758 66be 637a a2be 2a56 323d
000002c0: 9e9f a7be 6575 f13e 811d a1be f20e 113e
000002d0: b14a ad3e d98c 843e e590 6bbe 4987 a33e
000002e0: fba2 c1be 2a3d 813e e829 78be 8003 a93e
000002f0: 522a fd3e 35e7 9fbe fe83 43bd 463d 903e
00000300: 1932 eb3d da1c 8fbe 9e5d ae3e 3f54 f53d
00000310: 18f6 a93e bd17 b03f 65a0 463e 8251 babe
00000320: 28d6 103d 25ec a83e 49b5 fa3e df4e a83f
00000330: 3d67 803e 639f c33d d75b d3bd 114e b1be
00000340: b4b7 25bd 04c6 84bc c2f5 98be fdea 32be
00000350: 2e36 efbd 6a9b 68bf 744d 5ebe 5cff 9ebe
00000360: 9dd6 b5be 7243 00bf ea75 28be a39e 21bf
00000370: 393e 46bf 5085 973e 0428 833e 78f4 6f3d
00000380: 2e85 55bf 5889 4b3e edf2 063d 9da1 4d3f
00000390: d2af 853c b088 98bf b3bb 233e 6723 0fbe
000003a0: 9047 d93e e7f2 263f 9395 40bf 8f97 dfbe
000003b0: deff 8d3e 55eb 3cbf 0619 93be f50c 533e
000003c0: 57f3 013f ef78 4e3e ddc7 aebe 9e7c 1cbd
000003d0: 58f0 403e 426f 36bf 7a33 cebe 66cd a33e
000003e0: a76d a3be 50c7 a6be 8564 ce3e aba5 02bf
000003f0: 34ed 04bf d747 ae3e dae9 d73e 4c4c 4fbd

map_L3.bias f4 [64]
0.10350936 0.22992048 0.10480142 0.059910677 -0.21029472 -0.3791027 0.10290332 -0.39920136
0.16689613 -0.07161406 0.2964197 -0.4542533 -0.07367412 0.30366343 -0.17577398 0.1510374
-0.16604473 0.19757432 0.02876682 -0.29361328 -0.04295634 0.23988429 -0.54440284 -0.23811552
-0.42313337 -0.83405715 -0.7626685 -0.096531086 -0.89128643 -0.6693112 -0.17963918 0.33645472
0.044289265 0.3334749 -0.34334704 -0.07021632 0.26404783 0.2993565 -0.18108745 -0.22180176
-0.18881784 0.030275533 -0.39123973 0.4189768 -0.5000768 0.35371894 -0.33450922 -0.40614855
0.12991871 0.2933702 0.08127251 -0.68457156 0.52688926 0.3367699 -0.025241718 -0.20888741
0.06860817 0.16084689 0.10392051 -0.54135066 -0.41413176 -0.3967248 -0.11052361 0.5358739
00000000: b7fc d33d 4670 6b3e 20a2 d63d e664 753d
00000010: 8057 57be c019 c2be fabe d23d 1f64 ccbe
00000020: d2e6 2a3e 64aa 92bd 53c4 973e e393 e8be
00000030: 75e2 96bd c679 9b3e 18fe 33be 8ca9 1a3e
00000040: a107 2abe ec50 4a3e 65a8 eb3c 7b54 96be
00000050: fdf2 2fbd 3aa4 753e fc5d 0bbf 8ed4 73be
00000060: f0a4 d8be c584 55bf 3e3e 43bf 17b2 c5bd
00000070: 592b 64bf fb57 2bbf 55f3 37be cb43 ac3e
00000080: a968 353d 39bd aa3e 2fcb afbe 93cd 8fbd
00000090: 4731 873e 4145 993e fd6e 39be 0020 63be
000000a0: 7759 41be 6504 f83c 9350 c8be 2184 d63e
000000b0: 0805 00bf a61a b53e cb44 abbe b4f2 cfbe
000000c0: 6909 053e 9e34 963e 3472 a63d 1540 2fbf
000000d0: 37e2 063f 1b6d ac3e b8c7 cebc 95e6 55be
000000e0: 7182 8c3d 0cb5 243e 47d4 d43d f595 0abf
000000f0: 1409 d4be 831f cbbe 345a e2bd 082f 093f

map_L4.weight f4 [256, 64]
0.4652737 1.1046467 0.25535998 0.21342075 -0.54126143 0.024019103 -0.09960276 0.4650561
-0.6643738 0.6280689 -0.10230974 0.9086778 0.7787579 -0.052644808 0.3447135 -0.3977762
0.52531 1.4338087 -0.6270146 -0.6146583 0.5753141 0.58652705 -0.15127437 -0.8503554
0.22544296 3.6789691 0.6732231 0.19822317 -0.49669212 -0.018038942 -0.70562816 -0.45125833
0.2560579 -0.31574357 0.37724534 -0.038650647 -0.80844337 0.031303763 -0.8068899 1.099414
1.0729288 0.07179971 -0.0024900918 -0.03003758 0.57270527 -0.60448116 0.2972441 1.0957348
-0.048332386 -0.49394 0.2001526 0.74106705 -0.35392988 -0.1804545 -0.10206273 -0.012228663
0.60696346 0.014375557 -0.04405418 -0.0077530383 0.8614343 0.3005415 0.111074686 -0.36469388
-0.3367897 -0.00922316 -0.24169649 -0.50807035 0.20483193 -0.23975067 -0.98885727 0.3812183
0.025744569 -0.5314842 -0.25458783 0.067611806 -0.71604186 -0.14611436 0.48003975 -0.028069666
0.50626504 -0.06783825 1.6994196 0.14456186 -0.29583377 0.18697286 0.08412453 0.09736477
-0.034161497 0.17660531 -0.8254116 0.4755227 0.17989242 -0.07760367 0.15608901 -0.07403799
-0.44695467 -0.17820524 -0.16577546 0.28905842 0.40560287 -0.07668886 0.13671379 -0.019904485
0.9833206 0.05525457 0.20758112 -0.017005295 0.18084203 0.13649254 -0.13632917 0.34662923
-0.43297082 0.024722388 -0.4447682 0.38212824 0.01188832 -0.02877722 -0.63169223 0.20688412
-1.2174675 1.3295878 0.20583645 -0.64760834 -0.29900727 0.14143711 0.05857318 -0.084039435
0.019222321 -0.51969695 0.012358431 -0.70174575 0.2283956 -0.0044875243 -0.22549188 0.01356781
0.014677406 -0.22222988 -0.4635751 0.14074059 -0.26212013 -0.09551228 0.0053516524 0.023353245
-0.088510774 0.066326335 -0.4755067 0.2240129 0.10784802 -0.08483931 0.050977003 -0.18860275
0.30056787 0.39672828 -0.21147461 -0.15094654 -0.46455732 -0.121643506 -0.1063376 -0.1442164
-0.052251782 -0.0820482 0.19659491 0.03646123 -0.26125067 -0.016270975 0.50713015 -0.43176368
0.01382624 0.19786792 -0.064855754 -0.15356177 0.039552078 0.11675702 0.2603191 -0.17882122
0.3372162 0.1490227 0.1596757 -0.74300975 -0.19092421 0.059939526 -0.015136909 -0.3636106
0.071072064 0.0068898746 -0.55406463 -0.2302918 0.13473928 0.42507505 -0.37198478 -0.026413238
-0.03610501 0.19985706 -0.1595268 0.22473304 -0.14419408 0.1729959 0.27572337 0.044351403
0.059687156 -0.09826387 -0.012278837 0.15056074 0.15653692 -0.09437771 -0.20337161 -0.077693574
-0.102423936 0.33001387 -0.07689364 0.2316962 -0.13053913 0.16962606 0.042320292 -0.40700433
-0.15171172 0.20797613 0.02531458 -0.09861657 -0.3398448 -0.014355732 -0.47570682 -0.14575212
-0.12429494 0.015951212 -0.1804021 -0.22302704 -0.11248367 0.04521023 0.4004151 -0.030074682
0.13791722 0.10214027 -0.02136159 0.11043453 -0.18206419 -0.091473624 -0.15624619 -0.05429061
0.001736455 -0.18521714 -0.04198719 -0.12003902 -0.07222766 0.25825238 0.110199586 -0.3203111
0.2685322 0.090334885 -0.15910982 0.130957 -0.012420112 0.16014287 -0.25164625 -0.13475554
00000000: 5b38 ee3e 1065 8d3f 8bbe 823e f88a 5a3e
00000010: 1c90 0abf b6c3 c43c 88fc cbbd d51b ee3e
00000020: 6714 2abf 20c9 203f c587 d1bd 1c9f 683f
00000030: ae5c 473f 15a2 57bd 4a7e b03e 52a9 cbbe
00000040: b77a 063f 0b87 b73f 0784 20bf 3f5a 1dbf
00000050: c947 133f a326 163f abe7 1abe e4b0 59bf
00000060: 85da 663e 3b74 6b40 5958 2c3f 04fb 4a3e
00000070: 6e4e febe 67c6 93bc 0ca4 34bf 550b e7be
00000080: 051a 833e 24a9 a1be 4d26 c13e 2450 1ebd
00000090: 25f6 4ebf 6038 003d 5690 4ebf 99b9 8c3f
000000a0: bb55 893f ba0b 933d cf30 23bb 5f11 f6bc
000000b0: d09c 123f 47bf 1abf 6130 983e 0a41 8c3f
000000c0: 2ef8 45bd b4e5 fcbe cef4 4c3e 92b6 3d3f
000000d0: 4c36 b5be 10c9 38be 4406 d1bd bb5a 48bc
000000e0: f561 1b3f 7587 6b3c 2872 34bd 330d febb
000000f0: f586 5c3f 93e0 993e 207b e33d 28b9 babe
00000100: b36f acbe bd1c 17bc 497f 77be e610 02bf
00000110: 76bf 513e 3381 75be c025 7dbf 0c2f c33e
00000120: 46e6 d23c 590f 08bf 5659 82be 0f78 8a3d
00000130: 854e 37bf 019f 15be c5c7 f53e 5bf2 e5bc
00000140: 969a 013f c8ee 8abd 9586 d93f 0608 143e
00000150: 8677 97be d075 3f3e 7b49 ac3d 2e67 c73d
00000160: edec 0bbd 06d8 343e 2d4e 53bf b677 f33e
00000170: b835 383e acee 9ebd ccd5 1f3e 3ba1 97bd
00000180: 3ed7 e4be 6f7b 36be 0bc1 29be 77ff 933e
00000190: 2eab cf3e 0d0f 9dbd b3fe 0b3e bb0e a3bc
000001a0: e6ba 7b3f 9e52 623d 2590 543e b04e 8bbc
000001b0: a72e 393e b3c4 0b3e e099 0bbe 6379 b13e
000001c0: 5aae ddbe 9b86 ca3c a8b8 e3be 50a6 c33e
000001d0: 3ac7 423c 34be ebbc 95b6 21bf 6ed9 533e
000001e0: fad5 9bbf ef2f aa3f cac6 523e a9c9 25bf
000001f0: 7b17 99be e4d4 103e 6eea 6f3d de1c acbd
00000200: 2178 9d3c dc0a 05bf 047b 4a3c 9ca5 33bf
00000210: 89e0 693e 150c 93bb 58e7 66be 854b 5e3c
00000220: 8179 703c 3b90 63be b759 edbe 4d1e 103e
00000230: 9c34 86be f19b c3bd ea5c af3b 4e4f bf3c
00000240: 2345 b5bd 1ad6 873d 9d75 f3be a363 653e
00000250: 6cdf dc3d 3bc0 adbd 43cd 503d 1421 41be
00000260: 08e4 993e f81f cb3e cd8c 58be bb91 1abe
00000270: 75da edbe 3b20 f9bd 87c7 d9bd 77ad 13be
00000280: f705 56bd e308 a8bd 2d50 493e 5f58 153d
00000290: a6c2 85be b54a 85bc 48d3 013f 2110 ddbe
000002a0: 7487 623c e39d 4a3e 18d3 84bd 4c3f 1dbe
000002b0: 5c01 223d 4e1e ef3d 8c48 853e e91c 37be
000002c0: 9aa7 ac3e 6899 183e 0782 233e e335 3ebf
000002d0: a381 43be 2683 753d cc00 78bc 2b2b babe
000002e0: 3b8e 913d 75c4 e13b 2ed7 0dbf 9dd1 6bbe
000002f0: 18f9 093e 70a3 d93e ca74 bebe 9360 d8bc
00000300: d9e2 13bd 54a7 4c3e fe5a 23be 6b20 663e
00000310: 9da7 13be d625 313e 9d2b 8d3e d1a9 353d
00000320: 857a 743d 913e c9bd 2d2d 49bc 982c 1a3e
00000330: 374b 203e 1a49 c1bd a640 50be cf1d 9fbd
00000340: a4c3 d1bd 94f7 a83e 6a7a 9dbd c541 6d3e
00000350: 0dac 05be 74b2 2d3e 0b58 2d3d df62 d0be
00000360: 515a 1bbe b2f7 543e 8660 cf3c 7cf7 c9bd
00000370: 2300 aebe 4e34 6bbc d88f f3be 0b40 15be
00000380: 588e febd 1eac 823c 54bb 38be 3361 64be
00000390: d75d e6bd 5d2e 393d 3503 cd3e 2e5f f6bc
000003a0: 2c3a 0d3e eb2e d13d 80fe aebc 802b e23d
000003b0: 096f 3abe 8656 bbbd 00ff 1fbe d55f 5ebd
000003c0: c399 e33a 90a9 3dbe c2fa 2bbd 05d7 f5bd
000003d0: 18ec 93bd a839 843e 52b0 e13d d1ff a3be
000003e0: 0d7d 893e 7f01 b93d afed 22be 9819 063e
000003f0: ba7d 4bbc 7efc 233e c7d7 80be 5bfd 09be

map_L4.bias f4 [256]
-0.5367323 0.06733802 0.0032776936 -0.3599021 -0.19285591 0.27383974 0.1453772 0.97688115
0.020529483 0.4412041 -0.10008043 -0.25452805 -0.42412427 -0.09102721 -0.48344243 -0.26032883
-0.09194406 0.017056083 -0.3130829 0.017413028 -0.2713183 -0.26417112 -0.2605487 -0.1724782
0.08577569 0.105954394 -0.10948112 0.16296367 0.035227824 0.5373364 -0.119250596 0.34524027
-0.20102043 -0.28975555 -0.51479167 -0.20622262 0.13031971 0.014922292 0.4642066 -0.0693086
-0.13035126 -0.05445756 -0.08091184 -0.3142164 -0.147097 -0.7997861 0.04450471 0.019293379
-0.42779413 0.14226048 -0.26777646 -0.3292551 -0.55919874 0.12274037 -0.04610679 -0.57894063
-0.028754344 0.34746838 -0.19647451 -0.04089706 -0.0326083 -0.13815854 -0.064064704 -0.52692914
-0.164465 0.21524797 -0.19341679 -0.6374009 -0.5008542 -0.1268568 -0.05778078 -0.2369722
-0.073271915 -0.074585386 -0.32058248 -0.22743666 0.092719115 0.10099188 0.056242242 0.3171931
0.017323455 0.07627822 -0.19877683 -0.29342023 -0.17964543 0.0031968718 0.7064377 -0.17478277
-0.12502392 -0.47604364 -0.4676209 -0.4774387 -0.07561625 0.4673105 -0.085928924 0.6313387
-0.35407934 0.013830715 0.025503488 -0.21795987 -0.37916043 0.7430558 0.003916901 -0.49410045
-0.34246552 0.031774722 -0.35063803 -0.13913037 -0.21342069 0.1792851 -0.45575482 0.20017393
0.28591168 -0.26101378 -0.5603624 -0.0958017 -0.4276528 -0.07401942 -0.72148156 -0.47049636
-0.3137809 0.36048713 -0.10370288 -0.14654194 -0.8705649 0.3908854 -0.056158245 -0.2190923
0.14047557 -0.07875517 -0.1670625 -0.78926563 -0.01705161 -0.25007296 0.0082546305 0.01742813
0.6004325 -0.17461024 -0.067631245 -0.1551764 0.034920476 0.08451663 0.08523676 -0.6884134
0.012671273 -0.036107946 -0.26066265 -0.14884618 0.28768277 -0.19954696 0.19896758 -0.43127912
-0.37157145 0.30204734 0.21156956 -0.53256154 0.19246677 -0.049647555 0.0016039705 -0.24705707
-0.109535 -0.2921219 -0.11556314 -0.24351138 -0.09885327 -0.13658708 0.004290382 0.3018286
0.06523049 -0.25947115 -0.08586265 0.33598322 -0.06939981 -0.22469746 -0.056191154 0.44395104
0.2511466 0.61012423 0.24696614 -0.008899583 -0.46563563 0.09004001 -0.51846504 -0.2799332
-0.4723337 0.1403823 -0.124240085 -0.34591267 -0.37640062 -0.11466198 0.2794337 -0.20144871
0.1956176 0.248036 0.35041478 -0.13301338 -0.18307957 -0.08798386 -0.057842094 -0.116632685
0.49116704 -0.055854335 -0.22637805 -0.62197787 0.058742225 -0.24570072 -0.05447399 -0.4593156
-0.21856144 0.3011573 0.07007855 -0.22251794 -0.02997852 -0.059197105 -0.022544324 0.17609143
0.14524081 -0.36139014 -0.31234524 0.22826381 -0.14329378 0.026585052 -0.2973605 -0.006205692
0.03438332 0.100520656 -0.10743161 -0.17133136 0.15299992 -0.35104376 0.18990706 -0.2057459
0.22320876 0.5487166 -0.09602388 -0.19106328 0.3511859 -0.20167238 0.54208946 -0.17847216
0.62335104 0.33139852 -0.21140788 -0.23758905 0.3861986 -0.47737455 -0.1541266 0.10701529
-0.19039543 -0.11376807 0.06691117 0.25469083 -0.07456373 -0.54824144 -0.31229556 -0.3334294
00000000: 4a67 09bf 84e8 893d 93ce 563b 1745 b8be
00000010: 057c 45be b934 8c3e c3dd 143e e214 7a3f
00000020: 722d a83c 81e5 e13e f8f6 ccbd 8051 82be
00000030: d126 d9be 796c babd c485 f7be d249 85be
00000040: 2b4d bcbd 33b9 8b3c 674c a0be c4a5 8e3c
00000050: 3bea 8abe 7041 87be a466 85be 209e 30be
00000060: 2aab af3d 9efe d83d a337 e0bd f3df 263e
00000070: 0d4b 103d e18e 093f a839 f4bd 55c3 b03e
00000080: 4dd8 4dbe d75a 94be 63c9 03bf 062c 53be
00000090: 8872 053e a17c 743c 7dac ed3e abf1 8dbd
000000a0: cd7a 05be e40e 5fbd 1bb5 a5bd f9e0 a0be
000000b0: 99a0 16be c8be 4cbf 924a 363d 260d 9e3c
000000c0: d507 dbbe bbac 113e ff19 89be 2094 a8be
000000d0: a627 0fbf 4e5f fb3d 79da 3cbd 7435 14bf
000000e0: 3b8e ebbc 60e7 b13e 9d30 49be ad83 27bd
000000f0: 4890 05bd 6f79 0dbe 5b34 83bd d4e4 06bf
00000100: 8369 28be f769 5c3e 0d0f 46be b52c 23bf
00000110: fb37 00bf c0e6 01be 8aab 6cbd d7a8 72be
00000120: 960f 96bd 39c0 98bd 6323 a4be 28e5 68be
00000130: 85e3 bd3d d5d4 ce3d 445e 663d 2267 a23e
00000140: ebe9 8d3c c137 9c3d 278c 4bbe 2d3b 96be
00000150: f9f4 37be 9c82 513b 1ad9 343f 41fa 32be
00000160: 4506 00be febb f3be 026c efbe d872 f4be
00000170: b1dc 9abd 5243 ef3e 81fb afbd 6a9f 213f
00000180: e349 b5be 399a 623c b1ec d03c df30 5fbe
00000190: 5121 c2be e838 3e3f 5959 803b bcfa fcbe
000001a0: a457 afbe 3626 023d d486 b3be 3178 0ebe
000001b0: f48a 5abe 8396 373e b258 e9be 65fa 4c3e
000001c0: 0463 923e 99a3 85be e973 0fbf af33 c4bd
000001d0: 4ff5 dabe 7e97 97bd 04b3 38bf e6e4 f0be
000001e0: e4a7 a0be c591 b83e 2d62 d4bd 170f 16be
000001f0: 57dd 5ebf 2222 c83e 3006 66bd bb59 60be
00000200: d4d8 0f3e 644a a1bd 6f12 2bbe 500d 4abf
00000210: d1af 8bbc 9009 80be 6e3e 073c 70c5 8e3c
00000220: f2b5 193f 07cd 32be 4082 8abd 90e6 1ebe
00000230: c608 0f3d 0e17 ad3d 9c90 ae3d dc3b 30bf
00000240: 2c9b 4f3c ede5 13bd 9375 85be 226b 18be
00000250: 284b 933e 0a56 4cbe 28be 4b3e 9ed0 dcbe
00000260: 9d3e bebe f3a5 9a3e b1a5 583e f455 08bf
00000270: 0216 453e 3c5b 4bbd 523c d23a 87fc 7cbe
00000280: e353 e0bd 0091 95be 5eac ecbd 0c5b 79be
00000290: 9573 cabd 7cdd 0bbe 5596 8c3b 4789 9a3e
000002a0: 9097 853d 67d9 84be c2d8 afbd fe05 ac3e
000002b0: 7d21 8ebd 1717 66be b228 66bd 8d4d e33e
000002c0: 4a96 803e 1a31 1c3f b1e4 7c3e 8ecf 11bc
000002d0: cb67 eebe e666 b83d 20ba 04bf 6853 8fbe
000002e0: b9d5 f1be 61c0 0f3e 9671 febd 771b b1be
000002f0: 95b7 c0be e6d3 eabd ef11 8f3e 9248 4ebe
00000300: fb4f 483e 26fd 7d3e 9169 b33e a934 08be
00000310: 3679 3bbe e230 b4bd d5eb 6cbd 1edd eebd
00000320: 3f7a fb3e 84c7 64bd a6cf 67be f139 1fbf
00000330: b09b 703d f898 7bbe 1e20 5fbd 6a2b ebbe
00000340: 92ce 5fbe 4a31 9a3e 5885 8f3d bedb 63be
00000350: 8395 f5bc aa78 72bd e0ae b8bc 5051 343e
00000360: 02ba 143e 2108 b9be b7eb 9fbe fdbd 693e
00000370: 9bbb 12be e5c8 d93c a33f 98be 1e59 cbbb
00000380: 86d5 0c3d c6dd cd3d 1b05 dcbd 7d71 2fbe
00000390: 03ac 1c3e 02bc b3be ff76 423e 0eaf 52be
000003a0: d690 643e b178 0c3f 2ba8 c4bd 18a6 43be
000003b0: a3ce b33e 3483 4ebe 60c6 0a3f 68c1 36be
000003c0: ef93 1f3f 11ad a93e 4f7b 58be 8b4a 73be
000003d0: d3bb c53e 706a f4be 5dd3 1dbe d52a db3d
000003e0: 05f7 42be 3cff e8bd b908 893d d666 823e
000003f0: deb4 98bd 8d59 0cbf 34e5 9fbe 42b7 aabe

map_L5.weight f4 [618, 256]
0.43485767 -0.07891106 -0.1007232 -0.034329496 0.049794786 -0.2280932 -0.2678347 -0.15309933
0.098118834 -0.39647087 0.053816743 -0.38315085 -0.18911822 -0.24907023 0.0088583855 0.61688536
-0.07372136 -0.09696144 0.011675929 -0.2303388 -0.25199193 0.19738345 0.15380813 -0.012246511
-0.23235776 -0.37862507 0.029806098 0.003981002 -0.324912 -1.0486152 -0.15079516 -0.44398847
-0.15524033 0.33845547 -0.23153333 -0.0510771 -0.5266182 -0.85185766 0.009050165 0.06759219
-0.14475033 -0.21675295 -0.12733838 -0.14374001 -0.15043607 -0.040589686 -0.19391814 0.06558474
0.14372033 -0.18505248 0.25406557 0.26048264 0.049756337 0.042178117 0.16063718 -0.06890218
-0.029767668 0.005442551 0.06772413 0.037843965 -0.032704677 -0.14565806 -0.107824825 0.3518609
-0.33656672 0.021242382 -0.106963605 -0.13663352 -0.2228991 0.03452558 -0.91333985 -0.26572037
-0.28727645 -0.07690638 -0.1458648 -0.052517455 0.029327141 0.26762328 -0.23408426 -0.2843616
-0.2388811 -0.2824708 0.098915294 -0.180001 -0.22918558 -0.47695628 -1.3676119 -0.11659736
-0.12719592 -0.16079794 -0.36768788 0.2908351 -0.13666233 -0.3901746 -0.44281155 0.057125565
0.25235122 -0.18152082 -0.44308162 -0.22311847 -0.16580309 -0.72119683 -0.17051318 -0.071175285
-0.29720828 -0.44907716 0.2724955 0.17306474 -0.23822331 -0.602807 -0.06424224 0.016530508
0.04962704 -0.0237849 -0.30340084 -0.13343869 -0.22149037 -0.21024202 0.3560933 -0.0019417679
0.050290003 0.11904804 0.005859927 -0.105533764 -0.13488722 -0.26168913 -0.29691967 -0.1871053
-0.091315605 -0.1707766 -0.14059891 0.4812025 -0.4813919 -0.45816702 -0.2998786 -0.08291665
-0.5033592 0.099634364 -0.16183387 -0.1257307 -0.050577495 -0.1368699 0.1001824 -0.0093048
0.09613881 -0.38686463 -0.081577815 0.031850085 0.22810338 0.11522486 -0.046305165 -0.4352098
0.030198578 -0.1217444 -0.7708361 0.35366726 0.048062902 -0.52793354 -0.38238195 0.615174
-0.27404422 0.012466216 -0.072884604 -0.33539313 0.030504419 -0.0079792645 -0.11711306 -0.097108394
-0.10567469 -0.37609333 -0.3375303 0.11411555 -0.14292794 -0.14604145 -0.38094586 -0.54736525
-0.16601472 -0.27103707 0.07406116 -0.23399043 -0.73088807 -0.11850986 -0.1311107 -0.05520516
0.20144744 -0.094258115 -0.2712236 0.27972898 -0.23583995 -0.31616327 -0.052983336 -0.30396697
0.004159136 -0.16899957 -0.442657 -0.2091072 -0.08674223 0.046980295 -0.2681819 -0.3198028
0.026426911 -0.30385017 -0.11289634 0.007686278 -0.67958546 -0.11257855 0.247476 0.2318627
-0.24665484 0.034273524 -0.49665195 -0.19860192 -0.12353097 0.06674394 -0.17256673 0.048441347
-0.62661725 0.28160515 -0.26663175 0.050687175 -0.29588488 0.13316646 -0.03120986 -0.18161085
-0.15098733 -0.25425845 -0.22483242 -0.25218892 -0.06157391 -0.28576308 0.09070105 0.118101165
-0.059656348 0.110625446 0.32660457 0.30144742 -0.14650767 0.18318787 -0.046566077 -0.11638923
-1.2409813 -0.11272733 -0.22200842 -0.08538014 -0.062044498 -0.121447116 -0.6939509 -0.1480173
-0.13592836 0.17410684 -0.5348541 -0.23593996 -0.035399333 0.040474165 -0.26808447 -0.1026571
00000000: aaa5 de3e 1f9c a1bd f747 cebd 169d 0cbd
00000010: 9ef5 4b3d 4491 69be a121 89be 12c6 1cbe
00000020: 87f2 c83d 3bfe cabe f26e 5c3d 592c c4be
00000030: 35a8 41be 440c 7fbe c322 113c 33ec 1d3f
00000040: 39fb 96bd b893 c6bd 654c 3f3c efdd 6bbe
00000050: 1605 81be e31e 4a3e e17f 1d3e 97a5 48bc
00000060: 31ef 6dbe 25db c1be eb2b f43c 1173 823b
00000070: de5a a6be 0639 86bf 0c6a 1abe 7552 e3be
00000080: 52f7 1ebe 094a ad3e 1317 6dbe 3936 51bd
00000090: 73d0 06bf 5813 5abf 2547 143c c66d 8a3d
000000a0: 6e39 14be 7cf4 5dbe fe64 02be 9530 13be
000000b0: ea0b 1abe 5f41 26bd 7a92 46be 4b51 863d
000000c0: 6c2b 133e 667e 3dbe e214 823e fb5d 853e
000000d0: 4dcd 4b3d f6c2 2c3d 137e 243e 961c 8dbd
000000e0: 53db f3bc 6d57 b23b f3b2 8a3d 4602 1b3d
000000f0: 57f5 05bd 6327 15be 43d3 dcbd 1d27 b43e
00000100: 7952 acbe 8104 ae3c bc0f dbbd a8e9 0bbe
00000110: a93f 64be b26a 0d3d a4d0 69bf 800c 88be
00000120: e615 93be 1881 9dbd 955d 15be 8b1c 57bd
00000130: 793f f03c eb05 893e c9b3 6fbe d897 91be
00000140: 3f9d 74be 03a0 90be 1a94 ca3d 2f52 38be
00000150: a0af 6abe 9d33 f4be e80d afbf 99ca eebd
00000160: a63f 02be 37a8 24be 9641 bcbe 57e8 943e
00000170: 36f1 0bbe f7c4 c7be 32b8 e2be 7ffc 693d
00000180: 2e34 813e 98e0 39be 98db e2be 2b79 64be
00000190: 49c8 29be 5ba0 38bf 029b 2ebe 59c4 91bd
000001a0: af2b 98be 71ed e5be 8884 8b3e e237 313e
000001b0: d0f0 73be 8f51 1abf 6f91 83bd fd6a 873c
000001c0: b945 4b3d 8dd8 c2bc 5b57 9bbe 27a4 08be
000001d0: 5fce 62be af49 57be dc51 b63e eb82 feba
000001e0: e4fc 4d3d 75cf f33d a104 c03b 1622 d8bd
000001f0: e01f 0abe 1efc 85be db05 98be 8898 3fbe
00000200: ad03 bbbd 10e0 2ebe 29f9 0fbe 2d60 f63e
00000210: 0079 f6be de94 eabe b089 99be 34d0 a9bd
00000220: 26dc 00bf 1a0d cc3d c7b7 25be 8cbf 00be
00000230: 592a 4fbd a027 0cbe 6e2c cd3d 2973 18bc
00000240: 6de4 c43d 1f13 c6be 4512 a7bd 3c75 023d
00000250: ef93 693e 03fb eb3d 7caa 3dbd d2d3 debe
00000260: 0263 f73c 2155 f9bd 8455 45bf e013 b53e
00000270: 9bdd 443d a726 07bf 91c7 c3be 0b7c 1d3f
00000280: 864f 8cbe 1a3f 4c3c 8644 95bd a6b8 abbe
00000290: 67e4 f93c 76bb 02bc f9d8 efbd c4e0 c6bd
000002a0: f96b d8bd 4e8f c0be c5d0 acbe 6ab5 e93d
000002b0: b45b 12be e48b 15be 560b c3be 2120 0cbf
000002c0: c3ff 29be 5fc5 8abe 61ad 973d 309b 6fbe
000002d0: 7b1b 3bbf 4cb5 f2bd e241 06be ce1e 62bd
000002e0: 3d48 4e3e 660a c1bd d2dd 8abe a338 8f3e
000002f0: 0780 71be 27e0 a1be 0e05 59bd 8fa1 9bbe
00000300: 5d49 883b 390e 2dbe f0a3 e2be 3320 56be
00000310: e9a5 b1bd 696e 403d 234f 89be 31bd a3be
00000320: 407d d83c 4092 9bbe 3236 e7bd 2cdd fb3b
00000330: 50f9 2dbf 958f e6bd 596a 7d3e 6a6d 6d3e
00000340: 1693 7cbe 6562 0c3d 2a49 febe 4d5e 4bbe
00000350: cefd fcbd 0cb1 883d 55b5 30be 6f6a 463d
00000360: fd69 20bf 8d2e 903e f583 88be 5b9d 4f3d
00000370: 397e 97be ca5c 083e d2ab ffbc 32f8 39be
00000380: 6c9c 1abe 2a2e 82be 783a 66be e81e 81be
00000390: ed34 7cbd 8a4f 92be 79c1 b93d 06df f13d
000003a0: 375a 74bd 988f e23d b738 a73e 5157 9a3e
000003b0: 1b06 16be 9a95 3b3e 12bc 3ebd 7a5d eebd
000003c0: 7ad8 9ebf 96dd e6bd 2d56 63be c8db aebd
000003d0: 5f22 7ebd 44b9 f8bd c4a6 31bf d991 17be
000003e0: ce30 0bbe 1049 323e 33ec 08bf 3f9a 71be
000003f0: e4fe 10bd 3dc8 253d 5e42 89be e33d d2bd

map_L5.bias f4 [618]
-0.14586653 -0.15644844 -0.5768418 -0.088380344 -0.52664334 -0.6066148 -0.13425514 -0.08048176
-0.27933893 -0.25851703 0.011124793 0.046592955 -0.037766814 -0.29617232 -0.101073794 -0.002543029
-0.11615087 -0.05097949 0.036824223 -0.01660483 -0.05297339 -0.1862614 -0.07618565 -0.09325425
-0.09931654 -0.10585726 -0.022517301 -0.05750701 0.099129826 -0.10493826 -0.1212645 -0.060586512
-0.049195603 -0.04883196 -0.124639556 -0.03090912 -0.005673535 -0.15590511 -0.029613974 0.0119611835
-0.09833329 -0.13670036 -0.096843176 -0.13550481 -0.019388448 -0.065801695 -0.03376762 -0.07133352
-0.033570804 -0.07959559 -0.08958189 -0.07442487 0.06788555 -0.15226169 -0.12842494 -0.06991347
-0.08198074 -0.069011934 -0.11114396 0.017003143 -0.11819327 -0.13750896 -0.14130057 -0.10394876
-0.11824358 -0.072273806 -0.00046953344 -0.054806784 -0.12928726 -0.06097245 -0.17281024 -0.12446539
-0.042925797 -0.09068281 -0.058047414 -0.04110823 -0.069302514 -0.09565517 -0.15616256 -0.038769744
-0.0005861305 0.013510838 -0.09384913 -0.40091938 -0.37929076 -0.4597085 -0.20963113 -0.39082265
-0.25010675 -0.22357883 -0.21715331 -0.41149056 -0.24499823 -0.7055797 -0.3426121 -0.19604446
-0.17468195 -0.17022546 -0.1769197 -0.17318101 -0.16454777 -0.18058029 -0.15207104 -0.07874614
-0.10213606 -0.1153028 -0.106126405 -0.09884082 -0.09297 -0.12429505 -0.10744661 -0.089269415
-0.07336883 -0.18805267 -0.20755215 -0.21502095 -0.36380696 -0.20094462 -0.20120151 -0.19818477
-0.22643876 -0.22501056 -0.20002812 -0.145443 -0.15849608 -0.13217358 -0.13672857 -0.11654753
-0.12578648 -0.13518865 -0.12137182 -0.13252674 -0.14401726 -0.03836579 -0.051672574 -0.0686821
-0.057079412 -0.055310644 -0.05706655 -0.07170987 -0.042090945 -0.066858396 -0.04629886 -0.06325965
-0.037969768 -0.05564785 -0.02413871 -0.060005493 -0.05229721 -0.076498315 -0.034798183 -0.04033099
-0.08796869 -0.17298652 -0.15195917 -0.15394415 -0.15707792 -0.17836653 -0.16945475 -0.15189052
-0.17214742 -0.15154408 -0.15842587 -0.14968553 -0.121255 -0.10025078 -0.11933244 -0.1280954
-0.10858567 -0.12561718 -0.14471877 -0.15689392 -0.09936451 -0.039940342 0.08432533 0.00286453
-0.13632672 -0.061582632 0.041710366 -0.032211967 -0.07772839 -0.13835947 -0.14108463 -0.097930506
-0.06416711 -0.17306033 -0.10439821 -0.06329419 -0.055173695 -0.08719035 -0.06121016 -0.10586252
-0.051741038 -0.08646576 -0.027922435 -0.17764638 -0.09458309 -0.091478825 -0.114465155 -0.07445054
-0.08255799 -0.037979785 -0.07724906 -0.16289108 -0.112251155 -0.06785579 0.0011817019 -0.13501759
-0.09755616 -0.13444757 -0.07316417 0.049405992 -0.10891286 -0.05024757 -0.15447932 -0.029055245
-0.5759852 -0.13808586 -0.08803391 -0.011024707 -0.08972489 -0.11367394 -0.064166725 -0.035740808
-0.032689784 -0.09437129 -0.10210255 -0.07115271 -0.12784527 -0.051783863 -0.12703966 -0.047650218
-0.18658727 -0.0983327 -0.17026658 -0.06785224 0.066923566 -0.08314098 -0.7812622 -0.063465714
-0.10156924 -0.05495046 -0.08919983 -0.05489077 -0.041822348 -0.03794388 -0.018805439 -0.11279138
-0.04561907 -0.13603772 -0.17085624 -0.075310625 -0.11550109 -0.082614146 -0.06735699 -0.045935486
00000000: 095e 15be 0534 20be e7ab 13bf c100 b5bd
00000010: 19d2 06bf 1c4b 1bbf 2e7a 09be 9fd3 a4bd
00000020: 8305 8fbe 585c 84be c444 363c 41d8 3e3d
00000030: 60b1 1abd e6a3 97be c7ff cebd f2a8 26bb
00000040: 82e0 edbd dfcf 50bd ffd4 163d da06 88bc
00000050: a0fa 58bd 4fbb 3ebe 3907 9cbd 16fc bebd
00000060: 7866 cbbd b1cb d8bd 3476 b8bc 788c 6bbd
00000070: 9404 cb3d dfe9 d6bd 8659 f8bd 9029 78bd
00000080: 5481 49bd 0504 48bd 0643 ffbd 1f35 fdbc
00000090: 10e9 b9bb 97a5 1fbe 0199 f2bc d7f8 433c
000000a0: f762 c9bd 2efb 0bbe b755 c6bd c6c1 0abe
000000b0: 86d4 9ebc 0ac3 86bd ea4f 0abd 4f17 92bd
000000c0: 8a81 09bd 0303 a3bd b676 b7bd 116c 98bd
000000d0: 9407 8b3d 7dea 1bbe d481 03be cb2e 8fbd
000000e0: 85e5 a7bd 2156 8dbd 729f e3bd 2d4a 8b3c
000000f0: 500f f2bd 26cf 0cbe 19b1 10be 16e3 d4bd
00000100: b129 f2bd 4a04 94bd b62b f6b9 147d 60bd
00000110: e163 04be 3fbe 79bd 2bf5 30be b6e7 febd
00000120: f6d2 2fbd e9b7 b9bd 20c3 6dbd 1a61 28bd
00000130: 7aee 8dbd dce6 c3bd 14e9 1fbe 06cd 1ebd
00000140: 8da6 19ba 905c 5d3c f933 c0bd 4e45 cdbe
00000150: 6632 c2be ea5e ebbe 8ba9 56be e819 c8be
00000160: fe0d 80be d9f1 64be 705d 5ebe e4ae d2be
00000170: d1e0 7abe dfa0 34bf da6a afbe e1bf 48be
00000180: d3df 32be 954f 2ebe 702a 35be 5d56 31be
00000190: 367f 28be 0aea 38be 83b8 1bbe a845 a1bd
000001a0: b62c d1bd e023 ecbd cd58 d9bd 0e6d cabd
000001b0: 0e67 bebd 678e febd f80c dcbd e2d2 b6bd
000001c0: 6642 96bd e190 40be 8d88 54be 742e 5cbe
000001d0: e844 babe 6dc4 4dbe c507 4ebe f3f0 4abe
000001e0: 90df 67be 2b69 66be 2cd4 4cbe 03ef 14be
000001f0: cc4c 22be 8358 07be 9302 0cbe 79b0 eebd
00000200: 2cce 00be e56e 0abe ca91 f8bd 17b5 07be
00000210: 4379 13be 7225 1dbd 9fa6 53bd 33a9 8cbd
00000220: 1acc 69bd 6a8d 62bd 9dbe 69bd a0dc 92bd
00000230: 8e67 2cbd 0eed 88bd e0a3 3dbd 468e 81bd
00000240: 3086 1bbd 00ef 63bd 8bbe c5bc 52c8 75bd
00000250: 9935 56bd 26ab 9cbd 8a88 0ebd 1c32 25bd
00000260: ee28 b4bd 6123 31be 2f9b 1bbe 89a3 1dbe
00000270: 09d9 20be b7a5 36be 8c85 2dbe 3089 1bbe
00000280: 6a47 30be 5f2e 1bbe 643a 22be 2a47 19be
00000290: 8b54 f8bd 4850 cdbd 9164 f4bd 712b 03be
000002a0: 2a62 debd caa1 00be 2831 14be cda8 20be
000002b0: 9f7f cbbd 7c98 23bd c2b2 ac3d d7ba 3b3b
000002c0: 3b99 0bbe 123e 7cbd 7dd8 2a3d b2f0 03bd
000002d0: 1030 9fbd 1bae 0dbe 7d78 10be ca8f c8bd
000002e0: 0c6a 83bd ba36 31be bbce d5bd 62a0 81bd
000002f0: d0fd 61bd db90 b2bd 81b7 7abd 73ce d8bd
00000300: 69ee 53bd f614 b1bd 97bd e4bc efe8 35be
00000310: c7b4 c1bd 4059 bbbd b56c eabd 8679 98bd
00000320: 2a14 a9bd b190 1bbd c134 9ebd ebcc 26be
00000330: efe3 e5bd faf7 8abd 56e3 9a3a 0d42 0abe
00000340: 86cb c7bd a0ac 09be 19d7 95bd f05d 4a3d
00000350: b50d dfbd 65d0 4dbd d42f 1ebe 4405 eebc
00000360: c473 13bf 6166 0dbe 1f4b b4bd f9a0 34bc
00000370: afc1 b7bd e2cd e8bd d869 83bd f464 12bd
00000380: b9e5 05bd bc45 c1bd 241b d1bd 83b8 91bd
00000390: dfe9 02be 511b 54bd af16 02be e02c 43bd
000003a0: bc10 3fbe a862 c9bd 5d5a 2ebe 1df6 8abd
000003b0: 390f 893d d145 aabd cd00 48bf 50fa 81bd
000003c0: 8903 d0bd bc13 61bd 67ae b6bd 25d5 60bd
000003d0: e94d 2bbd 0b6b 1bbd dd0d 9abc 2bff e6bd
000003e0: 10db 3abd 794d 0bbe f0f4 2ebe 753c 9abd
000003f0: d68b ecbd 9b31 a9bd 76f2 89bd d926 3cbd
