model_AAE_128/ep_2000_discriminator_model.pth (torch_old, 21281 bytes, 7 tensors)

map_L1.weight f4 [256, 2]
0.14563312 0.114922576 0.11202728 0.115599275 0.12652083 0.15997845 0.02140594 0.07590508
0.018503953 -0.16950683 -0.1010816 -0.080323845 -0.103661895 -0.044975284 0.09584699 0.028429948
-0.18872134 -0.052471515 -0.14346759 -0.20559151 0.03677418 0.20776223 -0.19404191 -0.038597617
-0.1291631 0.06287845 -0.17569155 0.22011097 -0.119706795 -0.19621862 0.0376759 0.11631677
0.004727208 -0.24923547 -0.100754395 0.13968535 -0.056163713 0.07279684 -0.050246056 -0.11671902
-0.07168719 0.016349994 -0.07228622 0.08992886 -0.0360652 0.15596408 -0.09225951 0.11661133
-0.09317392 -0.034846894 0.0814105 -0.009421296 -0.25157002 -0.010398427 -0.081500076 0.08537341
-0.11255475 0.040040705 0.18194881 -0.06554073 -0.030701196 -0.043373346 -0.29856366 0.09727429
-0.12754437 0.010039393 -0.15620804 -0.050838143 -0.002299037 0.13541135 -0.15002169 0.069326326
-0.19555762 0.09270031 0.054640323 -0.16022328 0.15216461 0.01970636 0.05965657 0.13194722
-0.014046188 -0.27034214 -0.08430805 -0.09541999 0.026901841 -0.2493174 0.016870236 -0.15422162
-0.052027702 0.073903374 -0.14057152 0.16265565 -0.19372869 -0.0985016 -0.27585593 0.08912894
0.16079469 0.03253115 -0.10629719 -0.14461087 -0.08026988 0.010161805 0.09581365 -0.049049046
-0.24366723 0.08104274 0.14151482 -0.09474814 -0.109015144 0.14615107 0.013340552 -0.012308647
-0.15713294 -0.10714562 0.15923959 -0.05339005 -0.051034253 0.25738338 -0.14488666 -0.07852883
-0.04809128 0.02363216 0.059360344 -0.0008614916 -0.11467963 -0.08307994 0.038889877 -0.21119769
-0.2064003 -0.0040499037 0.0970546 -0.11632242 0.104450636 -0.1320664 -0.11310046 0.11347545
0.009214208 -0.083816126 0.12700856 0.090942085 0.18809153 -0.16059937 -0.07271883 -0.1010003
0.12953901 -0.12441755 0.1273458 -0.12347751 0.118751764 0.15020466 -0.10536948 0.01096195
-0.12345527 -0.15927069 -0.048177082 0.018507022 -0.06603545 0.085085 0.011962342 0.12926541
-0.19196235 -0.20368853 -0.030552424 -0.12979032 -0.07129735 -0.10931604 -0.2133621 0.07617386
-0.05088349 -0.15834928 -0.1980996 0.024554322 -0.17514937 -0.14074318 0.06393648 -0.23176572
0.0026577688 0.03523077 -0.24779452 -0.048967153 -0.019122671 -0.10369399 0.009779207 0.06736226
-0.06718278 -0.14182964 -0.14579025 -0.04846664 0.018382495 0.21600856 -0.118174165 0.10530819
0.1095329 -0.18848582 0.23309374 -0.18987691 -0.104660966 0.14032784 0.10917476 0.023400255
-0.110493384 0.11838857 0.2370669 -0.32143307 -0.13856092 -0.048161335 0.17067625 0.15031198
-0.07985956 -0.10812325 0.18968007 0.011245463 0.009889908 0.11087733 -0.24553096 0.18976215
-0.24463147 -0.025251633 -0.12317114 -0.23095015 0.041474055 -0.046017706 0.06105258 0.026575627
-0.0535935 -0.033002537 -0.07969727 0.14050044 0.09168417 -0.00027181557 0.058754496 -0.056611612
-0.027559126 0.019935708 -0.048035953 0.016638173 0.07502706 0.11791454 0.1583844 0.032250404
0.09804528 0.14655983 -0.1894992 0.11985954 0.039022155 0.055027455 -0.085477084 -0.14039084
0.14905915 0.095979914 0.07369058 -0.10400329 0.0342994 0.14889923 0.028886583 -0.10744393
00000000: d920 153e 875c eb3d 8f6e e53d 50bf ec3d
00000010: ad8e 013e 64d1 233e 835b af3c 1f74 9b3d
00000020: 9a95 973c 3393 2dbe df03 cfbd d480 a4bd
00000030: b04c d4bd 0138 38bd 6d4b c43d ece5 e83c
00000040: 2b40 41be 5fec 56bd 2be9 12be 9586 52be
00000050: 86a0 163d 9fbf 543e ecb2 46be 8918 1ebd
00000060: 5543 04be 6bc6 803d 7ce8 33be c564 613e
00000070: d628 f5bd 89ed 48be 0b52 1a3d 7d37 ee3d
00000080: b2e6 9a3b 9537 7fbe 5258 cebd ad09 0f3e
00000090: ec0b 66bd 8216 953d cfce 4dbd 620a efbd
000000a0: bcd0 92bd 6cf0 853c cc0a 94bd 9f2c b83d
000000b0: 1ab9 13bd 0cb5 1f3e 8ef2 bcbd ecd1 ee3d
000000c0: f8d1 bebd 9ebb 0ebd 8cba a63d c85b 1abc
000000d0: c9cd 80be 2a5e 2abc 83e9 a6bd 41d8 ae3d
000000e0: 1b83 e6bd b901 243d ca50 3a3e 383a 86bd
000000f0: 1381 fbbc 40a8 31bd 56dd 98be be37 c73d
00000100: fe9a 02be 447c 243c 00f5 1fbe a83b 50bd
00000110: 71ab 16bb 46a9 0a3e 499f 19be f6fa 8d3d
00000120: 4240 48be a9d9 bd3d 88ce 5f3d 9211 24be
00000130: 0ad1 1b3e 3b6f a13c 735a 743d 2c1d 073e
00000140: fc21 66bc 496a 8abe b3a9 acbd 8e6b c3bd
00000150: 4061 dc3c 0f4d 7fbe 7333 8a3c 46ec 1dbe
00000160: 001b 55bd a75a 973d fbf1 0fbe 348f 263e
00000170: d060 46be 35bb c9bd fd3c 8dbe 3c89 b63d
00000180: 5da7 243e 623f 053d 57b2 d9bd df14 14be
00000190: 8964 a4bd b37d 263c f239 c43d a7e7 48bd
000001a0: e783 79be bcf9 a53d 43e9 103e 500b c2bd
000001b0: 5543 dfbd a0a8 153e 5592 5a3c 35aa 49bc
000001c0: 75e7 20be 2a6f dbbd b40f 233e 86af 5abd
000001d0: 4b09 51bd c1c7 833e 2b5d 14be b9d3 a0bd
000001e0: 5dfb 44bd 3b98 c13c d523 733d b9d5 61ba
000001f0: 27dd eabd d125 aabd fe4a 1f3d 3544 58be
00000200: 9a5a 53be 0eb5 84bb 90c4 c63d 733a eebd
00000210: 37ea d53d 6a3c 07be 37a1 e7bd d165 e83d
00000220: 31f7 163c caa7 abbd 880e 023e d83f ba3d
00000230: 119b 403e 2974 24be 9ced 94bd 3fd9 cebd
00000240: e0a5 043e a1ce febd f066 023e c7e1 fcbd
00000250: 2034 f33d 40cf 193e f4cb d7bd c099 333c
00000260: 1ed6 fcbd db17 23be 5555 45bd 0a9c 973c
00000270: 983d 87bd 0b41 ae3d b3fd 433c 275e 043e
00000280: c791 44be ba93 50be 1449 fabc c1e7 04be
00000290: 5804 92bd 17e1 dfbd 987b 5abe 0a01 9c3d
000002a0: 356b 50bd 5026 22be 9fda 4abe 2526 c93c
000002b0: 5b5a 33be fb1e 10be 21f1 823d fe53 6dbe
000002c0: f62d 2e3b 244e 103d d9bd 7dbe c891 48bd
000002d0: 26a7 9cbc 845d d4bd f838 203c 39f5 893d
000002e0: 2097 89bd ca3b 11be 0a4a 15be f584 46bd
000002f0: e396 963c 5931 5d3e 4c05 f2bd d2ab d73d
00000300: c952 e03d 6d02 41be 20b0 6e3e 186f 42be
00000310: 7d58 d6bd 1ab2 0f3e 0497 df3d e4b1 bf3c
00000320: 5b4a e2bd b575 f23d aac1 723e e092 a4be
00000330: eae2 0dbe d244 45bd c1c5 2e3e 62eb 193e
00000340: 698d a3bd b96f ddbd 7e3b 423e e43e 383c
00000350: 4809 223c a713 e33d 786c 7bbe 0251 423e
00000360: ac80 7abe 83dc cebc 2741 fcbd 327e 6cbe
00000370: b3e0 293d 107d 3cbd 4512 7a3d 21b5 d93c
00000380: dc84 5bbd ab2d 07bd 5338 a3bd 59df 0f3e
00000390: e9c4 bb3d 7882 8eb9 8ea8 703d 94e1 67bd
000003a0: adc3 e1bc 3650 a33c 59c1 44bd c74c 883c
000003b0: caa7 993d 2e7d f13d 852f 223e 0019 043d
000003c0: f7cb c83d c813 163e 140c 42be eb78 f53d
000003d0: b2d5 1f3d 7864 613d 9c0e afbd 9ec2 0fbe
000003e0: f6a2 183e 1e91 c43d 16eb 963d adff d4bd
000003f0: 877d 0c3d 0a79 183e 8ea3 ec3c 900b dcbd

map_L1.bias f4 [256]
-0.056509145 0.052763984 -0.11438837 0.0060198633 0.020505566 0.012138971 0.032427408 -0.027751507
0.05555356 0.14396445 -0.040131506 0.05445391 0.08352831 0.0072354227 0.0625161 0.015973601
0.036250226 0.006383581 -0.041971914 -0.022999968 -0.039371677 0.0030839855 0.08091522 -0.0047768904
-0.09578958 0.11492526 0.064257875 0.010427743 -0.010165582 -0.02104346 0.0090433275 0.05940659
0.02962629 0.045180812 -0.01972327 -0.026308171 -0.036030084 -0.101062246 -0.04031168 0.13924329
0.0850737 0.034125574 0.03039504 0.018608153 -0.0033832742 -0.018964833 0.08177171 0.1867051
-0.037056103 0.030223995 -0.024105767 0.12144355 0.054550253 0.07051857 0.0018345414 -0.008488006
0.058494017 -0.034885064 -0.11319139 0.054741386 0.07444042 0.12634467 0.039805215 0.014579291
0.10109083 0.055026222 0.06981758 0.05997397 -0.02364418 -0.07004101 -0.017042125 0.03236245
0.04856889 0.048781402 -0.10733793 -0.0073629767 0.060381718 0.14551099 0.07755888 -0.02247032
0.08655059 -0.04582483 -0.114554375 0.14297241 0.038531706 0.04461843 0.0742141 0.025133235
0.13852973 0.06462083 0.020480733 0.004057016 0.0400683 0.04805751 -0.0452801 -0.032353517
0.028782848 -0.025852516 0.0017443864 -0.019511387 0.12774545 -0.0052278056 0.111478366 -0.06396267
0.13977301 -0.09991584 -0.023219686 -0.050318237 0.049109742 -0.048278768 0.051104177 0.14591613
-0.018852195 0.017256198 0.005566091 -0.1283319 0.08258612 -0.1719152 0.054462317 -0.10949504
0.02547746 -0.011159705 0.08506079 0.046376113 -0.009820566 0.059212144 0.02237671 -0.08982575
-0.16046982 -0.099830635 0.04063661 -0.016444756 -0.0053302455 0.1548869 0.01788326 -0.04559447
-0.01294666 0.029073205 0.024593875 -0.0260458 0.10417554 -0.0324617 -0.02835874 0.051335946
0.011058871 0.079922915 0.097910576 -0.081390165 0.03206765 0.06726436 -0.027169615 -0.046136778
-0.07393535 0.045537796 0.14287145 0.016388778 0.06891849 -0.08015244 -0.11578622 -0.077957295
0.011219049 -0.044370543 -0.00014684403 0.08485806 -0.0013495216 0.059981667 -0.03286958 -0.01603151
0.0076682675 -0.077225156 0.045394074 -0.04548502 -0.09829901 0.03168939 0.06815607 0.033447035
0.005022006 -0.04532098 0.025854077 -0.07912963 0.052824203 -0.037450723 -0.012305571 -0.13681233
0.105397 -0.04242138 0.015949786 -0.057055883 0.04912957 -0.027867308 -0.059655994 0.030846985
-0.045594092 -0.08029141 -0.0056981044 0.1346827 -0.030767577 0.019256156 -0.0034739429 0.037775278
-0.0016877141 -0.111608475 -0.06721029 -0.023097334 -0.025549509 -0.12258929 0.08663638 0.03996075
0.09657568 -0.104119994 0.08679759 0.0907354 -0.13207899 -0.0051924144 0.007030026 0.10604463
0.057200912 0.1474187 0.05018004 0.048177086 -0.036098387 0.09713201 0.052322026 0.15508603
-0.054455176 0.0810525 -0.10081612 -0.061789017 -0.050978716 0.06577893 0.021699373 -0.053510383
-0.020089153 -0.032076407 -0.0046801004 0.05965829 0.03723738 -0.01746574 -0.0285423 -0.023870986
0.049841106 0.057103634 0.004810981 0.06464155 -0.10831512 0.060973853 -0.09041552 0.12776315
-0.015039755 0.026857212 -0.01875648 0.051161636 0.01102802 -0.054068286 -0.006567318 0.010287925
00000000: 2276 67bd 0c1f 583d 7344 eabd 4642 c53b
00000010: 4afb a73c 89e2 463c 9ad2 043d 2157 e3bc
00000020: 218c 633d 6b6b 133e ef60 24bd 100b 5f3d
00000030: e410 ab3d 2017 ed3b 7108 803d 12db 823c
00000040: 1e7b 143d 5c2d d13b beea 2bbd 6e6a bcbc
00000050: 3244 21bd b11c 4a3b e1b6 a53d 7687 9cbb
00000060: 542d c4bd ef5d eb3d a299 833d 20d9 2a3c
00000070: 8b8d 26bc 5663 acbc 772a 143c 5354 733d
00000080: d5b2 f23c 840f 393d b292 a1bc 3c84 d7bc
00000090: 4894 13bd b9f9 cebd dc1d 25bd cb95 0e3e
000000a0: 1f3b ae3d 42c7 0b3d 05ff f83c 2070 983c
000000b0: ecb9 5dbb 235c 9bbc ed77 a73d 9f2f 3f3e
000000c0: 24c8 17bd 5098 f73c 7579 c5bc 65b7 f83d
000000d0: 1670 5f3d 0a6c 903d ff74 f03a 4711 0bbc
000000e0: 6c97 6f3d a4e3 0ebd e3d0 e7bd 8138 603d
000000f0: 3874 983d 7f60 013e cb0a 233d fbdd 6e3c
00000100: b608 cf3d 2d63 613d 85fc 8e3d 44a7 753d
00000110: 70b1 c1bc a971 8fbd ed9b 8bbc 7d8e 043d
00000120: 2cf0 463d 02cf 473d fdd3 dbbd 2045 f1bb
00000130: d252 773d d500 153e 31d7 9e3d ad13 b8bc
00000140: 7041 b13d d1b2 3bbd 7c9b eabd 5c67 123e
00000150: 6cd3 1d3d d1c1 363d 90fd 973d 37e4 cd3c
00000160: bdda 0d3e ed57 843d 36c7 a73c b8f0 843b
00000170: a81e 243d f4d7 443d a077 39bd 1f85 04bd
00000180: 02ca eb3c a8c8 d3bc e5a3 e43a 58d6 9fbc
00000190: b4cf 023e 034e abbb c54e e43d dcfe 82bd
000001a0: a820 0f3e ada0 ccbd 3637 bebc 7f1a 4ebd
000001b0: 4c27 493d f5bf 45bd 9d52 513d 0a6b 153e
000001c0: eb6f 9abc df5c 8d3c c163 b63b 7069 03be
000001d0: e922 a93d 8a0a 30be e113 5f3d ef3e e0bd
000001e0: 1bb6 d03c 32d7 36bc 5a34 ae3d e1f4 3d3d
000001f0: 70e6 20bc 6f88 723d 5d4f b73c 90f6 b7bd
00000200: 3352 24be 0174 ccbd 9372 263d 27b7 86bc
00000210: 57a9 aebb ac9a 1e3e ea7f 923c 44c1 3abd
00000220: 3a1e 54bc ee2a ee3c 1879 c93c 005e d5bc
00000230: fc59 d53d 8ff6 04bd 9750 e8bc a445 523d
00000240: 4430 353c a0ae a33d 5785 c83d e3af a6bd
00000250: 5e59 033d e6c1 893d d092 debc ebf9 3cbd
00000260: 6b6b 97bd d785 3a3d e54c 123e c241 863c
00000270: 2325 8d3d f626 a4bd 5321 edbd 13a8 9fbd
00000280: 1ad0 373c e3bd 35bd 25fa 19b9 10ca ad3d
00000290: 6ee2 b0ba 56af 753d 41a2 06bd 8354 83bc
000002a0: 1746 fb3b 3928 9ebd 23ef 393d 804e 3abd
000002b0: fe50 c9bd bccc 013d 6995 8b3d c2ff 083d
000002c0: a48f a43b 7ea2 39bd eecb d33c b70e a2bd
000002d0: 315e 583d ee65 19bd 4e9d 49bc 8818 0cbe
000002e0: 62da d73d 0ac2 2dbd 20a9 823c 6eb3 69bd
000002f0: 173c 493d fb49 e4bc d859 74bd d1b2 fc3c
00000300: dfc0 3abd d36f a4bd 2ab7 babb 43ea 093e
00000310: 490c fcbc 16bf 9d3c 17ab 63bb 40ba 1a3d
00000320: 4a36 ddba fc92 e4bd 8ca5 89bd 9f36 bdbc
00000330: 344d d1bc 1810 fbbd 6a6e b13d e2ad 233d
00000340: 78c9 c53d dd3c d5bd efc2 b13d 7bd3 b93d
00000350: b73f 07be 2125 aabb 225c e63b ed2d d93d
00000360: 814b 6a3d edf4 163e 9689 4d3d 5655 453d
00000370: e7db 13bd 26ed c63d 9f4f 563d dfce 1e3e
00000380: 640c 5fbd dafe a53d af78 cebd 7b16 7dbd
00000390: 0fcf 50bd 1bb7 863d e2c2 b13c b42d 5bbd
000003a0: 0292 a4bc 8d62 03bd 875b 99bb 405c 743d
000003b0: 3986 183d 5014 8fbc 8bd1 e9bc 168d c3bc
000003c0: 3026 4c3d 80e5 693d 6fa5 9d3b ca62 843d
000003d0: 51d4 ddbd b8bf 793d c62b b9bd 58d4 023e
000003e0: 4e69 76bc a803 dc3c 31a7 99bc dd8e 513d
000003f0: deae 343c b576 5dbd a832 d7bb af8e 283c

map_L2.weight f4 [16, 256]
0.12953693 -0.03402237 0.15040272 0.11009317 -0.04658391 0.044418078 0.06525756 -0.15699008
0.09700168 0.10921593 0.21110079 0.21852857 0.07626893 0.12739684 -0.13343853 0.063474275
-0.015874466 0.24800605 0.060162358 0.037901096 0.18917023 0.09539616 0.23294501 0.27059808
-0.03754386 -0.12981457 0.2555623 0.18009597 0.18249606 -0.13074638 -0.16375774 0.012330544
0.18970995 0.013950182 0.13614687 0.23367032 0.2548547 -0.11591004 0.06945436 0.019745262
-0.033729542 -0.07647397 0.012489155 -0.14903608 0.026005995 0.14693457 -0.028515603 0.14250124
-0.059936482 -0.024103792 -0.037076935 -0.12974504 -0.047931448 -0.14475337 0.261731 0.038651604
-0.018310077 -0.1990958 0.52723527 0.10507081 0.0013783107 0.0801159 -0.031273227 -0.21633065
0.18433204 -0.09427531 0.011847149 0.09937185 -0.24917643 0.1078629 -0.31101406 0.076668546
-0.35487053 -0.28864 0.18356423 0.1365281 0.071112856 0.1055251 0.2360289 0.19912592
-0.07879576 -0.05179759 -0.06605689 0.12794738 -0.25032067 0.121178396 0.047967013 -0.16941485
0.083978735 0.061524045 -0.17808701 0.124967374 -0.18379799 0.18812485 0.10400523 0.21793626
-0.64233184 -0.44794622 0.08517132 -0.16594933 0.20653877 -0.4628976 0.13247955 -0.023148289
0.011599616 0.050740007 0.06475348 0.057620093 -0.14365067 -0.15994453 0.012894868 0.011904677
0.06772314 0.19059096 -0.16574876 -0.17630723 -0.06538819 0.066577695 -0.04612452 -0.21542603
0.086811334 0.19645382 -0.07018291 0.06766426 -0.105747424 -0.14551097 0.14326389 -0.026885828
0.049597163 0.2811526 -0.059527528 0.20648344 -0.6181587 -0.19643995 -0.011901806 0.04724381
0.004194492 0.10739588 -0.102818266 0.2584698 -0.16637976 0.03513981 0.033265892 0.12877862
-0.2237446 -0.07069235 0.005253024 -0.2421065 0.18211438 0.00030326386 0.0069919075 0.1784193
0.114255525 -0.11169254 0.07378413 0.16754122 -0.26104417 -0.10897776 0.033486877 -0.074767694
-0.20568876 0.23865928 0.32361895 0.07482805 0.21034433 0.111490816 0.22001694 0.04696087
0.20066957 0.28341192 -0.12067286 0.20097281 -0.06900737 -0.12781622 -0.029021995 -0.0144343
0.04515982 0.22484866 0.22204503 0.0790496 0.002081091 0.14091103 0.24391112 -0.13908522
0.28759763 -0.3061121 -0.00208829 0.040429484 0.03929287 0.19080937 0.30435306 -0.108437106
-0.10425948 -0.026511943 0.015633782 -0.2157757 -0.46402434 -0.038258564 -0.4847185 -0.13534302
-0.44133294 0.261338 -0.05920016 0.105998516 0.14653265 -0.3171118 -0.19672011 0.030825932
0.13850233 -0.27001444 0.015398711 -0.11615913 0.28758568 0.09595618 0.1829483 -0.13460556
-0.11143289 0.009295212 0.073854 -0.18305536 -0.012651007 -0.01624423 0.13096283 0.13906561
-0.03424816 -0.119406775 0.057267424 0.055118278 0.21241015 0.02744031 -0.22330628 -0.22276916
-0.11568266 0.21979113 -0.36096284 0.16579252 -0.0472143 0.124802314 0.041058075 0.01669305
-0.19346958 0.023286786 -0.471753 -0.15304685 0.5452925 -0.18297355 -0.07714344 0.061884236
0.022937676 0.108542815 0.1656529 0.10835107 -0.31989086 0.078338414 -0.3944071 -0.12817335
00000000: 54a5 043e 0a5b 0bbd 2c03 1a3e 8778 e13d
00000010: c5ce 3ebd bbef 353d c1a5 853d 02c2 20be
00000020: d1a8 c63d 9aac df3d ce2a 583e f4c5 5f3e
00000030: e332 9c3d 5174 023e 1ca4 08be cdfe 813d
00000040: 2b0b 82bc 4cf5 7d3e ce6c 763d 2e3e 1b3d
00000050: d7b5 413e 105f c33d 2389 6e3e d58b 8a3e
00000060: 97c7 19bd 1cee 04be 10d9 823e 146b 383e
00000070: 3fe0 3a3e 61e2 05be 1cb0 27be 0d06 4a3c
00000080: 5343 423e 4e8f 643c 166a 0b3e 4647 6f3e
00000090: 517c 823e 3e62 edbd 163e 8e3d d1c0 a13c
000000a0: fd27 0abd 639e 9cbd 509f 4c3c ea9c 18be
000000b0: 860a d53c 0476 163e 8e99 e9bc d8eb 113e
000000c0: f57f 75bd 5175 c5bc fcdd 17bd e2db 04be
000000d0: c453 44bd 3a3a 14be 9b01 863e 2551 1e3d
000000e0: 04ff 95bc c5df 4bbe e4f8 063f 5d2f d73d
000000f0: 6fa8 b43a ce13 a43d 5b18 00bd c885 5dbe
00000100: 8ac1 3c3e 6a13 c1bd 8b1a 423c 7883 cb3d
00000110: 1b28 7fbe 39e7 dc3d 3c3d 9fbe 6604 9d3d
00000120: 97b1 b5be 9fc8 93be 43f8 3b3e 06ce 0b3e
00000130: 9ea3 913d 8b1d d83d 8fb1 713e aae7 4b3e
00000140: ac5f a1bd b629 54bd d648 87bd a304 033e
00000150: 082a 80be 612c f83d 0f79 443d 167b 2dbe
00000160: 0bfd ab3d a300 7c3d 715c 36be e5ee ff3d
00000170: 8a35 3cbe cda3 403e b200 d53d af2a 5f3e
00000180: dc6f 24bf 3559 e5be 4d6e ae3d 9fee 29be
00000190: e67e 533e ea00 edbe b8a8 073e 7ba1 bdbc
000001a0: 510c 3e3c c1d4 4f3d 799d 843d 0c03 6c3d
000001b0: 2919 13be 80c8 23be ff44 533c d60b 433c
000001c0: 6eb2 8a3d 472a 433e 0bba 29be e289 34be
000001d0: 3eea 85bd e359 883d 11ed 3cbd a498 5cbe
000001e0: 24ca b13d 312b 493e 0fbc 8fbd 8f93 8a3d
000001f0: 1b92 d8bd d400 15be c5b3 123e ab3f dcbc
00000200: 6526 4b3d 3cf3 8f3e 23d3 73bd 6570 533e
00000210: a63f 1ebf 8e27 49be cbff 42bc ba82 413d
00000220: f371 893b 5ff2 db3d 6292 d2bd 2756 843e
00000230: 755f 2abe c3ee 0f3d d141 083d 8bde 033e
00000240: 4e1d 65be 27c7 90bd 8f21 ac3b c4ea 77be
00000250: 317c 3a3e 63ff 9e39 5f1c e53b 8db3 363e
00000260: cdfe e93d 0fbf e4bd 221c 973d ed8f 2b3e
00000270: 95a7 85be bb2f dfbd 8929 093d ce1f 99bd
00000280: 13a0 52be 1963 743e 62b1 a53e 733f 993d
00000290: 8164 573e 4c55 e43d 1f4c 613e 0b5a 403d
000002a0: 537c 4d3e 5e1b 913e 5523 f7bd d1cb 4d3e
000002b0: bc53 8dbd 41e2 02be 89bf edbc d87d 6cbc
000002c0: 81f9 383d ba3e 663e c65f 633e c2e4 a13d
000002d0: ea62 083b fb4a 103e d6c3 793e 5b6c 0ebe
000002e0: ff3f 933e baba 9cbe b1db 08bb 6399 253d
000002f0: 8ff1 203d 8863 433e 2ad4 9b3e 4614 debd
00000300: ff85 d5bd 932f d9bc 6b12 803c 4ef4 5cbe
00000310: 9994 edbe 03b5 1cbd 062d f8be 5c97 0abe
00000320: 64f6 e1be 18ce 853e de7b 72bd c015 d93d
00000330: a80c 163e 7a5c a2be ff70 49be aa86 fc3c
00000340: 8ed3 0d3e 553f 8abe e04a 7c3c d7e4 edbd
00000350: 6e3e 933e ac84 c43d cd56 3b3e 0ad6 09be
00000360: ed36 e4bd f24a 183c c440 973d dd72 3bbe
00000370: 2b46 4fbc 9f12 85bc 1f1b 063e 3767 0e3e
00000380: cc47 0cbd 8a8b f4bd 3f91 6a3d b4c3 613d
00000390: 0c82 593e 80ca e03c 67aa 64be 991d 64be
000003a0: 08eb ecbd ed10 613e 1fd0 b8be 84c5 293e
000003b0: c863 41bd 5b98 ff3d 832c 283d ddbf 883c
000003c0: e41c 46be eec3 be3c 9c89 f1be 50b8 1cbe
000003d0: 4a98 0b3f 6b5d 3bbe 61fd 9dbd 537a 7d3d
000003e0: cbe7 bb3c b24b de3d eaa0 293e 2ae7 dd3d
000003f0: bcc8 a3be e46f a03d baef c9be e03f 03be

map_L2.bias f4 [16]
0.030000329 -0.082259126 -0.10494626 -0.071906745 -0.10242466 0.049968284 -0.013457625 -0.035434563
-0.027595947 -0.104382634 -0.013005125 -0.0638093 -0.046872817 -0.035733707 0.07582305 -0.12568286
00000000: 40c3 f53c 7977 a8bd 11ee d6bd d843 93bd
00000010: 05c4 d1bd 8bab 4c3d 5f7d 5cbc d523 11bd
00000020: e510 e2bc 90c6 d5bd 7313 55bc 73ae 82bd
00000030: b6fd 3fbd 825d 12bd 1e49 9b3d 02b3 00be

map_L3.weight f4 [4, 16]
0.3356524 -0.73663634 -0.2329931 -0.66502 -0.51170844 0.4625517 -0.53504103 0.14189082
0.29108557 -0.5995348 -0.6537721 0.9193639 -0.48731816 -0.3518168 0.008484265 -0.045320675
-0.45475337 0.047776222 -0.23520607 -0.8003289 -0.10095353 0.39181367 -0.29014418 0.64543337
0.014191839 0.1711712 -0.5090546 0.5351007 -0.23266095 -0.50403214 -0.34090474 0.4725809
-0.27571353 0.12387971 -0.26894504 -0.2217762 0.2655428 -0.31431112 0.63639575 0.019949978
0.45701644 0.58717895 0.37711874 -0.38188526 0.07898697 -0.020879757 -0.539128 0.023081336
-0.13080133 -0.32551152 -0.49379984 -0.2640234 -0.22972168 0.23252246 0.050698753 -0.26062056
0.2831227 0.5588412 -0.15866221 0.61332333 0.4009295 0.11334417 0.4455127 0.75242496
00000000: a2da ab3e 3394 3cbf be95 6ebe c03e 2abf
00000010: 53ff 02bf 94d3 ec3e 73f8 08bf d44b 113e
00000020: 2b09 953e 1d7b 19bf 9c5d 27bf 6f5b 6b3f
00000030: c481 f9be 5521 b4be 9601 0b3c 2ca2 39bd
00000040: 6fd5 e8be 00b1 433d dcd9 70be 5be2 4cbf
00000050: b9c0 cebd cd9b c83e c78d 94be 1f3b 253f
00000060: e384 683c 8147 2f3e 6751 02bf 5cfc 083f
00000070: ac3e 6ebe 4008 01bf 118b aebe 20f6 f13e
00000080: 532a 8dbe a5b4 fd3d 2ab3 89be 4d19 63be
00000090: 3af5 873e 63ed a0be d5ea 223f 236e a33c
000000a0: 0ffe e93e 5c51 163f b515 c13e 7786 c3be
000000b0: ecc3 a13d 060c abbc 4b04 0abf 1215 bd3c
000000c0: c9f0 05be 72a9 a6be 55d3 fcbe 132e 87be
000000d0: 293c 6bbe 5e1a 6e3e 7fa9 4f3d 0f70 85be
000000e0: 75f5 903e 3810 0f3f 5978 22be c202 1d3f
000000f0: a246 cd3e fd20 e83d 3e1a e43e ec9e 403f

map_L3.bias f4 [4]
0.077953555 -0.34800658 -0.12870744 0.05852164
00000000: 1da6 9f3d eb2d b2be e2cb 03be 63b4 6f3d

map_L4.weight f4 [1, 4]
-1.3780513 -1.4038881 0.0687879 -0.8930325
00000000: fc63 b0bf 9bb2 b3bf ace0 8c3d c79d 64bf
