model_AAE_128/ep_2000_encoder_model.pth (torch_old, 705884 bytes, 10 tensors)

map_L1.weight f4 [256, 618]
00000000: cee4 8bbf 5c31 6fbe f9ff e93f 9b2f e43e
00000010: 7599 a0be 27bf 8ec0 50bf a53f eed4 a33f
00000020: f478 6b40 b7a2 7940 7a66 0ac0 54ca 1640
00000030: 0690 e3bd ba3a 56c0 c7ba 223f 159a c840
00000040: ea55 c4bf 2d99 9fbf e207 df3e 573c 82be
00000050: b7fa bcbe 31bb d43d dc38 e8bf 19df a4be
00000060: 874b 19be 3416 82bf cdc0 55bf 32ba a3bf
00000070: fc21 283e ed5e b43f f891 8cbf 2c9f 253f
00000080: cdb8 7ebe e266 90bf c582 bfbe d681 d73e
00000090: fada e3be 94e3 623f 9cb0 d33f 2a34 373f
000000a0: a65b 80be 0198 b23f 3e70 3ebe 67fa 603f
000000b0: 6e40 1fbf 9512 febe 4d56 0a3f 7a27 f3bf
000000c0: 0637 093f d7e3 af3e e609 923f dba3 cd3e
000000d0: 7055 953e 7f6e 7d3d baa6 61bd 82cf 0f40
000000e0: 4390 c83f bd88 2540 bfc8 d9bf 89ee 81be
000000f0: 1286 07bf d987 c9bf a592 2ac0 befa 72be
00000100: 0238 ab3e 9c02 efbe 710d d23f bb8a 1e3f
00000110: b539 943f deaa 6e3f 58c8 d83d 3672 293e
00000120: 6be6 3bbf ffdd 563f e17b 9c3f 3fb7 153f
00000130: 473b 2abf 5344 5a3f e3dd aebe 66d1 5dbe
00000140: d704 33be 3072 b9be ebd4 d6bf 06f8 c9bc
00000150: 079e dfbd 22c3 06bf 40e9 993e 5d21 b4be
00000160: 3e4a 5a3f d02e 023f 5d26 1f3e 2b3f 49be
00000170: e008 193d 01db 503f c8e7 41c0 aff0 fbbf
00000180: 863b edbf d542 fcbf 22d6 f9bf 63de ebbf
00000190: 22d0 ecbf f767 fabf 7058 f2bf 840c 30c0
000001a0: f521 2ec0 177d 31c0 579f 30c0 39a6 2fc0
000001b0: a355 34c0 a6d8 31c0 8f4d 32c0 7c48 31c0
000001c0: 52c6 30c0 eeaf 8ec0 6ea3 8ec0 1237 8dc0
000001d0: eb5d 94c0 b29e 8ec0 5c74 91c0 c8b0 8cc0
000001e0: 093b 8fc0 ee67 8fc0 7ce1 8dc0 218c 97c0
000001f0: 6622 9bc0 aacb 98c0 29a1 97c0 fbe7 97c0
00000200: b911 96c0 883f 98c0 1543 99c0 6656 97c0
00000210: 5efe 97c0 c280 5e3f dbdc 573f 4ab1 4f3f
00000220: d676 543f 4540 623f 912d 503f 5028 4b3f
00000230: 9cd0 453f 275f 523f 96c8 523f 826f 61c0
00000240: 3d96 5fc0 a6c0 5bc0 f6ff 5cc0 37e3 56c0
00000250: 4821 62c0 166d 59c0 95be 60c0 9a1a 61c0
00000260: 837d 63c0 1b8d 3e3f 9d02 cd3e 4cb7 92be
00000270: 16b9 0ebe 4616 80bd 9c0e edbd 0728 34bd
00000280: 8d82 72bc 76af 6dbe df84 973d 72c5 ddc0
00000290: 6b33 e0c0 f096 e3c0 b5e9 dac0 f6e8 dcc0
000002a0: 2808 dcc0 8a82 e5c0 da47 dfc0 39dd d5c0
000002b0: c229 e0c0 0b39 4abf 1072 f83d e7d9 303f
000002c0: 76c2 643f 3db6 fabf 58a4 ff3e b572 a9bf
000002d0: cf40 fabd fa74 bb3e 8e9c 86bf b126 a7be
000002e0: 6d99 df3e be91 553e df4f babe b574 8a3f
000002f0: aa88 063f 466a 683f 4e6b 76bd 8198 a83e
00000300: 8e8d 1140 a157 ab3f dfa0 d03f aa4f cc3d
00000310: 446c 82be 4781 193f 1dd9 cdbf bf6a e0bf
00000320: 0084 f5be 0bdd b4bf 5ac7 c73f 94dc c9bf
00000330: e48c a83b 0aa0 203f 03d7 1dbf 5dab 813e
00000340: ad32 973f a9b1 d2be 053b 0dbf 12f9 513e
00000350: d464 6cbe 7e66 963f 4ad7 60be ce24 58bf
00000360: e5f7 e23f 4fdf 8fbf 9753 643f 1480 f6be
00000370: 76cf a63f 964d 00bf d870 2040 b203 cb3e
00000380: 1e0c de3e cd4d c93e 9cea 88bf b0c0 48bf
00000390: e069 9a3f fcbb 1e3f 8543 2dc0 dfdb 9cbe
000003a0: 127c 2b3e eb56 64be c3ea 563f f46b dc3e
000003b0: 79cf 653f 7d6d d53f 93ca 3fc0 4db3 7d40
000003c0: 2db5 86bf 06ea 943f 8c5d 47be 3e66 8abf
000003d0: 6a92 b5bf b829 d23f 387c 61bf 6458 d2bf
000003e0: b2b7 bfbe 7525 35be 412f c5bf e725 2040
000003f0: 6e54 d1bf 4bcd 53be c1b3 9f3f 74d6 0abf
-1.0929201 -0.23358673 1.8281242 0.4456757 -0.31367078 -4.460834 1.2949009 1.2799356
3.6792574 3.9005563 -2.1625047 2.3560991 -0.11111455 -3.3473344 0.6356625 6.268809
-1.5338719 -1.246862 0.43560702 -0.2543666 -0.3691003 0.103872664 -1.8142352 -0.3220146
-0.14970218 -1.0163026 -0.83497316 -1.2791197 0.16419214 1.4091469 -1.0982046 0.64696
-0.24875183 -1.1281397 -0.37404457 0.42091244 -0.44503003 0.88628507 1.6538272 0.7156397
-0.25069922 1.3952638 -0.18597504 0.87882084 -0.62207687 -0.49623552 0.54037935 -1.8996422
0.53599584 0.34353516 1.1409271 0.40164074 0.29166746 0.061872955 -0.055090643 2.2470403
1.5669025 2.5864708 -1.7014388 -0.253773 -0.5293895 -1.5744582 -2.6652005 -0.23728463
0.33441168 -0.46681678 1.6410352 0.61930436 1.1580111 0.9322947 0.105850875 0.16547474
-0.73398465 0.8393249 1.2225305 0.58482736 -0.664967 0.85260504 -0.3415366 -0.2166191
-0.17482315 -0.3621993 -1.6783727 -0.0246544 -0.10918813 -0.526415 0.30060768 -0.35181704
0.85269535 0.5085268 0.15541978 -0.19653003 0.03736198 0.81584173 -3.0297718 -1.9682826
-1.853379 -1.9707896 -1.9518473 -1.8427242 -1.8501017 -1.9562978 -1.8933239 -2.750764
-2.7208226 -2.7732599 -2.7597253 -2.7445204 -2.8177269 -2.7788482 -2.7859838 -2.770049
-2.7621045 -4.458976 -4.45745 -4.4129725 -4.6364646 -4.456872 -4.545454 -4.3965797
-4.4759564 -4.4814367 -4.433775 -4.7358556 -4.847949 -4.7748613 -4.738423 -4.747068
-4.6896634 -4.7577553 -4.7894387 -4.7292967 -4.7498007 0.8691522 0.84321374 0.81129897
0.8299383 0.8837932 0.8131953 0.79358387 0.7727144 0.8217644 0.8233732 -3.522431
-3.4935448 -3.4336333 -3.4531226 -3.357618 -3.5332813 -3.397283 -3.5116322 -3.5172486
-3.5545356 0.7443406 0.40041056 -0.2865547 -0.13937792 -0.06254248 -0.11575052 -0.043983486
-0.014801634 -0.23211464 0.0739839 -6.930352 -7.0062766 -7.112175 -6.8410287 -6.9034376
-6.8759956 -7.172185 -6.977521 -6.6832547 -7.0050974 -0.7899329 0.12131131 0.6908249
0.89359224 -1.9586865 0.49930072 -1.3238131 -0.122193925 0.36612684 -1.0516527 -0.32646707
0.43671742 0.20856377 -0.36389062 1.0816866 0.5255228 0.9078716 -0.060160927 0.3292885
2.2742648 1.3386117 1.6299094 0.09976132 -0.25473225 0.59962887 -1.6081883 -1.7532576
-0.4795227 -1.4129957 1.5607712 -1.577044 0.0051437486 0.627442 -0.61656207 0.25326052
1.181234 -0.4115117 -0.5516818 0.20505169 -0.23085338 1.1750028 -0.21957126 -0.8443116
1.7731901 -1.1240023 0.8919005 -0.4814459 1.3032062 -0.50118387 2.5068874 0.39651257
0.4336862 0.3931717 -1.0696597 -0.7841902 1.206356 0.6200559 -2.707246 -0.30636498
0.16746548 -0.22298782 0.8395197 0.43051112 0.89769703 1.6674038 -2.9967391 3.9640687
-1.052404 1.1633918 -0.19469279 -1.0812452 -1.4185307 1.6418982 -0.8808017 -1.6433225
-0.37444836 -0.1769007 -1.5405046 2.5023134 -1.6353891 -0.20683782 1.2476732 -0.5423348

map_L1.bias f4 [256]
00000000: 645b 0b3f 5f8a 7dc1 5669 80c1 eb73 7fc1
00000010: d48b 80c1 66ac 81c1 0b1c 80c1 da7c 82c1
00000020: 4841 81c1 c824 7ec1 be20 7fc1 630e 7ec1
00000030: 163a 7dc1 4e2e 113f 445b 7cc1 908c 7ec1
00000040: f6b7 80c1 0d02 80c1 c1bd 7cc1 6c30 82c1
00000050: c449 7ac1 0805 82c1 4d42 80c1 6712 43c0
00000060: cdf7 abc0 13c9 4fc0 3d48 80c1 77c5 75c1
00000070: b8d6 7ec1 7272 7cc1 0b5b 82c1 6bb6 80c1
00000080: bab6 80c1 c356 82c1 9368 7ec1 67bd 7fc1
00000090: b67a 7bc1 21df 7dc1 9e88 913e 2c91 7bc1
000000a0: 2dee 80c1 0a0d 82c1 0516 80c1 7646 80c1
000000b0: 5b12 0041 b7c9 6840 afb8 80c1 12d4 80c1
000000c0: 9360 81c1 d711 7dc1 4fb0 81c1 6702 99be
000000d0: bfca 83c1 8be9 81c1 272c 6fc1 9d2d 81c1
000000e0: 7cb2 7fc1 7130 84c1 8e1b 7fc1 7c49 80c1
000000f0: 142a 7cc1 3086 7fc1 97d9 7cc1 cd25 7fc1
00000100: 0a35 7cc1 b89c 7dc1 b54b 7fc1 6dd1 80c1
00000110: 00b8 81c1 97c3 71bf df77 71c1 221a 80c1
00000120: 1499 80c1 cda0 7ac1 5560 80c1 c7b5 81c1
00000130: e6cf 82c1 09a2 7fc1 c7f0 54c0 0f0c 82c1
00000140: a26a 8140 910d 7dc1 09a3 79c1 5469 7fc1
00000150: 1c32 7bc1 783f 7fc1 d642 7cc1 ac8a 83c1
00000160: 3b8e 80c1 def4 80c1 7101 7ec1 d668 80c1
00000170: 1562 81c1 e745 81c1 aa73 4940 4064 7fc1
00000180: df23 7cc1 f474 7fc1 4815 74c1 6eb3 7ac1
00000190: f295 7ec1 8a3f 42c1 280c 7bc1 171a 80c1
000001a0: a804 7fc1 3bdf 80c1 bc6f 80c1 99dd 81c1
000001b0: 1dc9 80c1 46ed e13f bfbf 80c1 5961 7fc1
000001c0: 79d0 f23e febe 80c1 cdd6 80c1 bd04 c2be
000001d0: b953 79c1 72fd 80c1 b15c 7fc1 b8be 81c1
000001e0: c5fc 7fc1 12a4 7ac1 1d17 82c1 92b2 503e
000001f0: fdab 64c1 abe0 81c1 c3eb 7cc1 be1e 7bc1
00000200: e7fa 78c1 b283 80c1 b5aa 83c1 76ba 80c1
00000210: 17cf 80c1 afe6 7dc1 408c 82c1 95bd 7bc1
00000220: 52c8 7ec1 a0e3 80c1 4c70 7bc1 0b51 7cc1
00000230: 0bb0 7dc1 9e37 7c40 3d5d 7ac1 1cf9 81c1
00000240: ddbc 80c1 a2b1 7bc1 cce8 78c1 4130 7ec1
00000250: abb2 81c1 6af2 a040 5089 7bc1 2837 82c1
00000260: 9bac 81c1 4373 7fc1 22ab 7ec1 9310 81c1
00000270: 0ed5 7bc1 da26 7dc1 f447 7fc1 2c8b 613f
00000280: 9515 80c1 2069 80c1 9d10 7fc1 95e6 7bc1
00000290: 6692 83c1 8279 7ec1 8ae8 7ac1 20fa 7bc1
000002a0: e922 80c1 24ea 80c1 ff94 69c1 e41d 82c1
000002b0: 78de 5840 f5bb 81c1 70ed 80c1 2238 82c1
000002c0: 3167 7ec1 d086 81c1 ce2a 6fc1 625e 81c1
000002d0: 4e15 83c1 e0fd 7cc1 bb04 66c0 bdcf 75c1
000002e0: 6e6a 80c1 7681 80c1 fa1a 79c1 ceed 80c1
000002f0: 8b30 4cc0 42f6 7ec1 aec3 6dc1 b981 81c1
00000300: 53dd 7ec1 7911 7cc1 9aa4 80c1 0f2d 7dc1
00000310: 9fbc 80c1 e65f 7ec1 d309 64c1 4072 82c1
00000320: e6dc 80c1 849a 5bc1 ea4a 7ec1 ac1a 80c1
00000330: bd1e 7fc1 05d5 81c1 57df 80c1 0041 81c1
00000340: 9dec 81c1 f0b5 80c1 47e2 81c1 9de8 76c1
00000350: d1e1 b43f 30c8 7bc1 e752 81c1 da63 80c1
00000360: dcfc 80c1 ff40 80c1 892b 7fc1 843c 82c1
00000370: 2185 80c1 5536 f5bf c578 81c1 c72c 82c1
00000380: 4cac 15bd 1308 7ec1 cc62 81c1 4736 79c1
00000390: 039b 81c1 53b6 7fc1 8ab1 44c1 5449 7dc1
000003a0: 7244 7dc1 4798 7fc1 0208 7ec1 f87f 82c1
000003b0: 61d0 7dc1 b3b2 7bc1 9836 82c1 e40e 81c1
000003c0: 27ac 7cc1 7d98 7cc1 f11b 7cc1 4bb8 80c1
000003d0: 60b0 61c0 70ce 2440 8485 14c0 8530 82c1
000003e0: 6549 80c1 470e 7ec1 2225 81c1 d65d 80c1
000003f0: 74fe 75c1 d666 7ec1 f01a 81c1 67ab 82c1
0.54436326 -15.846282 -16.051434 -15.9658 -16.068275 -16.209179 -16.013693 -16.310963
-16.156876 -15.88398 -15.945494 -15.878512 -15.826681 0.5671128 -15.772282 -15.909317
-16.089825 -16.001001 -15.796327 -16.273643 -15.643009 -16.252457 -16.032373 -3.0479982
-5.373999 -3.2466476 -16.035273 -15.360709 -15.927422 -15.777941 -16.294455 -16.089071
-16.089222 -16.292364 -15.900531 -15.983741 -15.717459 -15.866975 0.28424543 -15.722942
-16.116297 -16.256367 -16.010752 -16.034405 8.004481 3.6373117 -16.090178 -16.10355
-16.172155 -15.816855 -16.211088 -0.29884645 -16.473997 -16.239035 -14.948279 -16.147272
-15.981075 -16.523653 -15.944227 -16.035881 -15.760273 -15.970261 -15.8031225 -15.946729
-15.762949 -15.850761 -15.955983 -16.102259 -16.214844 -0.9443907 -15.091765 -16.01276
-16.074745 -15.664258 -16.047037 -16.213758 -16.351513 -15.977059 -3.327196 -16.255888
4.0442667 -15.815812 -15.6023035 -15.963215 -15.699734 -15.952995 -15.766317 -16.44271
-16.069448 -16.119564 -15.875352 -16.05119 -16.172892 -16.159132 3.1476846 -15.961975
-15.758758 -15.966053 -15.255196 -15.668806 -15.911608 -12.140512 -15.690468 -16.01274
-15.938637 -16.109 -16.054558 -16.233202 -16.0982 1.7650535 -16.093626 -15.9612665
0.47424677 -16.093258 -16.104883 -0.3789424 -15.58294 -16.123753 -15.96013 -16.218124
-15.999211 -15.665056 -16.261286 0.20380619 -14.291989 -16.234701 -15.807559 -15.695005
-15.561255 -16.064304 -16.458353 -16.091045 -16.101118 -15.868819 -16.318481 -15.733785
-15.923906 -16.111145 -15.714916 -15.769786 -15.855479 3.9408946 -15.647763 -16.246635
-16.092218 -15.730867 -15.556835 -15.886781 -16.21224 5.0295916 -15.721024 -16.276932
-16.20928 -15.96564 -15.91678 -16.133093 -15.739515 -15.821985 -15.955067 0.88102984
-16.010538 -16.05133 -15.941556 -15.743794 -16.446484 -15.904665 -15.681772 -15.748566
-16.017046 -16.114326 -14.598876 -16.264595 3.3885784 -16.216776 -16.115936 -16.277409
-15.900193 -16.190826 -14.94795 -16.171085 -16.385403 -15.811981 -3.5940387 -15.363217
-16.051968 -16.063213 -15.569086 -16.116116 -3.1904628 -15.935122 -14.860273 -16.188341
-15.929034 -15.754266 -16.080372 -15.823501 -16.0921 -15.898413 -14.2523985 -16.305786
-16.10786 -13.725224 -15.89329 -16.013023 -15.945004 -16.229013 -16.109053 -16.156738
-16.240534 -16.088837 -16.235487 -15.43179 1.4131414 -15.736374 -16.16548 -16.048756
-16.123466 -16.031736 -15.948129 -16.279549 -16.065004 -1.9157206 -16.18397 -16.271864
-0.03654127 -15.876971 -16.17324 -15.575751 -16.20069 -15.982013 -12.2933445 -15.830402
-15.82921 -15.974677 -15.876955 -16.312485 -15.863374 -15.731128 -16.276657 -16.13227
-15.792029 -15.787229 -15.756822 -16.089987 -3.52639 2.5751 -2.3206491 -16.273691
-16.035837 -15.878486 -16.143131 -16.045818 -15.374622 -15.900106 -16.138153 -16.333693

map_L2.weight f4 [64, 256]
00000000: 475b 15be d631 523a 895d 86ba 7657 2bbc
00000010: 787a e9b9 21e6 47bc db8a 0cbb 8e18 8dbb
00000020: c68e 4eb9 f995 42bc dc6b ed3b 399d 9f3b
00000030: d328 ecbb fbd4 f63c 9f64 c7bb e726 e4ba
00000040: 4fed de3a 2811 40bb c263 a2ba 9176 14bc
00000050: 00b5 b039 70be 6dbc 109b 29bc f8a8 4cbf
00000060: 85bf 86be 7dbc 263f a482 213c bfa9 c8bb
00000070: d097 c7bc c568 31ba f6d4 38bc 9483 49ba
00000080: f6b4 4bbb bea7 8f3a 47f3 10bc b1f9 aebb
00000090: af8f b1bb 5c79 b5bb c54c 46be 8d52 26bc
000000a0: 25fd 52bc a7b4 d1bb 74be 82bc 9ee0 d83b
000000b0: 24e1 dbbe 9291 0b3e a880 eebb 8fc1 3dbc
000000c0: 07d6 03bc 31ef 58bc 19b2 77ba 6c07 e23f
000000d0: 581c a83a 01ae 09bc c040 afbb cd0f 19b9
000000e0: 0333 d4bb d610 19bb 72b2 e5bb c7f3 89bb
000000f0: 950a 52bb 9144 7abc 582d 0ebc ef7e 2abb
00000100: 2ab3 c7bb e182 89ba ad8b 8ebc bfce 02bc
00000110: 2000 153b ac7c 34be c34f baba 8e1a 65bb
00000120: 6708 38bc 7aff 34bb ea39 86bb a3ab 713b
00000130: 275e eab9 8237 30bc 98ae 74be f252 c4bb
00000140: baa5 ef3e 34ec 68bb fb1b 03bc c6da 52bc
00000150: 444e 4ebb 8e6c 01bc 5026 d9bb 664e 2fbc
00000160: 7917 7cbc cec4 00bc d9ca 4f39 f600 023c
00000170: d864 f7bb d280 2cbc 5750 a0be cca0 cfbb
00000180: 5496 fbba 8d55 49bc ec53 1aba c27f 34bc
00000190: 020b 9abb b632 a3ba 69f9 28bc ec0e 6fb9
000001a0: 5bba 2cba 6477 b83a 9d9a 433c 0489 4abc
000001b0: bcb0 e63b 9386 493d 937b aebb 82cb 7dbc
000001c0: e205 4dbe 6d02 1f3b 40b2 43bc edaa 3fbf
000001d0: a3ac 69bc 4c9f bcbb f59e 36bc c66f 7fbb
000001e0: 3886 c7bb 95d9 dcbb e6a3 1cbb 21cd 1c3d
000001f0: cbed 70bb df9e 4f3b 9153 94bb e9d9 5fbc
00000200: 61ab 94bb 7b6b 12bc 5514 98bb 9b68 ac3b
00000210: 7a07 3d3b e6ed cebc 60f0 6abb 0f5d f8bb
00000220: e8dd ecbb 6cd6 1b3b 6332 47bb da2d cbbb
00000230: 1874 4e3b f05a f53e 9e10 fd3b 71dd f43b
00000240: e205 2d3a cf60 76bc 439b 8f3a bf81 833a
00000250: 6a77 fbbb 1532 50bf 359f 04bc e8c3 a1bb
00000260: b1ec 4fbb f6cd 8abb 7a11 f8bb ec4b d8bb
00000270: 95f2 8fbb 34f0 b1bb 5bca f0bb 7755 57bc
00000280: d6b9 37bc f696 9abb a308 83bc af82 a7bb
00000290: e6d4 50bc d2ee cd3a 05ee 58bb 863a 17bc
000002a0: c569 e1bb 72de 05bc 5bd5 5ebb 1105 65bc
000002b0: 1d90 b3bd c0de 30bc 94df 25bc 242f 4abc
000002c0: 646d 2fbc 0fca 2bba a377 e3ba 6cec 22bc
000002d0: 97d1 26bc c684 13bc 5a21 d83e 8ea8 1ebc
000002e0: 4810 43bc 2708 64bb 91d5 dfbb 7b9f 16bc
000002f0: af29 383e 66fa b4bb d064 14bc 2f82 113b
00000300: 45f2 18bc 87ba a93a 7964 d3bb 232a 12bc
00000310: d730 9fbb cd48 8439 ee71 2bbb b6ef 2dbb
00000320: 680e 49bc eb43 23bb 6d29 72bb 9908 1139
00000330: e507 a4bb 690a f9bb 24c3 553b 2e80 09bc
00000340: c403 d1bb 5caf d3bb eeb0 99bb 5547 1ebc
00000350: 7fdf 393f f8b0 41bc da35 b6bb a111 c73b
00000360: afd4 083c 21fd 58bc 5445 b0bb baee babb
00000370: 34a5 52bc 74c8 c23d 96b3 7c3b 6e55 eeba
00000380: 3a4f 2cbf 2504 0139 2d52 34bc 923d 9bb9
00000390: f1a5 7ebb f184 b93a 1e45 6bbb 54f6 c9bb
000003a0: 26a7 ea3b 490c 01bb f0e7 ad3b 5802 7dbb
000003b0: 9d6a b1bb bb18 e43a b55b 32bb 3cb1 21bc
000003c0: fea1 9e39 299b c4bb 15a9 463b cffb 33bc
000003d0: 4f20 aabe da27 0ebf f1d6 89be c784 0bbd
000003e0: b844 a9bb 1d05 a8bb 0c90 f6bb 1dd9 0cbb
000003f0: 69c0 413a 416a bcba abb7 b6bb 06ad b9bb
-0.14585601 0.00080182904 -0.0010251264 -0.010457864 -0.0004453247 -0.012200863 -0.002144507 -0.0043059057
-0.00019698878 -0.011876577 0.007245524 0.0048710373 -0.007207015 0.030130854 -0.006084993 -0.0017406613
0.0017007979 -0.00293071 -0.0012389349 -0.009061472 0.0003370419 -0.014510736 -0.010351911 -0.79945326
-0.26317993 0.6513136 0.009857807 -0.006123751 -0.024364382 -0.0006767626 -0.011281243 -0.0007687148
-0.0031083203 0.0010960025 -0.008847064 -0.005339824 -0.0054187397 -0.005538149 -0.19365223 -0.010151518
-0.012877737 -0.0063997093 -0.015959956 0.0066185733 -0.42945206 0.1362975 -0.0072785206 -0.0115817925
-0.008046634 -0.013240621 -0.0009448841 1.7658515 0.001282583 -0.008403302 -0.005348295 -0.00014597103
-0.0064758076 -0.0023355982 -0.0070097977 -0.0042099687 -0.0032049764 -0.015275137 -0.008677803 -0.00260156
-0.006094356 -0.0010491275 -0.017400587 -0.007983862 0.002273567 -0.17625684 -0.0014214445 -0.0034958455
-0.011232472 -0.0027618096 -0.0040962594 0.0036875985 -0.00044702107 -0.010755422 -0.23894727 -0.005991333
0.46806127 -0.0035541179 -0.0080022765 -0.012869542 -0.0031479755 -0.007899417 -0.0066268817 -0.010699844
-0.015386456 -0.007859422 0.00019816625 0.007934799 -0.0075498633 -0.01052876 -0.31311294 -0.006336307
-0.0019194582 -0.012288463 -0.0005887139 -0.011016788 -0.0047010193 -0.0012451026 -0.01031337 -0.00022798375
-0.00065890484 0.0014073667 0.011938718 -0.012361769 0.0070401113 0.049200606 -0.00532479 -0.015490415
-0.20021775 0.002426292 -0.011944354 -0.7487019 -0.014262351 -0.0057562944 -0.011146297 -0.0038976534
-0.006088998 -0.006739805 -0.0023901402 0.038281564 -0.003676283 0.0031680388 -0.0045265635 -0.013662794
-0.0045370315 -0.008936758 -0.0046410956 0.0052614934 0.0028843568 -0.025259923 -0.003584884 -0.007579453
-0.0072286017 0.0023778928 -0.0030395023 -0.0062005343 0.0031502303 0.47920942 0.007722928 0.007472687
0.0006600303 -0.015037729 0.0010956306 0.0010033174 -0.0076741474 -0.8132642 -0.008094599 -0.004936684
-0.0031726772 -0.0042359782 -0.0075704427 -0.0066008475 -0.0043929317 -0.005430246 -0.0073483414 -0.013142935
-0.01121374 -0.004717703 -0.01599533 -0.0051120142 -0.012746071 0.0015711433 -0.0033100855 -0.009230262
-0.006879064 -0.008170711 -0.0034001681 -0.013978259 -0.08767722 -0.010795295 -0.010124106 -0.012340341
-0.010707233 -0.00065532414 -0.001735438 -0.009944063 -0.010181806 -0.009003824 0.42212945 -0.009683741
-0.011905737 -0.0034794898 -0.006830879 -0.009193297 0.17984651 -0.005523014 -0.009057239 0.002220284
-0.009335105 0.0012949266 -0.0064511863 -0.008921179 -0.004858117 0.00025231243 -0.0026160437 -0.0026540584
-0.012271501 -0.0024912308 -0.0036950961 0.0001383148 -0.005005824 -0.007600118 0.0032617534 -0.008392377
-0.0063786227 -0.0064601135 -0.004690281 -0.009660562 0.7260665 -0.011821978 -0.005560619 0.0060750996
0.008351489 -0.013243944 -0.0053793583 -0.005704728 -0.01285677 0.0951089 0.003855919 -0.0018183419
-0.6730839 0.00012303943 -0.01100592 -0.00029609777 -0.0038856233 0.0014154 -0.0035899351 -0.006163398
0.007161039 -0.001969116 0.00530719 -0.0038606133 -0.0054143206 0.001740239 -0.0027215306 -0.009868916
0.00030256802 -0.005999942 0.0030313183 -0.010985329 -0.33227775 -0.5552956 -0.269218 -0.034062173
-0.0051656626 -0.0051275627 -0.007524496 -0.0021491714 0.0007391037 -0.0014374928 -0.005576094 -0.005666378

map_L2.bias f4 [64]
00000000: b076 f0bf 0aa2 e2bd 450a dcbd e398 18be
00000010: a2d3 89be 21cf edbd 4b3a 8ebd 0dcf 15be
00000020: 9838 22be 12e1 dbbd 18c0 0ebe 5cc1 26be
00000030: 17c5 08be 50f6 eabd 238a 04be e021 85bf
00000040: b68f 14be ea50 babf 2492 14be 1826 37be
00000050: 4b60 d2bd 9129 e5bd 9040 b2bd 7e3e e1bd
00000060: 0668 aabd b7d8 13be 0195 cfbd 86b9 a03f
00000070: d982 05be ebb3 b5bd 064f e3bd 87c1 f8bd
00000080: c7b5 eebd ffa0 07be fa24 03be 3985 14be
00000090: a099 f4bd 9c91 18be f1be 12be f817 3e3f
000000a0: 3aca d8bd 5906 1fbe d24b f8bd 311d 23be
000000b0: c268 10be 343a c1bd 7230 2dbe cabc c0bd
000000c0: ca3a ddbd 3d88 f7bd 633d e8bd 6a64 e1bd
000000d0: da6a 45c0 62d8 fabd a580 d8bd db01 cdbd
000000e0: 004e 16be f5c0 ffbd 399f 5abe 3a5b 05be
000000f0: a718 edbd 567a c6bd e249 f1bd 8b09 e4bd
-1.878622 -0.11066063 -0.10744146 -0.14902072 -0.26919276 -0.11611772 -0.06944712 -0.14629765
-0.15841901 -0.10736288 -0.13940465 -0.16284698 -0.13356434 -0.11472762 -0.1294332 -1.0400963
-0.14507946 -1.4555943 -0.14508873 -0.17885625 -0.10272273 -0.11189569 -0.087037206 -0.109982476
-0.08320622 -0.14438139 -0.10135842 1.2556617 -0.13038196 -0.08872207 -0.11099057 -0.121462874
-0.11655765 -0.13245009 -0.12807074 -0.14503945 -0.11943364 -0.14899296 -0.14330651 0.74255323
-0.10585447 -0.15529765 -0.121238366 -0.15929104 -0.14102462 -0.094349295 -0.16913012 -0.09411009
-0.10802229 -0.12086532 -0.113398336 -0.110054806 -3.0846467 -0.12248303 -0.10571412 -0.100101195
-0.14678192 -0.124879755 -0.21349801 -0.13023081 -0.11576968 -0.096913025 -0.1178167 -0.11134633

map_L3.weight f4 [16, 64]
00000000: cb33 b9bb 75d1 60bc 5444 093c 6069 b6bd
00000010: a5bd a1ba 9bc1 52bb 3587 3cbd 247f 013d
00000020: e269 c73b 9616 0cbd 0bf1 d5bd 03ef 333d
00000030: 5b27 6ebb 0ced 31bc 4393 ee3c 04e9 0a3a
00000040: 173a 933c bc5f b43b e71c a1bc de47 1a3d
00000050: d3b3 493d cf73 1cbc fafb 65bd be2f 453c
00000060: 307d 2fbd 4db4 9c3b f90c bebd 3ec8 f6bb
00000070: 6389 a2bd f20e 6dbd 8c0a 12bd 075a c33c
00000080: c8af 353d 4603 f73c 4d15 22bd feb6 b13c
00000090: 186c b43b 9dda 5d3d 91a0 103d 5e74 eb39
000000a0: 777e e5bb 94ab 47bb d800 09bd ee75 5abd
000000b0: aca4 413d c516 a5bd c734 203c 775d 90bd
000000c0: 0adc 12bc 5888 93bd 676e 67bd f45c 29bd
000000d0: 54fb 50bc 9e1c dbbc b877 c0bd 6ffe c4bc
000000e0: 32ea 0dbd b25a c73c 35f0 fdbb 400b 50bd
000000f0: aa6e 3cbe 1c22 2e3d 45bd 56bb 1a0e 08bc
00000100: d567 073e 1d7d 67ba e8cd 853a fee5 d5ba
00000110: a00e 0fbe 3f3b 3aba aca6 d1ba 90a9 173a
00000120: 2a27 8fbb c8f1 37bb 8b00 f23a a499 30bb
00000130: 73dd 1e3a 58be e53a 3897 7abb 3eb7 8c3d
00000140: 1dbc f3ba d14f 923d 140d 0eba e00b 3cba
00000150: d3fb f339 dcd8 5bbb 30ab 4039 4dda d2b9
00000160: 95b6 29bb d91b cfba 49d3 2b3a 8ad3 ec3e
00000170: 75c4 f138 dd7d 6bba 24b0 0039 3353 5aba
00000180: d13b 84b9 4314 8aba 63b2 ffb7 7d14 b3ba
00000190: a4d0 b9bb d553 b2bb cc01 d8ba 7608 833b
000001a0: e36c 88ba 2bb8 4fbb 6646 42ba 484e 8dba
000001b0: e275 32ba fbbe 85ba cd3b bd3c 0c16 1d39
000001c0: d385 f239 e618 74ba 2ac3 c53a ee52 3dba
000001d0: 0b2f 743e f825 653a df56 bab9 336b 1838
000001e0: a5c3 50bb 6e90 19bb 7a84 203d a901 7c3a
000001f0: 15d5 24ba 92b9 4739 c174 56b9 11d2 ac3a
00000200: 4b60 073d ded4 d23b 8e5c 8b39 2c33 aeba
00000210: 15d6 97bd 8eac 5939 b01f 453b 5939 503b
00000220: 2c3a fb3b 82e4 973b 663a fc3a e3b1 813b
00000230: f632 d8b9 9de6 18bb d080 d23b e80d 573d
00000240: 2edf 873a 5f37 cf3e d3c4 8e3b 6bc4 dc3a
00000250: be4a 4f3b 3b14 bb3b 5032 bd39 2a33 0c3b
00000260: bd5d 0a3b 7fdb 6f3a fd5f 7c3b 5c0a fdbd
00000270: 2db3 5f3b 4850 c73a 4984 fc39 7c0f 053b
00000280: e484 b0ba 3f18 9339 492d 1d3b 9e0a 8d3b
00000290: 2ead b73b cfba 033c 97c7 7b3b f8b2 2a3f
000002a0: e4ef bd38 30c9 6b3b fffa 2a3b a399 b63a
000002b0: d276 c23b 2390 183b 92d1 5b3d 42f4 933b
000002c0: 7b53 15ba b749 783b 491b 833b 8700 d63b
000002d0: 378e ccbd 89ae 0e3a 2172 683b a81a 16b9
000002e0: 0784 4f3b f7bf 6d3b b1c3 b23d 7c52 583b
000002f0: 26ed 143a 3b89 163a b1fd 913b b401 e33a
00000300: d328 d039 7ad9 053d f923 9fbc 59b5 3dbd
00000310: 10e4 72bb 9f3f 193c f226 a6bb 4143 513d
00000320: badd 823c ede0 123c 248d 71bc 76b9 333b
00000330: aff6 92bc 8223 933d 2139 35bd d97f 9ebb
00000340: 53ca 943b 9a69 1cbb 998d a1bc 4e3e 9ebc
00000350: 1eca 62bd e37e 783c 8a36 343d 3ccc b1bc
00000360: a320 f23b 04fd 9bbc 796c 26bc 8512 4aba
00000370: 5554 51bc 80d2 133d d88d 3a3c 6a4d 8fbc
00000380: 9209 703c 5e63 adbc da45 09bd a70c d43b
00000390: 54e2 583c 5e03 0fbc 6003 45bd 3874 22bb
000003a0: 8ba1 30bd c2f9 f7bc e79f b73b ca83 15bc
000003b0: 7207 1abd 446f aeba 95c8 0b3c a384 abbb
000003c0: ec93 d53c 371b 81bb 7215 17bd 1235 75bb
000003d0: 967d d1b9 114c 6dbb 249d 74bc c934 ddbb
000003e0: d157 62bb 34e5 193c d8ba 2c3b 96eb ab3c
000003f0: 5438 4ebd db42 5ebc 637f 40bb 9f8e a03c
-0.005651926 -0.013721813 0.008378107 -0.089068174 -0.0012339844 -0.0032158855 -0.04602738 0.03161539
0.0060856203 -0.034201227 -0.10446366 0.04392911 -0.0036339376 -0.010859739 0.029122954 0.0005299004
0.017972035 0.0055045765 -0.019667102 0.037666194 0.04924376 -0.009549095 -0.056148507 0.012035308
-0.042843997 0.0047822357 -0.09279818 -0.007531195 -0.07936361 -0.05787558 -0.03565459 0.02384664
0.04435709 0.030152928 -0.039571095 0.021693703 0.00550605 0.054163564 0.035309378 0.00044909393
-0.007003601 -0.0030467259 -0.03344807 -0.053335123 0.047276184 -0.080609836 0.009778208 -0.07049077
-0.008963594 -0.0720374 -0.056501772 -0.041348413 -0.012755234 -0.026747044 -0.093978345 -0.024047105
-0.034647174 0.02433524 -0.007749582 -0.05079198 -0.1840159 0.042512998 -0.0032766622 -0.008304143
0.13223203 -0.0008830594 0.001020846 -0.0016319153 -0.13970423 -0.0007104165 -0.0015995107 0.00057854597
-0.0043686824 -0.0028067697 0.0018463297 -0.0026947046 0.000606022 0.001752804 -0.0038237106 0.06870888
-0.0018595491 0.0714413 -0.0005418819 -0.00071734004 0.00046536195 -0.0033546006 0.00018374319 -0.00040216968
-0.002589618 -0.0015801146 0.0006554616 0.46255141 0.000115283685 -0.00089832937 0.00012272649 -0.00083284377
-0.0002522157 -0.0010534603 -3.0481437e-05 -0.0013662722 -0.005670624 -0.0054421225 -0.0016480028 0.0039988114
-0.0010408427 -0.0031695466 -0.0007411003 -0.0010780776 -0.0006807727 -0.0010204011 0.023099804 0.000149809
0.00046257544 -0.00093115715 0.0015088071 -0.00072221353 0.2384607 0.00087413145 -0.0003554141 3.633946e-05
-0.0031854894 -0.0023432034 0.03918884 0.00096132845 -0.0006287855 0.00019047249 -0.00020452125 0.0013185163
0.033050817 0.006434067 0.00026581105 -0.0013290397 -0.0741388 0.00020759014 0.0030078702 0.0031772463
0.0076668467 0.0046353946 0.0019243478 0.0039579733 -0.000412367 -0.0023330816 0.006424047 0.052503496
0.0010366195 0.40471932 0.0043569594 0.0016843205 0.0031630243 0.005709199 0.00036086375 0.00213928
0.0021113001 0.0009149834 0.0038509362 -0.123554915 0.0034133897 0.0015206421 0.00048163746 0.002030342
-0.0013467339 0.0002805609 0.002398329 0.004304244 0.0056053614 0.008040144 0.0038418525 0.66679335
9.0569054e-05 0.0035978071 0.0026089547 0.0013931285 0.0059345746 0.0023279272 0.05366666 0.004515202
-0.00056963385 0.0037885734 0.0040010554 0.0065308246 -0.09988063 0.0005442878 0.0035468417 -0.00014315045
0.0031664388 0.003627775 0.087287314 0.003300815 0.000568109 0.0005742495 0.004455291 0.0017319233
0.00039703268 0.032678105 -0.019426333 -0.046315525 -0.0037062205 0.009353547 -0.0050705606 0.05108953
0.015974868 0.008964759 -0.014743123 0.0027423776 -0.017939894 0.07184507 -0.044243935 -0.004837018
0.0045407205 -0.0023866654 -0.01972084 -0.019316819 -0.055368535 0.015166971 0.043997325 -0.021703832
0.0073891445 -0.019041546 -0.010157698 -0.0007708448 -0.012776454 0.03608942 0.011386357 -0.017492969
0.014650719 -0.021165546 -0.03351388 0.006471235 0.013237555 -0.00872883 -0.04809892 -0.002478851
-0.04312281 -0.030270461 0.0056037786 -0.009125659 -0.037604757 -0.0013308306 0.008531709 -0.0052343174
0.026071511 -0.003940012 -0.036885686 -0.0037415666 -0.00039957155 -0.003620867 -0.014930043 -0.0067506772
-0.0034537206 0.009393025 0.0026356485 0.02098636 -0.050346687 -0.013565744 -0.0029372803 0.019599257

map_L3.bias f4 [16]
00000000: 679e 4dbb e72e 86bd e940 09be 6b8a 07bd
00000010: 3184 84bd 1a94 bdbc a157 0fbd 6a8c 47bd
00000020: bad9 dbbc ed68 c83c d0cb 2fbd d374 63bd
00000030: 56d5 09bd f5fe 7dbc 46db 42bd 3489 a7bd
-0.0031374933 -0.06551915 -0.13403668 -0.03309099 -0.06470526 -0.02314191 -0.03499568 -0.048717894
-0.026837219 0.024464095 -0.04291898 -0.055531334 -0.03365072 -0.015502681 -0.047572397 -0.08180466

map_L4.weight f4 [4, 16]
00000000: 98c2 6e3b f129 5ebc 1df5 03bf 16b6 b33a
00000010: 376f 62bb 097f 713a 9465 c63a a635 3cbb
00000020: 7f97 59ba acdd 853c 52d9 4e3b 9324 9abb
00000030: 0dbb 84ba 1b8e 3b3a 2dc3 35bb 0a4c 8cbb
00000040: f75d 2eb9 b66c 18be bdfe 0abe ed8a 41ba
00000050: 62e3 13ba 8cfe 58b8 504c 1139 fecb ccb9
00000060: fc11 d338 642c 7cbe 94b4 ed39 a138 10ba
00000070: 7c10 e239 b151 a7b7 ee7a d0b9 b8b3 3fb7
00000080: e947 8bbb 3f39 e6b9 b3ba eaba 0a99 583c
00000090: 4d35 c0ba 5191 4fbd da02 00bd 5eda 42bd
000000a0: 3cd2 8cbc 1ba3 d0b9 dbf7 36bc d5e3 a23a
000000b0: 4a44 e2bc 9810 83bd 1783 55bb dfdf 88bc
000000c0: 2d32 53b9 40ea 09bf 0246 30bd 73bb ba39
000000d0: eede 91ba bb6f c9b8 9d09 ea37 f5de 58bb
000000e0: 64a9 ceba 2a2b b53b bc9f 363a 7f85 9dbb
000000f0: f1cd 8fba 9ffc 2bba 1788 c5ba 04f8 77ba
0.0036431905 -0.013559804 -0.5154589 0.0013710882 -0.0034551152 0.000921235 0.0015136474 -0.00287185
-0.0008300468 0.016341053 0.0031562638 -0.004704067 -0.0010126546 0.0007154659 -0.0027734742 -0.0042815255
-0.00016628938 -0.1488522 -0.13573737 -0.0007383067 -0.00056414877 -5.173548e-05 0.00013856706 -0.00039061898
0.00010064614 -0.24626309 0.00045338704 -0.00055016024 0.0004311836 -1.9945992e-05 -0.0003976444 -1.1426331e-05
-0.0042505157 -0.0004391167 -0.0017908424 0.013220081 -0.0014664322 -0.050675694 -0.03125272 -0.047571532
-0.017190091 -0.00039794375 -0.011167492 0.0012427518 -0.027620453 -0.063996494 -0.0032579356 -0.016708313
-0.0002014122 -0.5387306 -0.043035515 0.00035616345 -0.001112906 -9.605238e-05 2.789945e-05 -0.0033091877
-0.0015767035 0.005528827 0.00069665513 -0.0048071737 -0.001097141 -0.0006560776 -0.0015070465 -0.00094592595

map_L4.bias f4 [4]
00000000: 30da c4be b900 e93f f7ca a3bb c1ca a1be
-0.38447714 1.8203346 -0.0049985605 -0.316

map_L5.weight f4 [2, 4]
00000000: cabe b4bd 0870 943e 509e 5037 7522 5a3d
00000010: 64de 183e b7fe 563e 9400 ae38 86f7 aebe
-0.088254526 0.28991723 1.2434626e-05 0.053255517 0.14928585 0.20995604 8.297074e-05 -0.3417322

map_L5.bias f4 [2]
00000000: 5753 8d3e 6e0a 393e
0.27602646 0.18070385
