model_AAE_128/ep_2000_decoder_model.pth (torch_old, 708349 bytes, 10 tensors)

map_L1.weight f4 [4, 2]
1.5914842 0.66021943 -1.6522745 1.0799628 0.6298468 -1.6444796 -1.1942723 1.6085414
00000000: c1b5 cb3f 2404 293f bb7d d3bf 393c 8a3f
00000010: a43d 213f 4f7e d2bf eadd 98bf afe4 cd3f

map_L1.bias f4 [4]
-0.49644107 -0.09801793 0.26023442 0.048814684
00000000: 862d febe a0bd c8bd 723d 853e e8f1 473d

map_L2.weight f4 [16, 4]
0.2138527 0.2761135 1.9686688 -0.86763567 -0.0064882156 -0.0065678842 -0.024035443 -0.00603651
-0.005557008 -0.021838099 -0.0031985773 0.0058794585 -0.39960122 -1.3482212 -1.0842379 0.54817146
1.1637979 1.497792 -0.879558 0.40919948 0.5490198 -0.28542706 1.120862 -1.6504226
-0.45109597 -0.06946596 -1.2945656 -0.8218711 0.2512118 0.40879354 0.034745168 0.10761072
-2.3351612 0.45039922 0.4720254 -0.017225474 -0.27291802 -0.53182375 -0.85901934 1.124018
-0.57613987 1.2478817 2.1559331 -0.23711239 0.11255904 -0.30972758 0.50617784 -2.1740973
1.295146 -0.85774 0.011992518 0.46113142 0.20586807 1.5963545 -0.7318359 -2.1895993
0.3057934 1.9095179 -0.49771008 -1.8306519 -0.52547336 -2.4902165 -0.61956817 0.86303926
00000000: 34fc 5a3e c05e 8d3e 57fd fb3f 5f1d 5ebf
00000010: 199b d4bb 6837 d7bb fae5 c4bc ebcd c5bb
00000020: 9017 b6bb d0e5 b2bc 399f 51bb 79a8 c03b
00000030: 8898 ccbe 8392 acbf 4fc8 8abf f754 0c3f
00000040: 54f7 943f a6b7 bf3f b72a 61bf 9882 d13e
00000050: 908c 0c3f 7f23 92be 6878 8f3f 0c41 d3bf
00000060: 0df6 e6be 2b44 8ebd 53b4 a5bf 2566 52bf
00000070: d59e 803e 634d d13e f350 0e3d 0263 dc3d
00000080: 4873 15c0 ba9a e63e 50ad f13e 701c 8dbc
00000090: e9bb 8bbe 9a25 08bf b1e8 5bbf d2df 8f3f
000000a0: e77d 13bf 96ba 9f3f cffa 0940 97cd 72be
000000b0: 5b85 e63d 9d94 9ebe df94 013f 6924 0bc0
000000c0: 58c7 a53f d994 5bbf 447c 443c 6b19 ec3e
000000d0: 14cf 523e 5855 cc3f 9959 3bbf 6522 0cc0
000000e0: f490 9c3e 156b f43f dbd3 febe cd52 eabf
000000f0: 6c85 06bf b55f 1fc0 059c 1ebf 24f0 5c3f

map_L2.bias f4 [16]
-0.0026241452 0.0005034962 -0.003769827 -0.05915504 -1.0260468 -0.5772089 0.43296644 -0.24534485
0.5204978 0.021257475 0.30675796 -0.054912515 -1.2562943 0.38087022 0.41265404 -0.27928966
00000000: daf9 2bbb 0ffd 033a 340f 77bb 8e4c 72bd
00000010: 8055 83bf f6c3 13bf c7ad dd3e ae3b 7bbe
00000020: 583f 053f 2824 ae3c 610f 9d3e f2eb 60bd
00000030: 40ce a0bf 6c01 c33e 6447 d33e 0eff 8ebe

map_L3.weight f4 [64, 16]
0.6277113 -0.028867701 0.016242221 0.3329248 1.1083875 0.71074766 0.3113661 0.46592405
1.3601968 0.85526884 3.0627668 -0.9714534 3.1382515 1.0918587 0.5919019 0.20978044
2.751387 -0.0047661876 0.032794155 1.5867786 0.9638619 -0.42217922 0.78925025 -0.9599434
-0.33120292 -2.7542698 -1.0676969 -2.749228 -0.7179384 -0.7556 -0.0021253366 -2.1136322
-0.99756676 -0.021121323 -0.033201776 0.8558149 -0.773769 1.0705031 0.725211 0.19744323
-0.40978825 1.0756311 1.1621228 -0.034024626 0.39375183 -0.682895 1.3073412 -0.5137806
0.32303643 0.012836233 0.0007317694 -0.30540127 -1.1108266 -1.5636669 -0.17064403 0.43461126
-2.7738812 -0.5437822 0.069187686 -0.24724105 -2.853004 0.21377298 0.20863096 -0.18175775
0.6512755 -0.034365132 0.06774336 -0.23065057 2.1013243 0.66762227 0.78844386 -0.008900963
2.4509528 0.3426537 -0.51328295 0.64993274 1.6645306 0.046900682 0.44311255 0.27229902
1.7574197 0.00039272246 -0.004744815 2.6941416 -1.9347224 -0.04772596 3.2321293 1.7688458
-0.00039891203 3.3874328 -0.9650769 0.44807222 0.92108405 1.7986575 1.591516 -0.34730038
-1.0826019 -0.027408408 0.017649863 1.2795103 -0.39784765 -1.1004751 2.5155454 -2.332783
-0.34582356 1.3269658 0.090568945 3.270367 0.43023854 -1.5111712 -0.7486111 -2.5405307
-2.525736 -0.019514078 0.01923713 0.45931864 -0.85492545 2.328977 -0.5297984 0.4086682
0.81864756 1.3394418 0.87298775 0.5823192 0.9408735 -0.41104048 -0.48632643 0.18635681
1.7217234 -0.10887959 0.07302593 -0.43810314 0.6219056 -1.3523227 -0.3397365 2.0551634
-1.5170733 -0.2560843 2.415625 -1.5626649 -0.54384935 1.6497259 1.8785607 0.5551982
-0.32251474 0.033590775 0.094627015 0.14562477 0.26312408 0.25307503 0.84995985 -0.42923287
0.0007930083 0.6242034 0.018727502 0.6689371 -0.07431529 -0.08547335 0.46099272 -0.20464827
0.49898124 -0.0059966343 -0.0026865772 -0.48314533 -0.18762065 -0.46174335 0.40138355 -0.43001774
1.0261983 -0.37150678 -0.22390753 -0.42426988 0.6409998 -0.28001446 0.29849598 -0.50868094
-0.066414915 0.009080772 -0.005532804 2.3234959 -1.8043427 0.20595087 1.5812036 1.2538687
-0.4265262 2.6805043 0.34989858 0.9426432 0.73966557 0.528528 2.1950948 -0.50153273
-1.785046 -0.0033037409 0.030798716 1.2174029 -0.67052627 1.3982005 1.4550477 -0.5795962
0.21763194 0.92996496 0.1610149 1.2669898 0.29195967 -2.1174805 -0.09437267 -1.4935977
-0.44151044 -0.003539548 0.020596629 -0.40268013 -0.33815646 -0.64450943 0.07933332 -0.6194888
-2.166631 -0.8931983 0.17445335 -0.28235638 -2.4006236 -0.012345509 0.0366099 0.16900393
1.1398284 0.041810133 -0.0834749 1.7110891 -0.05317629 -1.7949662 1.5651278 -1.5342315
0.2617064 1.7167889 -0.20420423 2.0255241 1.0347073 0.87839717 1.1120389 -0.81536806
0.8528321 0.021834997 -0.012033785 -0.7227677 0.44615957 -1.2475191 -0.7827842 0.8001301
-2.0243342 -0.409415 2.668645 -1.1670346 -0.9482181 1.014411 1.4110237 0.24332081
00000000: b0b1 203f f57b ecbc 680e 853c 1f75 aa3e
00000010: a4df 8d3f 8ff3 353f 616b 9f3e 998d ee3e
00000020: ee1a ae3f e6f2 5a3f 5f04 4440 2cb1 78bf
00000030: 1dd9 4840 07c2 8b3f e286 173f afd0 563e
00000040: b916 3040 ae2d 9cbb 2a53 063d 901b cb3f
00000050: a7bf 763f e027 d8be 4e0c 4a3f dabe 75bf
00000060: 6e93 a9be f545 30c0 4baa 88bf 5af3 2fc0
00000070: d0ca 37bf 006f 41bf 3b49 0bbb c045 07c0
00000080: 8960 7fbf a006 adbc 96fe 07bd af16 5b3f
00000090: ba15 46bf 3f06 893f 6ea7 393f 8f2e 4a3e
000000a0: c4cf d1be 48ae 893f 71c0 943f 685d 0bbd
000000b0: d799 c93e 35d2 2ebf f556 a73f 2087 03bf
000000c0: 0865 a53e 104f 523c 37d4 3f3a 8e5d 9cbe
000000d0: 912f 8ebf 3d26 c8bf 4fbd 2ebe 5e85 de3e
000000e0: 4587 31c0 4f35 0bbf 46b2 8d3d c22c 7dbe
000000f0: 9e97 36c0 4ee7 5a3e 5ba3 553e b41e 3abe
00000100: feb9 263f 74c2 0cbd 08bd 8a3d aa2f 6cbe
00000110: 197c 0640 4be9 2a3f 75d7 493f 58d5 11bc
00000120: 69dc 1c40 4e70 af3e 8366 03bf fe61 263f
00000130: 570f d53f ee1a 403d a6df e23e c76a 8b3e
00000140: 21f3 e03f 51e6 cd39 657a 9bbb d16c 2c40
00000150: fca4 f7bf 4c7c 43bd 35db 4e40 8a69 e23f
00000160: 1125 d1b9 b3cb 5840 480f 77bf b969 e53e
00000170: 2acc 6b3f 693a e63f ccb6 cb3f 5bd1 b1be
00000180: b392 8abf 9987 e0bc 7296 903c fec6 a33f
00000190: b0b2 cbbe 5edc 8cbf b2fe 2040 514c 15c0
000001a0: c90f b1be 04da a93f 367c b93d b14d 5140
000001b0: 3a48 dc3e 0f6e c1bf faa4 3fbf 0e98 22c0
000001c0: a9a5 21c0 fddb 9fbc 3097 9d3c d02b eb3e
000001d0: 65dc 5abf f60d 1540 dea0 07bf f53c d13e
000001e0: e392 513f d472 ab3f 207c 5f3f df12 153f
000001f0: 16dd 703f e673 d2be c7ff f8be 52d4 3e3e
00000200: 6f61 dc3f 43fc debd 9e8e 953d 0e4f e0be
00000210: 3535 1f3f e918 adbf f1f1 adbe cc87 0340
00000220: 752f c2bf 7b1d 83be 9a99 1a40 6705 c8bf
00000230: b639 0bbf 382a d33f ad74 f03f 7821 0e3f
00000240: a720 a5be 7b96 093d cfcb c13d a91e 153e
00000250: 33b8 863e 0d93 813e f896 593f 69c4 dbbe
00000260: e3e1 4f3a cbcb 1f3f 6b6a 993c 763f 2b3f
00000270: 9d32 98bd a70c afbd 3d07 ec3e 518f 51be
00000280: 787a ff3e 6a7f c4bb 4911 30bb d35e f7be
00000290: a11f 40be a069 ecbe 2582 cd3e 492b dcbe
000002a0: 775a 833f 2336 bebe 0448 65be e739 d9be
000002b0: 9018 243f 0e5e 8fbe 77d4 983e ea38 02bf
000002c0: 8b04 88bd 85c7 143c 864c b5bb 28b4 1440
000002d0: b4f4 e6bf c9e4 523e e164 ca3f c57e a03f
000002e0: a461 dabe 628d 2b40 e825 b33e 1151 713f
000002f0: b95a 3d3f 9c4d 073f 6f7c 0c40 7364 00bf
00000300: 637c e4bf 9383 58bb 974d fc3c dcd3 9b3f
00000310: 9ca7 2bbf 3cf8 b23f 013f ba3f 6b60 14bf
00000320: e8da 5e3e 2f12 6e3f 17e1 243e b92c a23f
00000330: bd7b 953e cd84 07c0 7546 c1bd 362e bfbf
00000340: a80d e2be c3f7 67bb 43ba a83c 172c cebe
00000350: d822 adbe 92fe 24bf 8279 a23d d196 1ebf
00000360: 15aa 0ac0 a5a8 64bf e6a3 323e 0491 90be
00000370: d1a3 19c0 d144 4abc 43f4 153d 5e0f 2d3e
00000380: e6e5 913f 1a41 2b3d e3f4 aabd f804 db3f
00000390: 62cf 59bd 74c1 e5bf 1c56 c83f b361 c4bf
000003a0: 62fe 853e bdbf db3f ea1a 51be 30a2 0140
000003b0: 4a71 843f a3de 603f 4a57 8e3f f6bb 50bf
000003c0: 3453 5a3f 4fdf b23c 5a29 45bc 4e07 39bf
000003d0: 076f e43e b5ae 9fbf 8c64 48bf 54d5 4c3f
000003e0: b18e 01c0 d89e d1be 14cb 2a40 6461 95bf
000003f0: 6cbe 72bf 38d8 813f 6d9c b43f 1729 793e

map_L3.bias f4 [64]
0.13940929 -0.09341979 -0.37826392 -0.8102188 0.68313336 -1.3805355 -0.71608126 0.26292455
-0.5666893 -0.10212959 0.49523118 -1.0050107 -0.19750294 -0.39815822 -0.7658113 -0.5424544
-0.9163795 0.34477845 0.4201808 0.29749253 -0.17964326 -0.9225557 0.10589385 -0.5278772
0.30026856 -0.35662162 -0.4572915 0.31362364 -1.559786 -0.3150246 -0.120701864 -0.8238359
0.5213339 -0.3247659 0.023658955 0.32436994 -0.060302746 -0.63595366 0.47137132 -0.6405524
-0.5789994 -0.26976737 0.16124363 -0.33868593 -0.012650444 -0.31112176 0.62229043 0.15931995
0.099110186 -0.355577 0.39367715 0.01473051 -0.6324458 -1.0352796 0.05788641 -0.6030713
0.080347784 -0.5307088 -0.41193184 0.091925286 -0.16475831 0.83363277 -0.08595942 -1.1649162
00000000: 4fc1 0e3e e052 bfbd cfab c1be 806a 4fbf
00000010: d4e1 2e3f 63b5 b0bf 1a51 37bf 0c9e 863e
00000020: 8d12 11bf 5229 d1bd f18e fd3e 31a4 80bf
00000030: 363e 4abe 65db cbbe 360c 44bf 4bde 0abf
00000040: d997 6abf cd86 b03e f021 d73e f150 983e
00000050: 67f4 37be 9c2c 6cbf e0de d83d f622 07bf
00000060: cdbc 993e 1c97 b6be 1d22 eabe 4793 a03e
00000070: 11a7 c7bf e84a a1be 8a32 f7bd e9e6 52bf
00000080: 2376 053f b747 a6be 6dd0 c13c d113 a63e
00000090: 0300 77bd dccd 22bf 9557 f13e 3efb 23bf
000000a0: 4e39 14bf f31e 8abe 0d1d 253e 3e68 adbe
000000b0: cf43 4fbc 5a4b 9fbe 6d4e 1f3f c524 233e
000000c0: 48fa ca3d 300e b6be 0d90 c93e 3d58 713c
000000d0: f8e7 21bf 0b84 84bf 4d1a 6d3d e162 1abf
000000e0: 618d a43d 88dc 07bf bbe8 d2be 5343 bc3d
000000f0: 67b6 28be f568 553f 7e0b b0bd f91b 95bf

map_L4.weight f4 [256, 64]
0.14274278 2.5637712 0.20029621 -2.3962505 0.20733914 -0.19755076 -1.1454356 2.476995
-0.49014452 -0.26194224 0.32802874 0.13597076 -0.90938 1.5092689 -2.0693338 0.18441366
-3.2045505 -0.63753426 -2.243469 0.5373296 -0.018223774 -1.0980921 0.28362766 0.6213159
0.3782041 2.473637 1.0431776 -1.5377227 -0.021521125 -0.5480654 0.075393185 0.968699
3.2822137 2.195521 -0.9691392 -0.9598822 2.0798297 -1.5179474 -1.557509 1.5839579
-1.218294 -0.16055614 -0.034677558 0.45514497 -0.67412025 -0.70275134 -0.4219126 1.7298454
-0.43846348 1.4367847 -3.6526418 1.2990358 -1.4410756 -0.9794901 -0.024363296 -1.7286026
-0.9874771 -0.36098412 -1.51962 0.3998792 1.6667188 1.1897701 -1.4522437 0.63983244
0.37039626 0.48860258 0.12815027 4.4239454 -1.43262 0.50408083 0.5623656 -1.6491485
2.7420735 -0.8975784 0.6974741 -0.14634183 -0.22895835 2.9307685 0.25284687 1.0286053
1.0384047 0.6047326 1.6003348 -1.0668955 0.06492841 -0.4523056 -0.9587699 0.30933404
-0.4202506 0.07597015 -0.22937493 -1.7764614 0.3655945 0.09605917 0.15748104 -0.99810976
-2.3534288 -0.36530137 0.72667706 -0.64554864 1.6328821 -0.38206038 -1.211215 -0.88208526
0.13108662 -0.0024845349 -0.8740144 2.5069373 -0.3185359 -3.620095 -0.72759366 -0.6229177
1.0495526 2.3678446 -2.2637644 1.0257351 -2.3655798 0.074144825 -1.9330117 1.6436555
-1.268708 0.01870974 2.18747 -0.4440963 -0.6022695 -1.0194608 -0.4267426 0.23501796
0.011323348 -0.21054867 -0.2912358 -0.89429903 -1.3741657 0.076995485 0.36663866 0.5520993
-0.36049104 0.12186021 -0.68289757 1.8637725 -0.35007226 1.2779129 0.04604705 0.3368776
0.14924437 -2.7795126 -1.1751229 -0.6752777 0.09704052 -1.1614684 1.408199 -0.8328086
-0.24914193 0.73057127 -0.0041154204 -0.15714726 -0.14903936 -0.33435276 -1.0648555 0.25271156
-0.8750748 -0.14930671 -2.8118258 0.17757826 -3.3042202 -2.556638 -1.9079701 0.1758371
1.3844441 -0.14495638 -0.21856652 0.26531267 0.49493045 -0.5178539 0.07245514 -0.076222636
0.2068554 1.1085984 -0.9363233 -0.9622548 0.89163613 -1.4915036 -2.0813289 -0.9630597
0.9504049 -0.8810108 0.83163047 -0.5280358 2.4482067 1.495851 -1.3791779 -0.32171765
-1.7488894 -0.5160763 0.03018276 -1.4426914 -0.7089203 -1.7290753 -1.1835386 -1.9537458
0.11828103 -0.6025902 -0.78398925 1.8014525 -0.43702903 0.27467617 -0.5605391 -0.47219917
-0.6105505 -0.18027142 1.765775 -3.5426211 -0.2611329 -0.5912518 1.6310925 0.0031379906
-1.5183088 -2.3051374 -0.09602264 1.0756574 -1.2295258 0.41522813 -0.8266063 -2.426486
-0.11315073 0.43276557 -0.6253965 0.3780892 0.8323301 -0.6357678 -0.802126 1.0163386
-0.722025 1.4604704 -3.241588 -1.1581033 -1.0110419 -1.6034195 -4.630415 1.0787623
-4.1202893 -1.1692157 0.20934463 0.3358953 -1.6572994 -0.841356 1.3372264 0.82193524
1.0624809 -0.20065853 -1.52917 1.1210725 -1.1955615 -0.74862045 -0.7732255 -0.23580384
00000000: 2a2b 123e d414 2440 731a 4d3e 2b5c 19c0
00000010: b650 543e bf4a 4abe a29d 92bf 1687 1e40
00000020: 39f4 fabe 4b1d 86be 62f3 a73e eb3b 0b3e
00000030: 21cd 68bf b92f c13f f76f 04c0 efd6 3c3e
00000040: 5b17 4dc0 7235 23bf ff94 0fc0 6f8e 093f
00000050: 064a 95bc 488e 8cbf a537 913e 8f0e 1f3f
00000060: f8a3 c13e 1250 1e40 d886 853f 19d4 c4bf
00000070: 124d b0bc 044e 0cbf be67 9a3d a8fc 773f
00000080: ca0f 5240 6b83 0c40 8219 78bf d7ba 75bf
00000090: ee1b 0540 1a4c c2bf 745c c7bf 22bf ca3f
000000a0: 0ff1 9bbf d468 24be 0e0a 0ebd c308 e93e
000000b0: 2593 2cbf 83e7 33bf ee04 d8be 936b dd3f
000000c0: 497e e0be 90e8 b73f e2c4 69c0 ce46 a63f
000000d0: 2a75 b8bf ddbf 7abf 8995 c7bc da42 ddbf
000000e0: 4dcb 7cbf e9d2 b8be e882 c2bf f7bc cc3e
000000f0: 0b57 d53f 634a 983f 1fe3 b9bf 0fcc 233f
00000100: 94a4 bd3e 1e2a fa3e d339 033e f690 8d40
00000110: 1860 b7bf 710b 013f 31f7 0f3f 4c17 d3bf
00000120: 227e 2f40 b3c7 65bf aa8d 323f a2da 15be
00000130: 0f74 6abe b691 3b40 2575 813e 57a9 833f
00000140: 72ea 843f c1cf 1a3f c5d7 cc3f 0890 88bf
00000150: 30f9 843d 9994 e7be f271 75bf 0861 9e3e
00000160: 162b d7be 3d96 9b3d 43e1 6abe 1663 e3bf
00000170: 342f bb3e acba c43d b642 213e 1f84 7fbf
00000180: 949e 16c0 c808 bbbe 8207 3a3f ad42 25bf
00000190: 4802 d13f 6b9d c3be 1809 9bbf 57d0 61bf
000001a0: 923b 063e 94d3 22bb 68bf 5fbf a971 2040
000001b0: 2317 a3be a3af 67c0 9443 3abf 8977 1fbf
000001c0: bd57 863f c48a 1740 84e1 10c0 4a4b 833f
000001d0: a965 17c0 3ed9 973d ed6c f7bf 4e63 d23f
000001e0: 0665 a2bf 2b45 993c 82ff 0b40 9760 e3be
000001f0: 552e 1abf b17d 82bf 027e dabe 8ca8 703e
00000200: 9085 393c 129a 57be dc1c 95be c8f0 64bf
00000210: a9e4 afbf cfaf 9d3d 10b8 bb3e 6156 0d3f
00000220: 4892 b8be d991 f93d 60d2 2ebf 1990 ee3f
00000230: ac3c b3be a692 a33f d59b 3c3d 397b ac3e
00000240: 84d3 183e 89e3 31c0 6d6a 96bf 00df 2cbf
00000250: 2ebd c63d ffaa 94bf dd3f b43f f232 55bf
00000260: 101f 7fbe b806 3b3f a6da 86bb 36eb 20be
00000270: c69d 18be 4930 abbe 2f4d 88bf 6963 813e
00000280: e704 60bf dce3 18be f4f4 33c0 13d7 353e
00000290: 5878 53c0 f59f 23c0 5d38 f4bf a40e 343e
000002a0: 7735 b13f 726f 14be e7cf 5fbe 10d7 873e
000002b0: 8667 fd3e 1392 04bf 5c63 943d 9d1a 9cbd
000002c0: e7d1 533e 8de6 8d3f e2b2 6fbf 5556 76bf
000002d0: 4442 643f 97e9 bebf 7e34 05c0 158b 76bf
000002e0: bc4d 733f ec89 61bf bce5 543f 5b2d 07bf
000002f0: 6baf 1c40 0c78 bf3f e788 b0bf 2db8 a4be
00000300: 9cdb dfbf 941d 04bf d641 f73c 1daa b8bf
00000310: cd7b 35bf 5752 ddbf 317e 97bf 5814 fabf
00000320: 533d f23d 5a43 1abf 85b3 48bf ff95 e63f
00000330: 45c2 dfbe 5ba2 8c3e 7e7f 0fbf 17c4 f1be
00000340: 0a4d 1cbf 1299 38be ea04 e23f 4eba 62c0
00000350: 36b3 85be 475c 17bf a4c7 d03f bfa6 4d3b
00000360: f157 c2bf 5f87 13c0 85a7 c4bd 24af 893f
00000370: 1a61 9dbf c898 d43e 789c 53bf 8c4b 1bc0
00000380: 92bb e7bd 7393 dd3e fc19 20bf e894 c13e
00000390: 9613 553f aec1 22bf 2158 4dbf 6217 823f
000003a0: a1d6 38bf b2f0 ba3f 2e76 4fc0 bb3c 94bf
000003b0: d269 81bf da3c cdbf 5c2c 94c0 e214 8a3f
000003c0: 69d9 83c0 dca8 95bf 705e 563e 78fa ab3e
000003d0: 6322 d4bf 1b63 57bf 3c2a ab3f 596a 523f
000003e0: 60ff 873f 6e79 4dbe d8bb c3bf 4e7f 8f3f
000003f0: 2908 99bf 97a5 3fbf 1bf2 45bf 9076 71be

map_L4.bias f4 [256]
-0.21716255 -0.46619675 -0.32345146 -0.6093588 -0.43803483 0.021275038 -0.73768014 -0.64540017
-0.041410375 -0.5265458 -0.17299996 -0.4792913 -1.2725813 -0.43483317 -0.2716848 -0.15380178
-0.5699054 -0.4531098 -1.6585162 -0.79086244 -0.15693721 -0.15492207 -0.48584676 0.009562681
-0.6982362 -0.51012814 0.062399715 -0.008049107 -0.7297041 0.43137366 0.12010114 -0.16855866
-0.52571416 0.27552417 -0.41638923 -0.9827908 -0.40866122 0.058844432 0.16260137 -0.30717018
-0.32169315 0.3499373 -0.11441741 -0.88000435 -0.77904457 -0.54420877 -0.11054486 -0.68861353
-1.0173674 -0.24527417 -0.29451647 -1.3128651 -0.6947894 -0.15181065 -0.37788522 -0.13608699
-0.012397648 -0.29540816 -0.339491 -0.96451026 -0.6102627 -0.1847993 -0.466589 -0.22742704
-0.7368526 -0.6321923 0.01898321 0.0398007 -1.0020097 0.15291613 -0.15006967 0.0039811786
-0.3058101 0.12839459 -0.29796183 -1.4245842 -0.220306 -0.57158047 0.13006459 0.35364586
0.25498986 0.06072429 0.51885885 -0.18542527 -0.43642524 -0.41761535 0.20736408 -0.0060141413
-0.18550542 0.17015322 -0.81051123 -0.12557185 -1.1429683 -0.64550084 -0.4182816 -0.1195601
-0.40409508 -0.18196388 -0.7090536 -0.2007989 -0.5479203 -0.020286467 0.122852884 -0.18332583
-0.7612458 0.33604285 -0.47673598 -0.56976897 -0.181848 -0.86881006 -0.33740443 -0.24489912
-0.39415374 -0.2939559 0.16885945 0.09174425 -0.33693805 -0.17183746 -0.88324237 -0.8796218
-0.78034395 0.04594295 -0.18703744 -0.42790985 -0.34526956 -0.49468252 -1.0710647 -0.41127872
0.25390574 -0.13895296 -0.20965417 -0.9484498 -0.17444943 -0.2723882 -0.2540471 0.051529627
-0.090305686 -0.014036639 -0.048931196 -0.22533786 0.14567946 0.11247577 0.20807987 -0.21439934
-0.6934912 -0.7563085 -0.49230546 -0.17231898 -0.43042395 -0.23309478 -0.46689957 -0.20418109
-0.18064247 -0.19778554 -0.72867954 -0.49076936 -0.6225894 0.24969243 -0.020306151 -0.10770906
-0.37946177 -0.031223452 -0.5680338 0.018678479 -0.563006 -0.34374377 -0.34522697 -0.99253386
-0.17914684 -1.2905377 -0.99011487 -0.50976616 -0.53618443 -0.1740121 -0.25333834 -0.28665632
-0.33446026 -0.4075643 -0.57329255 -0.58351237 0.7524003 -0.5949318 -0.39800745 -0.256277
-1.2591271 -0.6168561 -0.57492423 -1.1389387 -0.1859813 -0.56918365 0.040741384 -0.107436314
-0.8606264 -0.049772773 -0.80795443 -0.32198924 -0.32158187 -0.35978675 -0.076084 -0.68774766
-0.42559972 -0.38471776 -0.030462231 -0.5900703 -0.53390676 -0.16141957 -0.19509396 -0.41331023
-0.30199435 -0.17122507 -0.96381855 -0.54527444 0.07305718 -0.10208775 -0.7200014 0.08835652
-0.21058738 0.020780941 -0.20530024 -0.50369585 -0.2229157 -0.18606246 0.08723756 -0.32693776
-0.35357422 -0.31618667 -0.32588142 -0.24121462 -0.30827203 -0.5678665 -1.5216311 -0.3161385
0.07836064 -0.2967875 -0.30764112 -0.60014385 0.31465048 0.17830625 -0.33624527 0.082783096
-0.34409633 0.3526604 0.049549777 -0.33037567 -1.1810806 -0.4173384 -0.21739519 0.053005625
-1.0337029 -0.88583314 -0.4951718 -0.06451229 -0.58146507 -0.60192335 -0.2827593 -0.4233344
00000000: dc5f 5ebe 57b1 eebe 6e9b a5be f0fe 1bbf
00000010: 1a46 e0be fd48 ae3c 9bd8 3cbf f238 25bf
00000020: ed9d 29bd b5cb 06bf e726 31be ab65 f5be
00000030: f2e3 a2bf 74a2 debe 451a 8bbe 377e 1dbe
00000040: 52e5 11bf 02fe e7be 424a d4bf f675 4abf
00000050: 26b4 20be e4a3 1ebe e8c0 f8be cbac 1c3c
00000060: 9cbf 32bf c297 02bf d896 7f3d 67e0 03bc
00000070: e3cd 3abf 02dd dc3e 96f7 f53d a49a 2cbe
00000080: 3495 06bf 8111 8d3e f830 d5be 2e98 7bbf
00000090: 0b3c d1be dc06 713d f980 263e 6945 9dbe
000000a0: f7b4 a4be fb2a b33e ad53 eabd f747 61bf
000000b0: 776f 47bf 4451 0bbf 5865 e2bd fa48 30bf
000000c0: 1839 82bf 2729 7bbe ddca 96be f70b a8bf
000000d0: b8dd 31bf 4074 1bbe 2c7a c1be 635a 0bbe
000000e0: 811f 4bbc bd3f 97be c4d1 adbe 25ea 76bf
000000f0: 2d3a 1cbf 073c 3dbe c1e4 eebe a2e2 68be
00000100: 5fa2 3cbf 5bd7 21bf ad82 9b3c 0f06 233d
00000110: db41 80bf 0c96 1c3e ddab 19be 8c74 823b
00000120: 2493 9cbe df79 033e 748e 98be c658 b6bf
00000130: e597 61be 1953 12bf a72f 053e 1211 b53e
00000140: 088e 823e 08ba 783d efd3 043f 1fe0 3dbe
00000150: 2173 dfbe aed1 d5be 4057 543e 4612 c5bb
00000160: 22f5 3dbe a53c 2e3e aa7d 4fbf e895 00be
00000170: c94c 92bf 8b3f 25bf 0229 d6be eddb f4bd
00000180: 8de5 cebe bd54 3abe 8984 35bf 3a9e 4dbe
00000190: 8144 0cbf ce2f a6bc 4b9a fb3d c4b9 3bbe
000001a0: 01e1 42bf cf0d ac3e bd16 f4be 61dc 11bf
000001b0: 5d36 3abe 566a 5ebf 46c0 acbe d6c6 7abe
000001c0: 85ce c9be 6381 96be 7ee9 2c3e 69e4 bb3d
000001d0: 2583 acbe 29f6 2fbe 2c1c 62bf e52e 61bf
000001e0: 9fc4 47bf ad2e 3c3d be86 3fbe 0017 dbbe
000001f0: 2cc7 b0be 0747 fdbe a618 89bf 2093 d2be
00000200: efff 813e af49 0ebe 95af 56be 9bcd 72bf
00000210: dfa2 32be 7776 8bbe 7612 82be bb10 533d
00000220: 30f2 b8bd eef9 65bc 146c 48bd f8be 66be
00000230: ff2c 153e b259 e63d e412 553e 808b 5bbe
00000240: a488 31bf 6f9d 41bf 760f fcbe 6374 30be
00000250: 8760 dcbe 66b0 6ebe 760d efbe d914 51be
00000260: 57fa 38be 4b88 4abe be8a 3abf 1f46 fbbe
00000270: 0562 1fbf 5faf 7f3e 1659 a6bc 9196 dcbd
00000280: d048 c2be 53c8 ffbc aa6a 11bf 9c03 993c
00000290: 2921 10bf 2fff afbe 97c1 b0be b316 7ebf
000002a0: 4572 37be 5730 a5bf 2b78 7dbf 0980 02bf
000002b0: 6243 09bf 3a30 32be 90b5 81be 9ec4 92be
000002c0: 603e abbe 45ac d0be 4dc3 12bf 1161 15bf
000002d0: 4e9d 403f 734d 18bf a2c7 cbbe bd36 83be
000002e0: 142b a1bf 48ea 1dbf 3c2e 13bf bec8 91bf
000002f0: e271 3ebe 05b6 11bf 70e0 263d 9207 dcbd
00000300: 0352 5cbf 89de 4bbd 1ad6 4ebf c6db a4be
00000310: 61a6 a4be f835 b8be eed1 9bbd 3b10 30bf
00000320: 35e8 d9be baf9 c4be ee8b f9bc d90e 17bf
00000330: 1dae 08bf 2c4b 25be b6c6 47be 669d d3be
00000340: 019f 9abe a055 2fbe d0bc 76bf 1b97 0bbf
00000350: 019f 953d 6213 d1bd 0352 38bf 43f4 b43d
00000360: 38a4 57be cb3c aa3c 3a3a 52be 36f2 00bf
00000370: 0344 64be 2887 3ebe 9ba9 b23d 6364 a7be
00000380: ae07 b5be 38e3 a1be eed9 a6be f700 77be
00000390: d5d5 9dbe b35f 11bf cfc4 c2bf e8dc a1be
000003a0: 8b7b a03d 88f4 97be 2383 9dbe 07a3 19bf
000003b0: de19 a13e ea95 363e 5728 acbe 2f8a a93d
000003c0: 652d b0be e78f b43e b5f4 4a3d 0027 a9be
000003d0: a62d 97bf 61ad d5be d89c 5ebe 6d1c 593d
000003e0: 6050 84bf f6c5 62bf 2887 fdbe 051f 84bd
000003f0: e5da 14bf a617 1abf d4c5 90be 49bf d8be

map_L5.weight f4 [618, 256]
0.511143 -0.35934657 -0.0028813027 -1.5655099 0.073876396 -1.7749904 0.7895337 2.6418872
0.15490733 -0.29355088 -0.7839218 -0.60502875 -3.740539 -1.0396813 3.076561 0.4807858
1.4168987 -0.5936485 -1.7044164 -3.0012732 -0.21851826 1.2306228 1.3052808 -1.2269348
-0.23878442 -0.6128501 0.65376985 -0.8021547 0.4281084 -19.060713 -1.2372562 2.2244716
-0.5463409 -1.1794481 -5.166489 0.43165955 -1.7613422 0.33785066 -1.0328832 -0.7822351
0.2192668 -0.16381902 0.69154906 1.1083994 -1.5421824 -1.3847235 -0.7564432 -0.20031716
-4.1839404 0.5485587 1.127233 -0.93903214 -4.6457844 0.34641877 -1.1757768 -1.2318997
-0.4384507 0.38537222 1.4378111 -0.23082612 -0.8257773 1.1687504 -0.6559211 -0.8149289
0.019998016 -1.202694 -0.09622989 -6.347502 1.594479 0.5770069 0.5533293 0.22183625
0.817416 -0.54397935 0.962234 1.3384014 0.439777 0.875255 -1.1789787 -0.45583358
0.31266946 0.3055702 0.35427478 0.39287457 0.51007086 -0.3294167 -9.942774 -0.52908814
-0.11059072 0.39400792 0.3509362 -0.4856794 3.72584 0.41044214 -0.5318645 -0.5046686
-0.2030919 -0.74629194 -0.091363795 -0.04869698 -0.5650144 0.30793536 0.4146684 -0.43319252
0.78000855 0.25454655 -0.7101738 -0.1467369 -0.9905857 -1.1158059 -0.39511752 -0.33252642
1.2784233 -0.54695207 0.158929 -0.089262545 -2.396896 -0.113151714 2.5445943 9.304377
-0.77520317 -2.582468 -0.7099623 -1.8777574 -0.503393 -0.512177 0.5183653 0.13580866
0.39220837 0.44493562 -0.108993255 6.0091476 -0.77351034 -0.15867284 -0.07697341 0.29702902
-0.78783727 0.06435897 -0.081819385 -0.32221693 0.13223892 0.41611493 -1.464313 0.25272655
0.05664505 0.98407835 1.2479028 0.48269442 -0.6717659 1.0369383 1.0873344 -0.68449384
0.093130015 -0.110447355 -0.38592207 1.9301407 -1.573982 0.74164355 1.5614552 0.35615236
0.12880312 -0.5440045 2.0726814 0.42201978 0.2476392 -1.3361305 0.83842707 2.597986
-0.10276771 0.64742106 -0.3421982 -2.1485367 0.06557097 0.50239336 0.44320393 -1.7495425
-3.4970636 1.5222971 1.0615389 0.2768174 -9.865341 0.69272834 0.3769845 -0.19194897
7.325121 0.6146836 0.0854619 2.0676086 -0.5631692 0.6062695 -0.11867507 0.51237565
-0.63755864 -0.42041376 2.4660597 -0.89889896 -0.6109798 -0.17071116 0.09207987 0.9546156
0.03780772 -0.33901843 -0.807702 -0.43125796 -0.43814296 0.86181897 0.99331474 -1.3410991
0.7172766 1.8308252 0.9156499 0.6122483 -1.2511533 0.24120982 0.832452 -0.5825859
1.0018637 -0.007718965 -0.94453514 0.21032445 -0.716663 -0.3016035 -1.7296686 -0.2080164
-0.34386477 -0.2998909 0.95174557 0.7292088 -0.8719887 -0.68216175 -4.432519 0.66166884
-1.2162473 -0.08462976 0.22035182 1.6001112 -2.59347 -0.92059636 -0.927752 -0.7242992
-1.6724575 0.5877143 -0.70075977 0.6087175 0.10242334 1.9157295 0.50859785 -0.7289031
0.31177032 -0.31573948 -0.069747515 -0.2023291 0.35290077 1.8246856 -1.8158981 0.12464932
00000000: 45da 023f 46fc b7be 3dd4 3cbb a162 c8bf
00000010: 824c 973d e332 e3bf e11e 4a3f ae14 2940
00000020: 07a0 1e3e 4d4c 96be 19af 48bf 2ae3 1abf
00000030: fe64 6fc0 4714 85bf 60e6 4440 8e29 f63e
00000040: f05c b53f 59f9 17bf 512a dabf dc14 40c0
00000050: 40c3 5fbe 0c85 9d3f 7113 a73f 330c 9dbf
00000060: e783 74be bfe3 1cbf 765d 273f 035a 4dbf
00000070: 0631 db3e 577c 98c1 695e 9ebf be5d 0e40
00000080: ffdc 0bbf 28f8 96bf e153 a5c0 7b02 dd3e
00000090: a973 e1bf c3fa ac3e 8435 84bf 8f40 48bf
000000a0: 7a87 603e 2cc0 27be 5c09 313f 08e0 8d3f
000000b0: 3c66 c5bf 9f3e b1bf 43a6 41bf f11f 4dbe
000000c0: d7e2 85c0 586e 0c3f 2c49 903f 6964 70bf
000000d0: 44aa 94c0 cd5d b13e db7f 96bf e4ae 9dbf
000000e0: 9c7c e0be 824f c53e 320a b83f af5d 6cbe
000000f0: 2466 53bf 9d99 953f 72ea 27bf 2e9f 50bf
00000100: e1d2 a33c e1f1 99bf 2d14 c5bd bd1e cbc0
00000110: e317 cc3f b9b6 133f fda6 0d3f 0b29 633e
00000120: 2d42 513f 3b42 0bbf f854 763f bd50 ab3f
00000130: 732a e13e b610 603f c6e8 96bf 0563 e9be
00000140: 3616 a03e b273 9c3e 8163 b53e db26 c93e
00000150: 0194 023f 4ea9 a8be 9a15 1fc1 5272 07bf
00000160: 637d e2bd 68bb c93e e9ad b33e f8aa f8be
00000170: 2a74 6e40 7925 d23e 4628 08bf f631 01bf
00000180: 53f7 4fbe fd0c 3fbf f11c bbbd 7c76 47bd
00000190: c9a4 10bf b4a9 9d3e 6b4f d43e 69cb ddbe
000001a0: a4ae 473f ed53 823e f3cd 35bf 3342 16be
000001b0: 0697 7dbf bad2 8ebf d84c cabe e740 aabe
000001c0: 60a3 a33f 0d05 0cbf 49be 223e 48cf b6bd
000001d0: be66 19c0 16bc e7bd a2da 2240 bade 1441
000001e0: b773 46bf 2847 25c0 17c0 35bf 5b5a f0bf
000001f0: 5dde 00bf 081e 03bf 97b3 043f 6d11 0b3e
00000200: 89cf c83e 9ace e33e db37 dfbd f04a c040
00000210: c604 46bf 227b 22be 3ca4 9dbd 3014 983e
00000220: b4af 49bf a3ce 833d ec90 a7bd 9ef9 a4be
00000230: a469 073e 040d d53e 9c6e bbbf 6065 813e
00000240: a404 683d 8fec 7b3f 47bb 9f3f b923 f73e
00000250: daf8 2bbf 65ba 843f c62d 8b3f fd3a 2fbf
00000260: f3ba be3d 3932 e2bd 9497 c5be da0e f73f
00000270: 3e78 c9bf 5adc 3d3f c4dd c73f 9a59 b63e
00000280: f7e4 033e e143 0bbf d0a6 0440 fa12 d83e
00000290: 2195 7d3e 5306 abbf 28a3 563f 6745 2640
000002a0: e177 d2bd 63bd 253f 9a34 afbe a081 09c0
000002b0: 134a 863d da9c 003f a0eb e23e 02f1 dfbf
000002c0: e4cf 5fc0 a2da c23f 82e0 873f 03bb 8d3e
000002d0: 70d8 1dc1 a556 313f 1d04 c13e 458e 44be
000002e0: 6467 ea40 e85b 1d3f a606 af3d b353 0440
000002f0: db2b 10bf 7a34 1b3f ea0b f3bd 0d2b 033f
00000300: 0b37 23bf 7940 d7be ecd3 1d40 3e1e 66bf
00000310: 2c69 1cbf e8ce 2ebe 5f94 bc3d b061 743f
00000320: 45dc 1a3d d393 adbe 8fc5 4ebf d8cd dcbe
00000330: 4654 e0be 2ba0 5c3f e049 7e3f 23a9 abbf
00000340: 709f 373f 7b58 ea3f 0868 6a3f 4ebc 1c3f
00000350: cb25 a0bf b5ff 763e 931b 553f 5924 15bf
00000360: 123d 803f 5fef fcbb 0ecd 71bf 4b5f 573e
00000370: 3a77 37bf c66b 9abe c865 ddbf 4002 55be
00000380: 0b0f b0be 4d8b 99be 99a5 733f 6ead 3a3f
00000390: a73a 5fbf 27a2 2ebf 32d7 8dc0 2163 293f
000003a0: fead 9bbf 5e52 adbd e8a3 613e 72d0 cc3f
000003b0: 6afb 25c0 34ac 6bbf 2881 6dbf ac6b 39bf
000003c0: 1613 d6bf 7274 163f fe64 33bf e9d4 1b3f
000003d0: 54c3 d13d a036 f53f 7833 023f 6599 3abf
000003e0: 5ca0 9f3e 9ba8 a1be c9d7 8ebd 5c2f 4fbe
000003f0: 69af b43e 4c8f e93f 596f e8bf 2548 ff3d

map_L5.bias f4 [618]
-4.5629096 -4.701625 -5.830054 -4.730999 -0.018302238 -1.4247847 -1.669862 -4.7725425
-3.74353 -4.045325 -1.3879656 -0.4978862 -4.6042566 -4.428148 -4.604687 -5.3159423
-4.4583726 -4.2143273 -4.741954 -4.0651784 -4.8467627 -5.3379517 -4.8732214 -4.4030247
-4.33297 -4.4368253 -3.877288 -4.966824 -4.709866 -4.2941346 -4.044634 -5.162552
-4.4627123 -4.4324756 -4.504961 -4.440229 -4.286965 -4.544276 -4.5120864 -6.1513333
-4.103131 -4.0023494 -4.202281 -4.6690774 -4.859744 -5.0512094 -4.830101 -4.5174446
-4.294816 -4.8872986 -4.784841 -4.583193 -4.9578066 -4.49291 -4.5909944 -4.8134212
-4.8632326 -5.1449304 -4.396427 -4.4085374 -4.4003224 -4.72667 -4.458035 -4.2957325
-4.359481 -4.7986803 -4.4255133 -4.8102717 -4.5876355 -4.8101363 -5.6529384 -4.521462
-4.4558434 -4.6522374 -4.9008884 -4.3760467 -4.098868 -4.963843 -4.6622987 -4.474376
-4.0799317 -4.38414 -4.4021688 -4.1805077 -1.71443 -3.6426091 -4.4447927 -5.039148
-0.7070631 -3.439959 -2.3657005 -3.358011 -2.6217523 -3.7071846 -10.3739195 -0.64490974
-0.5869245 -0.5791927 -0.5689827 -0.46167964 -0.5360023 -0.67564464 -0.55706257 -0.6661637
-1.008955 -0.6849374 -0.96308035 -0.9666703 -0.8859336 -1.051363 -1.0395552 -0.782565
-0.696509 -2.399135 -2.3659527 -2.3507247 -1.1095797 -3.1001766 -2.9147148 -2.4029803
-2.4129107 -3.0052493 -2.2899573 -1.0673265 -1.1716969 -0.8934341 -1.0973814 -1.0767926
-0.9387107 -1.1930788 -1.0997909 -0.9881442 -1.1558288 -0.2067774 -0.4793426 -0.51557946
-0.234944 -0.18106888 -0.64287084 -0.21691398 -0.36540067 -0.1694745 -0.40448868 0.036509734
0.20999363 0.17882031 -0.3046986 -0.45126998 -0.06414427 0.15928774 -0.5165402 0.006321169
0.23308012 -2.7080328 -2.2261248 -3.144904 -3.137177 -3.1616046 -3.2013931 -2.7387283
-2.5480077 -2.4217935 -2.7912927 -3.4832413 -1.9659058 -1.452416 -3.0115242 -1.7071613
-1.7099224 -1.7119316 -3.1880958 -2.7235312 -2.3098724 -4.460861 -4.7001824 -6.0848913
-4.645822 -4.5218673 -4.7516484 -4.208527 -4.241677 -4.3899817 -4.5084963 -4.1441283
-4.340403 -4.475236 -4.48342 -4.7667093 -4.8440094 -4.923354 -4.6180377 -4.899084
-4.801174 -4.288464 -4.479227 -5.6248665 -4.3909726 -4.5650754 -4.4429855 -4.909142
-5.108542 -4.961774 -4.864388 -4.7924147 -4.597091 -5.1691713 -4.821317 -4.5708704
-4.8282 -4.6376977 -4.748804 -4.9775753 -4.397962 -4.9391627 -4.718086 -3.868488
-5.876549 -4.0638967 -4.6410933 -4.2834015 -4.747609 -4.360482 -5.1274366 -4.4412913
-4.3985558 -4.7296834 -4.4400764 -4.142863 -4.5996237 -4.8166833 -4.420987 -4.8198247
-5.298174 -4.321779 -4.5052958 -4.5395308 -0.053402174 -4.880245 -2.488049 -1.1937085
-4.4299684 -4.9425797 -4.2446566 -4.417544 -4.9083676 -4.5190716 -3.905263 -4.493599
-4.8476543 -4.3695374 -4.763295 -5.139134 -4.373494 -4.403478 -4.755177 -5.047619
00000000: 5b03 92c0 b673 96c0 cd8f bac0 5864 97c0
00000010: 93ee 95bc 585f b6bf 0abe d5bf abb8 98c0
00000020: ff95 6fc0 4d73 81c0 dba8 b1bf f1ea febe
00000030: 1256 93c0 63b3 8dc0 9959 93c0 331c aac0
00000040: fdaa 8ec0 c5db 86c0 16be 97c0 f115 82c0
00000050: ae18 9bc0 80d0 aac0 6ef1 9bc0 94e5 8cc0
00000060: b1a7 8ac0 79fa 8dc0 7d25 78c0 39f0 9ec0
00000070: 39b7 96c0 8d69 89c0 a46d 81c0 a033 a5c0
00000080: 8ace 8ec0 d7d6 8dc0 a428 90c0 5b16 8ec0
00000090: d12e 89c0 b66a 91c0 0363 90c0 b9d7 c4c0
000000a0: d94c 83c0 3f13 80c0 1679 86c0 1569 95c0
000000b0: 0683 9bc0 82a3 a1c0 3090 9ac0 e88e 90c0
000000c0: 226f 89c0 c064 9cc0 6b1d 99c0 84a9 92c0
000000d0: 5aa6 9ec0 ebc5 8fc0 6de9 92c0 8c07 9ac0
000000e0: 9a9f 9bc0 45a3 a4c0 88af 8cc0 bd12 8dc0
000000f0: 71cf 8cc0 e140 97c0 39a8 8ec0 a476 89c0
00000100: de80 8bc0 ca8e 99c0 ce9d 8dc0 bfed 99c0
00000110: e9cd 92c0 a3ec 99c0 dfe4 b4c0 d1af 90c0
00000120: 4596 8ec0 21df 94c0 14d4 9cc0 9308 8cc0
00000130: ed29 83c0 cdd7 9ec0 8d31 95c0 172e 8fc0
00000140: cd8e 82c0 e04a 8cc0 91de 8cc0 b8c6 85c0
00000150: 7172 dbbf 8220 69c0 be3b 8ec0 b340 a1c0
00000160: 1602 35bf 4a28 5cc0 a367 17c0 a7e9 56c0
00000170: caca 27c0 8342 6dc0 93fb 25c1 ce18 25bf
00000180: af40 16bf f945 14bf daa8 11bf 4661 ecbe
00000190: 7237 09bf 0cf7 2cbf a79b 0ebf b489 2abf
000001a0: 7025 81bf 0f58 2fbf 6f8c 76bf b477 77bf
000001b0: 8bcc 62bf 1093 86bf 2510 85bf 2e56 48bf
000001c0: 6a4e 32bf 6e8b 19c0 c56b 17c0 4672 16c0
000001d0: b506 8ebf 4b69 46c0 b08a 3ac0 6eca 19c0
000001e0: 216d 1ac0 0156 40c0 a98e 12c0 289e 88bf
000001f0: 2afa 95bf 19b8 64bf fe76 8cbf 57d4 89bf
00000200: 584f 70bf ceb6 98bf f3c5 8cbf 05f7 7cbf
00000210: 33f2 93bf 74bd 53be 656c f5be 04fd 03bf
00000220: 2995 70be 1f6a 39be 2f93 24bf b31e 5ebe
00000230: cc15 bbbe b98a 2dbe 2419 cfbe 3b8b 153d
00000240: 9208 573e ac1c 373e 7401 9cbe dc0c e7be
00000250: 125e 83bd 531c 233e fb3b 04bf cf21 cf3b
00000260: 8eac 6e3e 6950 2dc0 d478 0ec0 1b46 49c0
00000270: 82c7 48c0 bb57 4ac0 a0e3 4cc0 5347 2fc0
00000280: 8f12 23c0 aafe 1ac0 8aa4 32c0 6ded 5ec0
00000290: cda2 fbbf c4e8 b9bf d0bc 40c0 4384 dabf
000002a0: bdde dabf 9320 dbbf c309 4cc0 564e 2ec0
000002b0: f3d4 13c0 60bf 8ec0 e567 96c0 6eb7 c2c0
000002c0: 93aa 94c0 23b3 90c0 810d 98c0 41ac 86c0
000002d0: d1bb 87c0 bb7a 8cc0 9a45 90c0 b39c 84c0
000002e0: 95e4 8ac0 2235 8fc0 2d78 8fc0 e288 98c0
000002f0: 2002 9bc0 1e8c 9dc0 f7c6 93c0 4cc5 9cc0
00000300: 38a3 99c0 193b 89c0 d455 8fc0 e8fe b3c0
00000310: d982 8cc0 1915 92c0 f02c 8ec0 b117 9dc0
00000320: 2d79 a3c0 dac6 9ec0 11a9 9bc0 765b 99c0
00000330: 5f1b 93c0 da69 a5c0 3b48 9ac0 9244 92c0
00000340: 9d80 9ac0 0568 94c0 34f6 97c0 4c48 9fc0
00000350: 1bbc 8cc0 9f0d 9ec0 8ffa 96c0 4f95 77c0
00000360: b00c bcc0 710b 82c0 d683 94c0 a011 89c0
00000370: 6aec 97c0 1289 8bc0 f613 a4c0 0f1f 8ec0
00000380: f8c0 8cc0 9159 97c0 1b15 8ec0 5592 84c0
00000390: 1e30 93c0 4522 9ac0 ba78 8dc0 013c 9ac0
000003a0: a48a a9c0 034c 8ac0 622b 90c0 d643 91c0
000003b0: 3dbc 5abd f82a 9cc0 323c 1fc0 71cb 98bf
000003c0: 4dc2 8dc0 9d29 9ec0 3ad4 87c0 855c 8dc0
000003d0: 5911 9dc0 3c9c 90c0 d4ef 79c0 90cb 8fc0
000003e0: fc1f 9bc0 40d3 8bc0 ea6c 98c0 c973 a4c0
000003f0: aaf3 8bc0 4be9 8cc0 692a 98c0 1886 a1c0
