models_VAEGAN_batch128/ep_100_encoder_model.pth (torch_old, 706175 bytes, 12 tensors)

map_L1.weight f4 [256, 618]
-0.22707312 -0.29034534 -0.12031708 -0.15052831 -0.005944848 -0.027800532 -0.18009308 -0.29989958
-0.2225754 -0.29895103 -0.12865902 0.07145684 -0.30979568 -0.18896434 0.09444888 -0.39248997
-0.04037582 -0.066455126 -0.3223055 -0.17658044 -0.32285726 -0.28950292 -0.04880563 -0.14993757
-0.09983794 -0.07559776 -0.11373848 -0.339046 0.1524714 -0.075084426 -0.21338728 -0.19676739
-0.29254246 -0.5260355 -0.37261388 -0.24989864 -0.32646498 -0.21209942 -0.27083895 -0.17427175
-0.5115739 -0.36655703 -0.060008604 -0.069486275 -0.301435 -0.07422901 -0.34573254 -0.28397262
0.06473224 -0.13494869 -0.031878397 -0.036207918 -0.3320813 -0.25971332 -0.12216179 -0.022079984
-0.324632 0.14860374 -0.23781317 -0.118784316 -0.20437208 -0.41804513 -0.20051815 -0.28936836
-0.29080155 -0.1646908 -0.51467687 -0.19885594 -0.16842923 -0.331666 -0.3126951 -0.07106343
-0.11674868 -0.29385403 -0.011771032 0.037508544 0.09824909 -0.28604865 -0.091681644 -0.26041645
-0.09703126 -0.22721627 -0.2147507 0.6996293 0.65560937 0.73344994 0.6930218 0.68540686
0.66831976 0.69563866 0.7253068 0.71649927 0.6597716 1.0503451 1.0288717 1.0247644
1.0064377 1.1033721 1.0302116 1.0417628 0.9907626 1.0765021 1.0303363 1.2440157
1.3054035 1.327949 1.259523 1.3350289 1.2319981 1.2190665 1.3259947 1.2081965
1.1362027 1.2411525 1.2471486 1.1748896 1.2219056 1.2423333 1.1802204 1.2863015
1.248824 1.2374333 1.2548746 0.9769762 1.0177274 0.9836502 1.0427254 0.9603283
1.0042298 0.98690146 1.0113338 0.9578283 1.0474756 1.1704161 1.2164431 1.3001926
1.1640863 1.2005625 1.1928777 1.1797873 1.2406864 1.2141044 1.1895869 1.0509431
1.022424 1.0148933 1.0070333 0.92668754 0.9970809 0.9690549 0.9276779 1.0406979
1.0101697 1.3283298 1.1964942 1.2321451 1.2224412 1.249819 1.2041763 1.1475439
1.3678998 1.2506226 1.1680794 1.0296321 1.0471513 1.0766324 1.004448 1.0531527
1.1515611 1.0256281 1.0311183 0.9694706 1.0295696 -0.17269893 0.10958872 -0.19909017
-0.054709814 -0.34301963 -0.25860506 -0.14340004 0.0037749896 -0.25908735 -0.18580526 -0.5873404
-0.11061136 -0.11301919 -0.3624568 -0.18228745 -0.36059037 -0.23077697 -0.25883597 -0.1491996
0.0051324028 -0.14561705 -0.29475433 -0.31878394 -0.082656965 0.058415294 -0.114671916 0.012178668
-0.057518963 -0.47292474 -0.33076686 -0.42063054 -0.06192448 -0.21628644 -0.2959214 0.016730247
0.00843418 -0.1616565 -0.24955393 -0.4187143 -0.18099143 -0.05929726 -0.27632883 -0.12307777
-0.17525247 -0.23918606 -0.24127768 -0.36288315 -0.27662522 -0.1761729 0.069011256 -0.27429795
-0.03757344 -0.20303486 -0.12895304 -0.020979894 -0.12008598 -0.19810419 -0.24256022 -0.26012743
-0.22590204 -0.2750716 -0.25886285 -0.0073403637 -0.37930328 -0.22411811 -0.6190694 -0.45555386
-0.11169926 -0.07090985 -0.06872788 -0.47913593 -0.47846127 -0.2827664 -0.15956917 -0.14980055
-0.3282046 -0.1270387 -0.38409254 0.06443781 -0.17176655 -0.03476193 0.07487246 -0.12033311
00000000: db85 68be 25a8 94be cd68 f6bd 1824 1abe
00000010: 00cd c2bb f1bd e3bc 526a 38be 708c 99be
00000020: ceea 63be 1c10 99be 31bf 03be f757 923d
00000030: 8a9d 9ebe de7f 41be 6a6e c13d 72f4 c8be
00000040: 1e61 25bd a019 88bd 3a05 a5be 81d1 34be
00000050: 8c4d a5be ba39 94be 6ae8 47bd 3c89 19be
00000060: d577 ccbd 00d3 9abd b8ef e8bd 7097 adbe
00000070: 7621 1c3e ddc5 99bd 3282 5abe 647d 49be
00000080: 20c8 95be 43aa 06bf 3fc7 bebe 6ee5 7fbe
00000090: 6b26 a7be 9730 59be 67ab 8abe 4b74 32be
000000a0: 82f6 02bf 5dad bbbe 95cb 75bd d24e 8ebd
000000b0: b055 9abe 6105 98bd db03 b1be dc64 91be
000000c0: 5692 843d fd2f 0abe ec92 02bd c14e 14bd
000000d0: 8f06 aabe 25f9 84be f62f fabd 15e1 b4bc
000000e0: 2a36 a6be 942b 183e 4c85 73be 3145 f3bd
000000f0: ea46 51be 030a d6be a154 4dbe 1728 94be
00000100: f1e3 94be b4a4 28be ddc1 03bf e4a0 4bbe
00000110: b678 2cbe 20d0 a9be 9219 a0be b489 91bd
00000120: ef19 efbd 0974 96be 49db 40bc 8fa2 193d
00000130: d236 c93d f874 92be 96c3 bbbd 4e55 85be
00000140: 53b8 c6bd 62ab 68be 9ce7 5bbe e81a 333f
00000150: 04d6 273f 60c3 3b3f e069 313f d376 2f3f
00000160: 0117 2b3f 6015 323f b5ad 393f 7f6c 373f
00000170: cbe6 283f b571 863f 11b2 833f 7b2b 833f
00000180: f3d2 803f 4c3b 8d3f f9dd 833f 7c58 853f
00000190: 9ea2 7d3f d2ca 893f 0fe2 833f e83b 9f3f
000001a0: 7617 a73f 3cfa a93f 0d38 a13f 3ae2 aa3f
000001b0: 1db2 9d3f 5f0a 9c3f 32ba a93f 2fa6 9a3f
000001c0: 176f 913f 16de 9e3f 91a2 9f3f c862 963f
000001d0: 6767 9c3f c704 9f3f 7611 973f 87a5 a43f
000001e0: 77d9 9f3f 3764 9e3f bb9f a03f 1d1b 7a3f
000001f0: e444 823f 80d0 7b3f 0778 853f 13d8 753f
00000200: 9a8a 803f 93a5 7c3f 6373 813f 3c34 753f
00000210: ae13 863f 32d0 953f 68b4 9b3f b66c a63f
00000220: c800 953f 08ac 993f 37b0 983f 4503 973f
00000230: d0ce 9e3f c667 9b3f 6244 983f 4e85 863f
00000240: cade 823f 06e8 813f 78e6 803f 653b 6d3f
00000250: b240 7f3f fb13 783f 4d7c 6d3f 9735 853f
00000260: 3e4d 813f b606 aa3f b926 993f eeb6 9d3f
00000270: f478 9c3f 12fa 9f3f 7322 9a3f b8e2 923f
00000280: 5717 af3f 6714 a03f a083 953f fcca 833f
00000290: 0e09 863f 17cf 893f c191 803f b5cd 863f
000002a0: 5b66 933f c847 833f affb 833f 3a2f 783f
000002b0: f0c8 833f fdd7 30be 0d70 e03d 4bde 4bbe
000002c0: 6617 60bd 45a0 afbe e267 84be 76d7 12be
000002d0: d165 773b 19a7 84be bc43 3ebe f15b 16bf
000002e0: 3588 e2bd 9b76 e7bd f093 b9be 90a9 3abe
000002f0: 4d9f b8be cc50 6cbe 2686 84be c8c7 18be
00000300: b72d a83b a31c 15be 0aea 96be a637 a3be
00000310: 0e48 a9bd e044 6f3d 1cd9 eabd 0989 473c
00000320: 0199 6bbd 3123 f2be 465a a9be e35c d7be
00000330: 86a4 7dbd 317a 5dbe 0283 97be df0d 893c
00000340: 842f 0a3c 4889 25be 118b 7fbe b961 d6be
00000350: d155 39be afe1 72bd f97a 8dbe 3310 fcbd
00000360: 6275 33be 31ed 74be 7f11 77be d2cb b9be
00000370: d2a1 8dbe ab66 34be c655 8d3d c870 8cbe
00000380: 9be6 19bd 5fe8 4fbe 440c 04be 07de abbc
00000390: a3ef f5bd d3db 4abe b561 78be 6c2f 85be
000003a0: dd52 67be 2fd6 8cbe ac89 84be 6f87 f0bb
000003b0: 0a34 c2be 387f 65be 557b 1ebf 5b3e e9be
000003c0: 95c2 e4bd 2f39 91bd 34c1 8cbd 4e51 f5be
000003d0: e0f8 f4be c2c6 90be 1a66 23be 5165 19be
000003e0: 6f0a a8be 6f16 02be c7a7 c4be f8f7 833d
000003f0: 92e3 2fbe 8762 0ebd bb56 993d 3571 f6bd

map_L1.bias f4 [256]
-1.0609716 -0.47035253 -0.9867657 -0.66769177 -0.78355813 -1.0629479 -0.79914623 -0.9848097
-0.9997193 0.06037381 -0.62987787 -0.3121622 -0.54379123 -0.9896617 -0.90458137 -1.0118212
-1.0593272 -0.9310215 -0.5930328 0.16498792 -0.2943815 -0.8153358 -1.0054466 -0.32814065
-1.0501394 -0.949869 -0.80006033 -0.50710195 -0.80235904 -1.0394355 0.14494175 -0.26594657
-0.8958932 -0.17956194 -0.8631837 -0.94936675 -0.965775 -0.64372724 -0.89185405 -1.0121279
-0.9511877 -0.3319473 -0.5256377 -0.2593746 -0.50816226 -1.0657343 -0.8366849 -0.9506438
-1.0352476 -0.69136345 0.20224845 0.40680555 -0.9423561 -1.0319004 -0.98048955 -1.06953
-0.91485137 -0.8453383 0.35110903 -0.71252257 -0.90742135 0.08515223 -0.9200729 -0.3202316
0.09641746 -0.94069225 -0.9200451 -0.6260156 -0.03376946 -1.0888232 -0.97131586 -0.9057505
-0.8123263 -0.31207463 -0.9575781 -0.097402565 -0.8170596 -0.34163675 -0.21426725 -0.85105544
-0.13636981 -0.14159146 -0.8384824 -0.8642309 -0.06678241 -0.73447406 0.052134726 -0.9454939
-0.92416966 -0.011002248 -0.39612976 -0.87417716 -0.67729104 -0.9403839 -0.9976925 -0.8819743
-0.8512372 -0.033266433 -0.6968897 -0.332319 0.079243526 -0.31543908 -1.0170766 -1.0412945
-0.65293264 -0.8271505 -0.9883006 -0.7940882 -0.649188 -0.9992428 0.005831908 -0.87675995
-0.8428264 -1.0063539 0.34064406 -0.90851957 -0.7324209 -0.6224477 0.096404955 0.025716485
-0.63585985 -1.0284237 -0.9587303 -0.3880794 -0.8047895 -0.85369307 -0.9350774 -1.059287
-0.8774351 -0.58420205 -0.997555 -0.013714639 -0.33599022 -0.89695513 0.04226617 0.12168105
-0.4908426 -0.050876603 -0.8586521 -0.9302933 -0.8181623 -0.34865317 -0.5664365 -1.0200824
-0.6403136 -0.23737516 -0.8720235 -0.8518398 -0.9672007 -1.0446846 -0.23383035 -0.74015015
-0.71342057 -0.9879078 -0.09235883 -0.20160858 -0.15847847 -0.4764594 -0.033782378 -0.46911022
0.039772272 -1.038596 -0.9843984 -0.15893008 -1.0529854 0.05372881 -0.8202943 -0.98015094
-1.0422928 -0.7721728 -0.9646799 -0.9393507 -0.8328015 -0.92088765 -0.86536455 -0.20174603
-0.9447217 -0.739976 -0.9818 -0.9169214 -0.993 -1.0255225 -0.989868 -0.39076415
-1.0242554 0.11160206 -0.26224044 -0.83600837 0.19392335 -0.68805546 -0.75633293 -0.031363115
-1.0107858 -0.34694386 -0.88986206 -0.78952354 0.20330445 -0.28651187 -0.6591122 0.21753734
-1.096496 -0.9663889 -0.93076634 -0.5195283 -0.6499748 0.03597772 -0.4061632 0.03624812
-0.89294666 -0.9299124 0.0804051 -0.19688173 -0.22707391 0.16644587 -0.57699007 -0.6711751
-0.86447495 -1.0502443 0.028180376 -0.7334922 -0.01567333 -0.96677536 -0.93372244 -0.9798513
-0.8244399 -0.91558886 -0.87370896 -0.059161138 -0.9356992 -0.5015065 0.22815336 -0.83687174
-0.94113463 -1.0511438 -0.9124887 -0.8766683 -0.9617932 -0.7530114 -0.8838817 -0.8293537
-0.8838657 -0.84861743 0.32931784 -0.38217008 -0.9611696 -0.01862255 -0.8246969 -0.9817237
-0.95082337 -0.83994347 -0.7830431 -0.79855645 -0.5346368 -0.8590579 -0.66609335 -0.3865367
00000000: ebcd 87bf 0cd2 f0be ad9c 7cbf d9ed 2abf
00000010: 4497 48bf ad0e 88bf d994 4cbf 7d1c 7cbf
00000020: 9bed 7fbf 874a 773d ad3f 21bf b9d3 9fbe
00000030: e735 0bbf 785a 7dbf a592 67bf 5b83 81bf
00000040: 0998 87bf 6d57 6ebf ffd0 17bf 98f2 283e
00000050: 2cb9 96be d9b9 50bf 79b2 80bf 0d02 a8be
00000060: f86a 86bf 9d2a 73bf c1d0 4cbf 6fd1 01bf
00000070: 6767 4dbf 390c 85bf 9c6b 143e 262a 88be
00000080: 4259 65bf 16df 37be 9bf9 5cbf b309 73bf
00000090: 083d 77bf 4fcb 24bf 8c50 64bf 688d 81bf
000000a0: 0981 73bf fff4 a9be 3190 06bf bfcc 84be
000000b0: ec16 02bf fb69 88bf fb30 56bf 645d 73bf
000000c0: fe82 84bf 32fd 30bf 381a 4f3e d148 d03e
000000d0: 403e 71bf 5015 84bf 5d01 7bbf 5ce6 88bf
000000e0: b333 6abf 1768 58bf 90c4 b33e e167 36bf
000000f0: c44c 68bf 4b64 ae3d e689 6bbf 65f5 a3be
00000100: 8476 c53d 35d1 70bf 1388 6bbf 8f42 20bf
00000110: d851 0abd 8f5e 8bbf 28a8 78bf 44df 67bf
00000120: 9ef4 4fbf 3fc8 9fbe d723 75bf ff7a c7bd
00000130: d12a 51bf 03eb aebe e068 5bbe c5de 59bf
00000140: 87a4 0bbe 5afd 10be c8a6 56bf 3c3e 5dbf
00000150: 37c5 88bd 7e06 3cbf 398b 553d e30b 72bf
00000160: 6296 6cbf c642 34bc 85d1 cabe 13ca 5fbf
00000170: f262 2dbf 00bd 70bf c768 7fbf 11c9 61bf
00000180: aeea 59bf 6242 08bd 5d67 32bf b725 aabe
00000190: 6e4a a23d 3b81 a1be 912f 82bf 2349 85bf
000001a0: 9826 27bf 23c0 53bf 4501 7dbf 5d49 4bbf
000001b0: 2f31 26bf 60ce 7fbf 9719 bf3b 5773 60bf
000001c0: 79c3 57bf 34d0 80bf e668 ae3e bd94 68bf
000001d0: f07f 3bbf bc58 1fbf f66f c53d 61ab d23c
000001e0: b6c7 22bf 63a3 83bf 596f 75bf 58b2 c6be
000001f0: af06 4ebf a18b 5abf 3c61 6fbf b796 87bf
00000200: 969f 60bf 448e 15bf c45f 7fbf 5db3 60bc
00000210: e906 acbe da9e 65bf 4b1f 2d3d ea33 f93d
00000220: b94f fbbe fc63 50bd a0d0 5bbf b427 6ebf
00000230: 1673 51bf ab82 b2be fc01 11bf 0f92 82bf
00000240: 98eb 23bf 7912 73be ef3c 5fbf 2c12 5abf
00000250: 779a 77bf 3ab8 85bf 3971 6fbe 7b7a 3dbf
00000260: bba2 36bf 87e7 7cbf a026 bdbd 7b72 4ebe
00000270: 2e48 22be 7df2 f3be 645f 0abd 372f f0be
00000280: 40e8 223d b7f0 84bf 8901 7cbf 91be 22be
00000290: 3ac8 86bf be12 5c3d cffe 51bf 2ceb 7abf
000002a0: da69 85bf 1ead 45bf 43f5 76bf 4a79 70bf
000002b0: 7b32 55bf 4bbf 6bbf 8888 5dbf 8396 4ebe
000002c0: 48d9 71bf 116f 3dbf 3f57 7bbf 5cbb 6abf
000002d0: 3f35 7ebf 5244 83bf fd67 7dbf 3d12 c8be
000002e0: cd1a 83bf 9f8f e43d 6144 86be a504 56bf
000002f0: d893 463e 6724 30bf 099f 41bf 9c76 00bd
00000300: 6e61 81bf a0a2 b1be 00ce 63bf 371e 4abf
00000310: 0b2f 503e afb1 92be 94bb 28bf 1cc2 5e3e
00000320: fb59 8cbf 4365 77bf b446 6ebf cfff 04bf
00000330: c064 26bf 605d 133d 9ff4 cfbe e978 143d
00000340: 2798 64bf bd0e 6ebf 6eab a43d 5d9b 49be
00000350: 1086 68be c970 2a3e 9fb5 13bf 22d2 2bbf
00000360: 3b4e 5dbf 686e 86bf 88da e63c 25c6 3bbf
00000370: 5b65 80bc 977e 77bf 6f08 6fbf 89d7 7abf
00000380: 7e0e 53bf 0864 6abf 64ab 5fbf f352 72bd
00000390: fc89 6fbf bb62 00bf 09a1 693e 3a3d 56bf
000003a0: 33ee 70bf e18b 86bf dc98 69bf 556d 60bf
000003b0: 1438 76bf 5bc5 40bf 1246 62bf 8650 54bf
000003c0: 0645 62bf fe3e 59bf 599c a83e ccab c3be
000003d0: 360f 76bf 518e 98bc 561f 53bf 3f52 7bbf
000003e0: 2969 73bf 8906 57bf 8375 48bf 326e 4cbf
000003f0: f5dd 08bf 38eb 5bbf 1885 2abf 23e8 c5be

map_L2.weight f4 [64, 256]
0.047205415 0.070107 0.06133771 0.06306508 0.09187405 0.05144876 0.06990189 0.1242346
-0.04286428 0.0061327387 0.0674279 0.011629296 -0.22160544 0.0064675864 -0.08742236 0.11019051
0.05445381 -0.032916337 -0.026534189 -0.020203598 0.028574124 -0.0119324345 -0.1523437 0.07034929
-0.058221083 -0.060394224 0.15928543 -0.13660203 -0.044456553 -0.016565854 0.13286765 0.13636717
-0.0006768683 0.06787905 0.07952742 0.058158547 -0.044153474 -0.082762405 -0.016991574 0.002406421
0.097865224 -0.108551376 0.032567397 0.093230695 0.1305663 -0.022438325 0.07482751 -0.10997379
-0.103284776 -0.005830312 -0.029852007 -0.21048562 -0.05849848 -0.07434867 0.034884296 0.13847166
-0.0045032357 -0.059135746 -0.08154075 -0.05371198 0.04352553 0.07391648 -0.15219414 -0.031879168
0.058946315 0.014483551 -0.09341513 -0.04968769 0.027874824 -0.070149444 -0.012969838 0.037558366
-0.04660445 0.055963106 -5.4376913e-05 -0.023740862 -0.190765 -0.043522228 -0.09159964 -0.026900766
-0.16547254 -0.009023566 0.06916172 -0.14493148 -0.088699415 -0.06599916 0.02755418 -0.038352318
-0.028944967 0.3312827 0.15199016 0.07295435 -0.09608888 -0.051967893 -0.070056 0.023235768
0.053395312 0.14024775 0.05702514 0.09140662 0.25260094 -0.091490656 0.06881868 0.0033339907
0.024456536 0.022246977 -0.06382547 -0.03157823 0.013411514 0.09899191 -0.038063064 0.0045573637
0.09345339 -0.009391949 -0.06733585 0.032919466 -0.026679145 -0.04404458 0.079565756 0.12210245
0.07786463 -0.05311365 0.077742256 -0.026204515 0.12830281 0.029658223 -0.09340286 -0.013881764
-0.07147508 -0.054929283 -0.056759056 0.11161715 -0.046166502 0.09927273 -0.27831203 -0.07536901
-0.18853338 -0.07502579 -0.20693466 0.022276068 -0.10357715 -0.11477093 0.0686053 0.07206005
0.06774588 0.028925385 -0.06374107 -0.10293926 0.05483335 -0.017510705 -0.23565203 0.01892279
-0.10087553 0.10796695 0.091327965 -0.017884776 0.06822107 0.052974552 -0.12034341 0.021490276
0.14801344 0.115888126 -0.044609245 0.16754647 -0.09118626 0.15792945 -0.010476547 -0.016362548
-0.07838822 0.09265271 -0.17267886 -0.067771584 0.09842548 0.050071698 0.013653624 0.26387715
0.034549534 0.020242754 0.0026141999 -0.042613063 0.004398621 -0.023778979 -0.10219202 0.01042916
0.011095398 0.051390614 -0.06384269 -0.040010758 0.085312575 -0.15323079 0.03750591 -0.013473575
0.100226074 0.0070663937 -0.03504511 -0.12635976 0.18821333 -0.023302505 -0.02077596 -0.0011380789
-0.039402552 0.025605844 0.080549695 0.07864987 0.108234726 0.055143747 -0.10267814 -0.23455113
0.11398446 0.012947313 0.1983309 -0.04575536 0.25171882 -0.010713675 -0.119051665 0.021799188
0.03832178 0.03427903 0.015694419 -0.06728861 0.115804166 0.057725515 -0.03099776 0.057973
0.10319347 0.06952872 -0.00077834685 -0.10848977 0.03851582 0.10046254 -0.007929892 -0.06376366
-0.0011503234 0.11394968 0.11954664 -0.15357713 0.010756544 0.0014055461 0.022557076 0.03578079
-0.046444096 -0.051758546 0.06548026 -0.03991078 0.036153108 0.04089982 0.04625479 -0.03643537
-0.12348889 0.13605052 -0.07987354 -0.12346176 0.11500176 -0.088269204 0.017866004 -0.039657585
00000000: 775a 413d 4294 8f3d 403d 7b3d 4428 813d
00000010: 7628 bc3d efbb 523d b928 8f3d b66e fe3d
00000020: 7592 2fbd 24f5 c83b a417 8a3d cd88 3e3c
00000030: 89ec 62be 0cee d33b 7f0a b3bd 90ab e13d
00000040: f50a 5f3d 48d3 06bd 3a5e d9bc 0482 a5bc
00000050: 4814 ea3c 4280 43bc fdff 1bbe 4a13 903d
00000060: 3b79 6ebd ef5f 77bd b81b 233e 67e1 0bbe
00000070: 1318 36bd 1db5 87bc 750e 083e d6a3 0b3e
00000080: dd6f 31ba 2c04 8b3d 46df a23d a837 6e3d
00000090: 46da 34bd 567f a9bd ea31 8bbc 0bb5 1d3b
000000a0: 906d c83d 2f50 debd 6465 053d bcef be3d
000000b0: 2cb3 053e 94d0 b7bc 2a3f 993d f039 e1bd
000000c0: f886 d3bd 340c bfbb 328c f4bc 8b89 57be
000000d0: 1a9c 6fbd 1e44 98bd d6e2 0e3d 84cb 0d3e
000000e0: e18f 93bb 5338 72bd d6fe a6bd 1801 5cbd
000000f0: d347 323d 8661 973d c8d8 1bbe bb93 02bd
00000100: b171 713d 6a4c 6d3c 6f50 bfbd 5285 4bbd
00000110: be59 e43c 83aa 8fbd 727f 54bc cdd6 193d
00000120: 4fe4 3ebd 9239 653d c412 64b8 327c c2bc
00000130: e657 43be 5d44 32bd 9898 bbbd ff5e dcbc
00000140: a271 29be 94d7 13bc a9a4 8d3d eb68 14be
00000150: 0aa8 b5bd 912a 87bd 4eb9 e13c 5217 1dbd
00000160: ff1d edbc e39d a93e 4fa3 1b3e 1769 953d
00000170: 3fca c4bd 49dc 54bd 8579 8fbd f058 be3c
00000180: 0bb5 5a3d 1b9d 0f3e 3193 693d 6533 bb3d
00000190: e954 813e 745f bbbd cff0 8c3d 157f 5a3b
000001a0: 1359 c83c 4b3f b63c eeb6 82bd 2d58 01bd
000001b0: f8bb 5b3c 45bc ca3d 04e8 1bbd f055 953b
000001c0: 7e64 bf3d b0e0 19bc 61e7 89bd 90d6 063d
000001d0: 398e dabc 1768 34bd 5ff3 a23d d910 fa3d
000001e0: 7e77 9f3d b38d 59bd 5537 9f3d daaa d6bc
000001f0: d061 033e cdf5 f23c 004a bfbd 5770 63bc
00000200: 8761 92bd 87fd 60bd 2f7c 68bd 8897 e43d
00000210: 1619 3dbd 804f cb3d ea7e 8ebe 115b 9abd
00000220: e50e 41be 1fa7 99bd aee6 53be 4d7c b63c
00000230: 4220 d4bd 050d ebbd ef80 8c3d 3894 933d
00000240: 5abe 8a3d eef4 ec3c ae8a 82bd d2d1 d2bd
00000250: ef98 603d 9c72 8fbc c44e 71be f803 9b3c
00000260: d497 cebd c71d dd3d 280a bb3d 1883 92bc
00000270: 7db7 8b3d d8fb 583d 9b76 f6bd 600c b03c
00000280: d690 173e c156 ed3d 2fb8 36bd 4d91 2b3e
00000290: ddbf babd 42b8 213e d3a5 2bbc c00a 86bc
000002a0: 018a a0bd b4c0 bd3d bad2 30be d4cb 8abd
000002b0: 4c93 c93d fb17 4d3d 73b3 5f3c e81a 873e
000002c0: d083 0d3d 22d4 a53c ff52 2b3b 098b 2ebd
000002d0: 4f22 903b 22cc c2bc 0d4a d1bd 11df 2a3c
000002e0: 79c9 353c f77e 523d f5bf 82bd 52e2 23bd
000002f0: 5cb8 ae3d 88e8 1cbe cc9f 193d 45c0 5cbc
00000300: 5443 cd3d 358d e73b 768b 0fbd 7464 01be
00000310: ffba 403e e5e4 bebc 5932 aabc 972b 95ba
00000320: 9264 21bd 59c3 d13c 3df7 a43d 2f13 a13d
00000330: 2baa dd3d 69de 613d eb48 d2bd 2c2e 70be
00000340: af70 e93d f720 543c 4117 4b3e f969 3bbd
00000350: 4ae1 803e 6988 2fbc 5cd1 f3bd 3694 b23c
00000360: 4cf7 1c3d 2b68 0c3d 9591 803c 9cce 89bd
00000370: bc2a ed3d 9771 6c3d 04ef fdbc 1975 6d3d
00000380: 1957 d33d 1365 8e3d f909 4cba e22f debd
00000390: c4c2 1d3d 4ebf cd3d 61ec 01bc 8696 82bd
000003a0: 73c6 96ba 735e e93d ded4 f43d 5343 1dbe
000003b0: 373c 303c 4d3a b83a 9ec9 b83c e18e 123d
000003c0: 2a3c 3ebd c500 54bd 841a 863d 7c79 23bd
000003d0: 4815 143d 9286 273d aa75 3d3d 413d 15bd
000003e0: bee7 fcbd d450 0b3e bd94 a3bd 85d9 fcbd
000003f0: 0b86 eb3d 7cc6 b4bd ba5b 923c fe6f 22bd

map_L2.bias f4 [64]
0.04903874 -0.22519259 -0.3922765 -0.34665215 -0.3488509 -0.15754278 -0.13341698 -0.54721344
-0.12844567 0.32000458 0.4169947 -0.2124867 0.11939168 0.698949 -0.30037364 -0.35332787
0.1361351 -0.2689876 -0.17177999 0.01814435 -0.10427488 -0.5734264 0.08619319 0.35548016
-0.52059484 -0.16352145 -0.56465054 -0.22218312 -0.35125732 -0.99800533 -0.6665772 -0.053207044
1.3098238 -0.05477163 0.008927553 -0.08550339 -0.3124533 -0.45170683 -0.015545513 -0.8448973
-0.24386302 -0.54459906 -0.021709343 -0.4012092 0.08978734 0.26967484 -0.43473613 0.18192206
-0.3071883 -0.51106596 -0.3998124 -0.36296892 0.3513525 -0.54016703 0.014741618 -0.38881892
0.047098953 0.5823905 -0.41061074 -0.07980842 0.12723967 0.31378984 -0.10447573 -0.13862737
00000000: d9dc 483d e398 66be 77d8 c8be 647c b1be
00000010: 969c b2be e552 21be 769e 08be 2e16 0cbf
00000020: 4387 03be a4d7 a33e 5480 d53e 1d96 59be
00000030: a083 f43d 52ee 323f 93ca 99be 64e7 b4be
00000040: 0067 0b3e beb8 89be 18e7 2fbe 76a3 943c
00000050: 118e d5bd 13cc 12bf 0e86 b03d 7f01 b63e
00000060: b445 05bf 2b72 27be f08c 10bf f983 63be
00000070: 00d8 b3be 477d 7fbf cea4 2abf a1ef 59bd
00000080: 4ea8 a73f 3758 60bd df44 123c 671c afbd
00000090: e1f9 9fbe 1e46 e7be 9bb2 7ebc 304b 58bf
000000a0: 3ab7 79be d86a 0bbf cbd7 b1bc 4b6b cdbe
000000b0: 6de2 b73d d212 8a3e bc95 debe c749 3a3e
000000c0: c947 9dbe 38d5 02bf 36b4 ccbe 10d7 b9be
000000d0: 7ae4 b33e 6348 0abf d486 713c 4613 c7be
000000e0: d5ea 403d 8b17 153f 923b d2be 9972 a3bd
000000f0: 1e4b 023e 10a9 a03e 5ff7 d5bd 55f4 0dbe

map_L3.weight f4 [16, 64]
0.10738002 0.11057909 -0.015076708 0.16538197 0.05986598 -0.13378774 -0.031936947 0.029046748
-0.037824985 0.0027508847 -0.05906005 0.05190273 0.071507476 -0.03782374 0.056754142 -0.12091492
-0.09600259 0.021374626 0.039652765 -0.019253064 0.07443742 -0.053616773 -0.093860544 -0.02709982
0.03598567 -0.004394969 0.05329587 0.048478324 0.012669985 -0.12564255 0.24928576 0.014309468
-0.10306855 0.055410683 -0.059412487 -0.0460299 -0.06492496 0.03994754 -0.22438355 -0.03702137
-0.0379716 0.14764798 -0.03188671 -0.018855618 0.10879944 -0.072522424 0.10168515 -0.02865043
-0.0147267915 0.01221113 -0.053709395 0.00958595 0.08098172 -0.15560216 0.09376607 0.1686601
0.08963728 0.06270205 -0.01436084 0.019762576 0.05936238 -0.1030127 -0.008645294 -0.0010229546
0.0015977572 0.1951859 6.2531275e-05 0.004484428 -0.286711 -0.12871741 -0.0024923945 -0.3217744
0.0044117505 -0.004910378 0.12762271 0.08330698 -0.0010472891 0.17337944 0.00012943876 0.00045566785
-0.005745957 -0.00078935176 0.001319765 0.0017460014 -0.00051249337 0.00018503056 -0.0046157525 0.5934617
0.0054324716 0.0005602242 -0.09748969 0.001301682 0.028100055 -0.4786819 -0.008998776 0.0015211984
0.349767 -0.07343733 0.14524177 0.0032684354 -0.005566028 0.0017360256 0.030755313 -0.26913533
0.0030900564 0.084129386 0.00024158729 0.00546381 0.087513216 0.621873 -0.019946381 -0.0054959347
-0.00082186994 -0.0005555069 -0.0023277744 -0.0016255279 0.21483915 -0.001985214 -0.016174646 0.0029529666
-0.12282186 0.41863772 0.0003385456 0.262949 -0.0014452032 0.052438833 0.002094519 -0.008765495
0.0008083241 -0.17089063 -0.035365477 -0.040268 0.015027192 0.008174892 -0.034698546 -0.0002818769
-0.039611183 -0.019636067 -0.03298378 0.035915766 0.02198219 -0.028661773 0.053843524 -0.01226934
0.02609046 0.070749424 -0.011818416 -0.02177966 -0.056699682 0.030869482 0.0272685 0.055240147
0.059321124 0.079143815 0.048115093 0.040457334 -0.03299279 -0.06090016 -0.07543758 0.054335836
-0.12941489 0.027195133 -0.09743407 -0.005807732 0.10671921 -0.043271508 -0.06682552 -0.003917363
0.032054275 -0.054085687 -0.05006185 0.06633009 0.11308393 0.023027342 0.1287349 -0.04782145
0.01860745 -0.043951157 -0.0035137753 0.013381793 0.021376273 -0.0073001743 0.13039272 0.041056123
0.032193255 0.0018278469 -0.041716598 0.13556576 0.012934649 0.022335753 0.0033087174 -0.02229607
-0.08598456 -0.02677581 -0.027237797 -0.081540704 -0.010088684 -0.07201438 0.035922788 0.029794227
0.050876938 -0.08979137 -0.15446831 -0.042771116 -0.018172061 -0.015995806 -0.016422518 0.016395481
0.10118486 -0.0176079 0.12644234 0.03085207 0.03906894 0.13503635 -0.028533733 0.012791421
0.015642008 0.08530857 -0.046213213 0.048817787 0.012596244 -0.03342623 0.02165339 0.056638096
-0.055760823 0.06809899 0.010347329 -0.015368274 0.045284208 0.040714644 -0.05480823 -0.01913183
-0.018073449 0.034846295 -0.11166242 -0.0544872 0.05888745 -0.030508846 -0.00529299 -0.045256443
-0.024214061 0.022840627 0.053231686 0.11584084 0.07977668 -0.025812807 0.038113303 -0.013539456
0.012925166 0.027920548 -0.11812372 0.044115584 -0.041886047 -0.014867106 0.037353635 0.055121712
00000000: 0eea db3d 4a77 e23d 4c04 77bc e459 293e
00000010: 0836 753d a7ff 08be 51d0 02bd 72f3 ed3c
00000020: 5fee 1abd 3048 343b f3e8 71bd f597 543d
00000030: 8372 923d 11ed 1abd 0877 683d 3ea2 f7bd
00000040: 029d c4bd d719 af3c f06a 223d 9ab8 9dbc
00000050: a572 983d 439d 5bbd f539 c0bd 7100 debc
00000060: b665 133d ac03 90bb c54c 5a3d 3591 463d
00000070: c595 4f3c 71a8 00be c444 7f3e 4272 6a3c
00000080: 9b15 d3bd 50f6 623d 825a 73bd d989 3cbd
00000090: 61f7 84bd 08a0 233d cdc4 65be b8a3 17bd
000000a0: 1c88 1bbd 0831 173e a49b 02bd 1977 9abc
000000b0: 3ed2 de3d a386 94bd 4e40 d03d 4eb4 eabc
000000c0: a448 71bc 3111 483c 62fe 5bbd 630e 1d3c
000000d0: bed9 a53d 2c56 1fbe 6d08 c03d 3cb5 2c3e
000000e0: c093 b73d ef69 803d bb49 6bbc 20e5 a13c
000000f0: f825 733d 53f8 d2bd fea4 0dbc a914 86ba
00000100: d66b d13a d0de 473e 3923 8338 1cf2 923b
00000110: c9cb 92be 7fce 03be 7157 23bb 9dbf a4be
00000120: 7290 903b 3ce7 a0bb 87af 023e da9c aa3d
00000130: 3145 89ba 618a 313e f4b9 0739 b4e6 ee39
00000140: 9548 bcbb 80ec 4eba f7fb ac3a 16da e43a
00000150: d958 06ba c304 4239 bd3f 97bb 1bed 173f
00000160: e002 b23b 02dc 123a ada8 c7bd 339d aa3a
00000170: 1632 e63c cb15 f5be 9a6f 13bc f362 c73a
00000180: a914 b33e 5066 96bd 42ba 143e 3f33 563b
00000190: 3a63 b6bb 5a8b e33a 91f2 fb3c 1bcc 89be
000001a0: 8b82 4a3b 074c ac3d 9852 7d39 c309 b33b
000001b0: 213a b33d 1233 1f3f 9866 a3bc 3e17 b4bb
000001c0: c272 57ba 709f 11ba 938d 18bb aa0f d5ba
000001d0: cbfe 5b3e 5d1a 02bb b180 84bc 8f86 413b
000001e0: 078a fbbd af57 d63e d27e b139 40a1 863e
000001f0: f96c bdba 1aca 563d 3344 093b 279d 0fbc
00000200: b6e5 533a f4fd 2ebe 64db 10bd 0ff0 24bd
00000210: 9d34 763c fbef 053c 1020 0ebd e1c8 93b9
00000220: 563f 22bd d1db a0bc 001a 07bd 691c 133d
00000230: fe13 b43c 18cc eabc 078b 5c3d 5805 49bc
00000240: a9bb d53c 13e5 903d 08a2 41bc 426b b2bc
00000250: ed3d 68bd ffe1 fc3c 3062 df3c 7e43 623d
00000260: b5fa 723d 2716 a23d 5514 453d 97b6 253d
00000270: 7323 07bd 7272 79bd 057f 9abd 418f 5e3d
00000280: 5685 04be 54c8 de3c 848b c7bd ca4e bebb
00000290: 9a8f da3d 773d 31bd d1db 88bd 395d 80bb
000002a0: 584b 033d f488 5dbd a80d 4dbd 12d8 873d
000002b0: 8c98 e73d d6a3 bc3c 15d3 033e 6de0 43bd
000002c0: a76e 983c 2106 34bd 5e47 66bb 4f3f 5b3c
000002d0: 4b1d af3c 4d36 efbb ab85 053e 772a 283d
000002e0: 13dd 033d 5d94 ef3a 06df 2abd c0d1 0a3e
000002f0: daeb 533c 78f9 b63c 11d7 583b 3fa6 b6bc
00000300: ac18 b0bd f258 dbbc cd21 dfbc d0fe a6bd
00000310: 024b 25bc 467c 93bd c623 133d 0613 f43c
00000320: 5664 503d 8ae4 b7bd f12c 1ebe c430 2fbd
00000330: 93dd 94bc a309 83bc 8488 86bc d14f 863c
00000340: 023a cf3d 713e 90bc 1a7a 013e 7bbd fc3c
00000350: c106 203d f846 0a3e 93bf e9bc 1c93 513c
00000360: ab23 803c 42b6 ae3d 114a 3dbd 29f5 473d
00000370: 7a60 4e3c f1e9 08bd 7362 b13c 59fd 673d
00000380: 7665 64bd 7c77 8b3d d887 293c 37cb 7bbc
00000390: ef7b 393d 66c4 263d 987e 60bd 5bba 9cbc
000003a0: c50e 94bc fdba 0e3d 44af e4bd f82d 5fbd
000003b0: f733 713d b0ed f9bc d170 adbb d25e 39bd
000003c0: 915c c6bc 441c bb3c 7809 5a3d f63d ed3d
000003d0: f561 a33d 6175 d3bc b21c 1c3d 98d4 5dbc
000003e0: 13c4 533c a2b9 e43c d9ea f1bd 8bb2 343d
000003f0: b490 2bbd 2a95 73bc 2000 193d 4ec7 613d

map_L3.bias f4 [16]
0.22060527 0.9109251 0.027485957 0.06163983 -0.5848168 -0.08615694 0.0024831626 -0.75369143
-0.18076302 -0.18946978 0.8671752 -0.71108437 -0.05075449 -0.041798364 0.89478165 0.04908545
00000000: 59e6 613e 6332 693f 3b2a e13c 0c7a 7c3d
00000010: 8eb6 15bf 0d73 b0bd 8ebc 223b ecf1 40bf
00000020: f119 39be 5e04 42be 32ff 5d3f a009 36bf
00000030: f1e3 4fbd c334 2bbd 6910 653f d30d 493d

map_L4.weight f4 [4, 16]
0.06117737 -0.0039380416 -0.032382965 0.03176789 -0.001953229 -0.026419496 0.012524195 0.00301587
-0.049710408 -0.0057508238 -0.0007697027 0.023348007 0.08164535 0.010167378 0.025728742 -0.046403106
-0.0033423791 0.12915434 3.5886987e-05 -0.0006645849 -0.051265765 0.0009771378 -0.0005383293 -0.22487222
0.0006023543 -0.002403561 0.024047714 0.00280202 -0.0017572324 -0.00018566666 0.010576822 -0.014712342
-0.004026466 0.104295634 -0.008228532 0.0049990043 0.3787302 0.0006046348 -0.0068533886 -0.19777483
-0.0045046215 -0.0073638298 -0.42525727 -0.010265133 0.0010063931 0.004964399 0.2422833 -0.440124
-0.0027809448 -0.3870517 -0.004583355 -0.0047302665 0.042703163 -0.0025173118 -0.008843128 -0.19255836
0.0023565302 -0.0027083412 -0.13010219 -0.0008621494 -0.00084909366 0.0035914888 0.18837412 -0.21180585
00000000: 1f95 7a3d b00a 81bb 00a4 04bd 0c1f 023d
00000010: bf01 00bb b36d d8bc 4832 4d3c e7a5 453b
00000020: 249d 4bbd 6871 bcbb e0c5 49ba 5244 bf3c
00000030: ad35 a73d 1395 263c 15c5 d23c 2f11 3ebd
00000040: d10b 5bbb 0941 043e 5c85 1638 8a37 2eba
00000050: 0dfc 51bd 4e13 803a ab1e 0dba e744 66be
00000060: 50e7 1d3a 1085 1dbb b6ff c43c 18a2 373b
00000070: ef52 e6ba 84af 42b9 684a 2d3c 090c 71bc
00000080: 72f0 83bb f398 d53d f7d0 06bc b0ce a33b
00000090: ede8 c13e 5b80 1e3a 6492 e0bb 7c85 4abe
000000a0: 819b 93bb 484c f1bb 52bb d9be 172f 28bc
000000b0: f3e8 833a 66ac a23b 1d19 783e ef57 e1be
000000c0: 8340 36bb a42b c6be f82f 96bb 5a00 9bbb
000000d0: 83e9 2e3d 7cf9 24bb c4e2 10bc 052e 45be
000000e0: 0470 1a3b 6d7e 31bb 8239 05be de01 62ba
000000f0: b695 5eba 2f5f 6b3b 25e5 403e a2e3 58be

map_L4.bias f4 [4]
-0.014121539 1.207416 0.0005738995 -0.31006026
00000000: 075e 67bc 9c8c 9a3f be71 163a 38c0 9ebe

map_mu.weight f4 [2, 4]
-0.0003248659 0.2631795 -0.0472878 0.08628416 -0.0011405791 0.0547335 0.10133924 -0.21989527
00000000: c352 aab9 77bf 863e dab0 41bd c0b5 b03d
00000010: 7c7f 95ba 3c30 603d f38a cf3d 3a2c 61be

map_mu.bias f4 [2]
0.34637827 0.109249935
00000000: 7e58 b13e 6ebe df3d

map_var.weight f4 [2, 4]
-12.559683 -2.8506882 2.4794176 17.600668 -13.159311 -2.26139 2.3197412 18.336517
00000000: 76f4 48c1 ad71 36c0 c7ae 1e40 2bce 8c41
00000010: 8a8c 52c1 9dba 10c0 a476 1440 30b1 9241

map_var.bias f4 [2]
-22.340036 -23.199675
00000000: 65b8 b2c1 ef98 b9c1
