models_VAEGAN_batch128/ep_100_discriminator_model.pth (torch_old, 21281 bytes, 7 tensors)

map_L1.weight f4 [256, 2]
0	0xbdc7c6c9	-0.09754712
1	0xbe21a2d9	-0.15784778
2	0x3d5209a8	0.05127874
3	0x3e33985f	0.17538594
4	0xbda3364d	-0.079693414
5	0x3d335a84	0.043787494
6	0xbdd28d37	-0.10280841
7	0x3e29ff63	0.16601329
8	0xbe0c341f	-0.13691758
9	0x3e7e2de9	0.24822201
10	0xbdb5a768	-0.08869821
11	0xbe2c4886	-0.1682454
12	0x3d928848	0.071549
13	0x3dce14a9	0.10062534
14	0xbdc247ec	-0.09486374
15	0xbe20972e	-0.1568267
16	0xbcb1f85a	-0.021724869
17	0x3e51d35e	0.20490786
18	0xbe4da7eb	-0.20083587
19	0x3d85ac6b	0.06527027
20	0xbde0728a	-0.109593466
21	0xbe21b7dc	-0.15792793
22	0xbe189646	-0.14901075
23	0xbc431fc7	-0.011909432
24	0x3a2366fb	0.0006233302
25	0x3e1e9f02	0.15490344
26	0x3d215026	0.039383076
27	0x3e237add	0.15964837
28	0xbd71a761	-0.058997516
29	0x3e1ca131	0.15295865
30	0xbdcaa964	-0.0989559
31	0xbe11f00d	-0.14251728
32	0x3e02ffa3	0.1279283
33	0x3c5b5407	0.013386733
34	0xbe21c1c2	-0.15796569
35	0x3c8fd335	0.017556766
36	0xbd8ee685	-0.06977562
37	0x3ddc36ce	0.10752641
38	0xbdb0d682	-0.08634664
39	0x3d219b30	0.03945464
40	0x3e2bc8b5	0.16775782
41	0xbd41531b	-0.047198396
42	0xbd644548	-0.055730134
43	0xbc4fa319	-0.012673163
44	0xbe52190f	-0.20517372
45	0x3dab503a	0.083649114
46	0xbe489edf	-0.19591855
47	0xbcc20a65	-0.023686597
48	0xbe2d0d0f	-0.16899513
49	0x3d132804	0.035926834
50	0x3c9a5f3e	0.018844243
51	0x3cd22d22	0.025656287
52	0xbe02c2ea	-0.12769666
53	0x3d10fe9d	0.03539907
54	0xbdb25812	-0.08708204
55	0x3d7f20d8	0.06228718
56	0x3c732b13	0.014841813
57	0xbdeac09d	-0.11462519
58	0x3dcad782	0.09904386
59	0x3d0a1335	0.033709724
60	0x3e09fa4e	0.1347439
61	0x3e30a137	0.17248999
62	0x3c06095f	0.008180945
63	0xbe193e75	-0.14965232
64	0xbdeb919e	-0.11502384
65	0xbe1a0779	-0.15041913
66	0xbd6491ae	-0.055802993
67	0xbe2e75e2	-0.17037156
68	0xb8491ade	-4.7947156e-05
69	0xbe0e7766	-0.13912734
70	0xbd777656	-0.06041559
71	0x3d776934	0.060403064
72	0xbe07f1d2	-0.13275841
73	0x3e811f88	0.2521937
74	0xbd54f748	-0.05199364
75	0xbdb6e592	-0.08930506
76	0xbdd20f57	-0.10256832
77	0xbd51675a	-0.051123954
78	0x3e2377dc	0.15963691
79	0x3d492e8e	0.049116664
80	0xbdbcf0a2	-0.092255846
81	0xbe58ede2	-0.21184495
82	0xbd896934	-0.06709519
83	0xbd8b2871	-0.06794823
84	0x3dda2465	0.10651473
85	0xbdb4afb8	-0.08822578
86	0xbdc42762	-0.09577824
87	0x3de80706	0.113294646
88	0x3e25d280	0.1619358
89	0xbda8bce1	-0.08239151
90	0xbd6d29f3	-0.057901334
91	0x3de2d6ad	0.110761024
92	0x3d98d33e	0.07462166
93	0xbcc69ca7	-0.02424462
94	0xbe1e40fd	-0.15454479
95	0xbde93a85	-0.11388115
96	0x3e12179f	0.14266823
97	0xbdc9897c	-0.09840676
98	0x3d584e48	0.05280903
99	0x3dfe06d1	0.12403644
100	0xbe587019	-0.21136512
101	0xbe095068	-0.13409579
102	0x3d129b26	0.035792492
103	0x3d1dd1f2	0.038530298
104	0x3dd2b36a	0.10288127
105	0xbc459271	-0.01205884
106	0xbe182a01	-0.14859773
107	0xbda9a1a0	-0.08282781
108	0x3df1ab5a	0.11800261
109	0xbe0e1212	-0.13874081
110	0xbda9950f	-0.08280384
111	0x3dada3be	0.08478497
112	0x3dea5a55	0.11443011
113	0xbdf9efc9	-0.122039385
114	0x3dfa8582	0.12232496
115	0xbd357ae2	-0.044306643
116	0xbcd647e7	-0.026157333
117	0x3e273790	0.16329789
118	0x3d41ba39	0.047296736
119	0xbdeca83b	-0.11555525
120	0x3db78c02	0.08962251
121	0x3d6c445b	0.057682376
122	0x3e2449ed	0.16043825
123	0xbe38d8a9	-0.180514
124	0xbdba5cac	-0.09099707
125	0xbdc8d539	-0.09806294
126	0x3df96c97	0.12178915
127	0x3c127424	0.008938823
128	0x3de40aa0	0.11134839
129	0xbd83a9e4	-0.064288884
130	0x3dde455e	0.108530745
131	0x3db17fa9	0.08666927
132	0xbe318e7c	-0.1733951
133	0xbd7b00b5	-0.06127997
134	0xbd0d8e52	-0.034559555
135	0xbcf9adab	-0.03047832
136	0x3cc012d5	0.02344648
137	0x3d34322d	0.043993164
138	0xbd276b9b	-0.040874105
139	0x3e0b9f85	0.1363507
140	0x3db2ddf0	0.087337375
141	0x3e0e4719	0.13894309
142	0xbda4625d	-0.08026574
143	0xbe09caf7	-0.13456331
144	0xbdf4e859	-0.11958379
145	0xbe35d022	-0.17755178
146	0xbd815dd2	-0.06316723
147	0xbd2e7369	-0.042590532
148	0xbdbd5030	-0.0924381
149	0x3dc04c7f	0.093895905
150	0xbcc1f112	-0.023674522
151	0xbe3845f4	-0.17995435
152	0xbdf71069	-0.12063677
153	0xbbd646a0	-0.006539181
154	0xbdad1a81	-0.08452321
155	0xbde06ea5	-0.10958604
156	0x39a655e6	0.00031725987
157	0xbe12b340	-0.14326191
158	0x3b03ba77	0.0020100155
159	0x3d43a150	0.04776126
160	0xbe188ccb	-0.14897458
161	0x3c89350c	0.016748928
162	0xbd764155	-0.0601209
163	0xbe07ceb4	-0.13262445
164	0xbd9d671b	-0.076856814
165	0x3dab479d	0.083632685
166	0xbdd0328b	-0.1016589
167	0xbe3fe60a	-0.18740097
168	0xbd6ad6aa	-0.057333626
169	0xbc8b7519	-0.01702361
170	0x3a6cd3bd	0.0009034237
171	0x3e22e711	0.15908457
172	0xbdabcc7e	-0.08388613
173	0x3dbf13e7	0.09329968
174	0x3de46d1e	0.11153625
175	0xbdaf4963	-0.08558919
176	0x3e5691e8	0.20954096
177	0xbda2c3e3	-0.07947519
178	0xbd24817c	-0.04016255
179	0x3e184c32	0.14872816
180	0x3d697bce	0.057002835
181	0x3db4cabb	0.0882773
182	0xbe037bd9	-0.12840213
183	0x3d891fdc	0.0669553
184	0x3e2e05fd	0.16994472
185	0xbe61add6	-0.2203897
186	0x3d2c53f7	0.042072263
187	0xbc2a8c59	-0.010409438
188	0x3e1a087d	0.150423
189	0x3df7c666	0.120983884
190	0xbde742ed	-0.11292062
191	0x3d15f278	0.03660819
192	0x3e1e116d	0.15436335
193	0xbdc76375	-0.09735767
194	0xbd629bd8	-0.055324405
195	0x3dd53bb0	0.10411775
196	0xbdd69bab	-0.1047891
197	0x3e342183	0.17590909
198	0xbe082b46	-0.13297758
199	0x3cc02a49	0.023457663
200	0xbe3b37f2	-0.1828306
201	0xbe36530a	-0.17805114
202	0x3db2b322	0.08725573
203	0xbd276f8e	-0.04087787
204	0x3d40ba88	0.04705289
205	0x3d5ecf02	0.054396637
206	0xbd8c5067	-0.06851273
207	0x3c5014e3	0.012700292
208	0xbdb5d42b	-0.088783585
209	0x3e5fb050	0.21844602
210	0x3dd5a740	0.10432291
211	0x3e0b40c6	0.13598928
212	0xbd15c19e	-0.0365616
213	0xbc1a6240	-0.009422839
214	0x3c4a6b7e	0.01235473
215	0x3df91c7e	0.121636376
216	0xbdb9da4b	-0.09074839
217	0xbcfbe851	-0.030750426
218	0x3e2e956d	0.17049189
219	0x3dad9553	0.08475747
220	0x3de9f507	0.114236884
221	0xbd56e1a2	-0.052461274
222	0x3e0f3055	0.13983281
223	0x3e1b04b4	0.15138513
224	0xbdcbd3c5	-0.09952501
225	0x3e0f83cc	0.1401512
226	0x3d166edd	0.03672682
227	0x3dcb6d6e	0.099329814
228	0xbdc27712	-0.09495367
229	0xbe3bd9e4	-0.18344837
230	0xbd633e6b	-0.05547945
231	0x3e0928c1	0.13394453
232	0x3d0fe461	0.03512991
233	0xbb733973	-0.00371131
234	0x3e111099	0.14166488
235	0x3ddc362b	0.10752519
236	0x3afde68b	0.0019371075
237	0xbe050d1a	-0.12993279
238	0xbdb46554	-0.08808389
239	0xbd012593	-0.031529974
240	0x3d044c6b	0.03229944
241	0x3bbf0990	0.0058299974
242	0xbdace4b0	-0.08442056
243	0x3d572a0f	0.052530345
244	0xbdda56ba	-0.10661073
245	0xbd3c7bd2	-0.04601652
246	0x3e38ee97	0.18059765
247	0xbe8ae406	-0.27127093
248	0x3df3374d	0.11875782
249	0xbd8f7b5c	-0.07005951
250	0xbe172fa8	-0.14764273
251	0x3e306c01	0.172287
252	0x3d98205b	0.07428046
253	0x3d88245b	0.06647559
254	0xbd26db51	-0.0407365
255	0x3d685d28	0.056729466

map_L1.bias f4 [256]
0	0x3d4630e3	0.048386466
1	0xbd822ca7	-0.06356173
2	0xbc8dbaf7	-0.017301066
3	0xbbb1e58a	-0.0054289745
4	0xbd1bbbb2	-0.038020797
5	0x3c239207	0.009983546
6	0xbd883516	-0.0665075
7	0xbd17a4af	-0.03702229
8	0xbcaf0399	-0.02136402
9	0x3d306aaa	0.043070473
10	0x3dcb4c25	0.09926633
11	0x3d2678ae	0.040642433
12	0xbdb6900b	-0.08914193
13	0xbd578a5d	-0.052622188
14	0x3c4e8ae6	0.012606358
15	0x3d38a6b5	0.04508086
16	0x3e0a3dfc	0.13500208
17	0x3ce2222d	0.027604187
18	0xbbab35ad	-0.0052249045
19	0xbd1de2bc	-0.03854631
20	0xbcdcb3aa	-0.02694114
21	0x3c06acc7	0.008219904
22	0x3ceda8b7	0.029011114
23	0x3d10ae75	0.035322625
24	0xbbfeb1f2	-0.0077726776
25	0x3d1c45cb	0.038152497
26	0xbc770d9f	-0.015078931
27	0xbce490e0	-0.027901113
28	0xbcd8554b	-0.026407858
29	0x3da38ef3	0.0798625
30	0xbd7f0553	-0.062260937
31	0x3c8d74e2	0.017267648
32	0x3d519eb1	0.05117673
33	0x3d2125f5	0.03934284
34	0x3ccb78ab	0.024837812
35	0x3d0dc834	0.034614757
36	0x3c362f88	0.011119731
37	0x3bb7a42d	0.005604288
38	0xbb5a5d9d	-0.0033319958
39	0x3d7fbc69	0.06243554
40	0x3d2e3c92	0.042538233
41	0x3cde04e0	0.027101934
42	0x3d5387cc	0.051643178
43	0xbcab8afd	-0.020940298
44	0x3c69e9aa	0.014276901
45	0xbb346cd1	-0.002753068
46	0xbc828dbd	-0.015936727
47	0x3c5efdca	0.013610313
48	0xbd792de2	-0.060834773
49	0xbd19dac8	-0.03756216
50	0x3d922562	0.071360365
51	0xbc6e6590	-0.014550582
52	0xbcc970ef	-0.024589984
53	0x3d248137	0.04016229
54	0xbd7c5ec5	-0.061613817
55	0xbcfc9dee	-0.030837025
56	0xbcf5787c	-0.029964678
57	0xbd9e1435	-0.07718698
58	0xbd9554f5	-0.07291595
59	0xbd0b0367	-0.03393879
60	0xbbb5b109	-0.005544786
61	0xbcbc9ca0	-0.023023903
62	0x3d108ddc	0.035291538
63	0xbc87eb9e	-0.016591843
64	0xbd62a9cb	-0.05533771
65	0xbd14bb17	-0.036311235
66	0x3d63c01a	0.055603124
67	0x3c549b0d	0.01297642
68	0x3c940a91	0.018071445
69	0x3b665522	0.0035145958
70	0xbd4bbb3c	-0.049739107
71	0xbc6e159f	-0.014531522
72	0xbc909f6c	-0.017654143
73	0xbd1475df	-0.036245223
74	0x3d55504f	0.05207854
75	0x3c426148	0.011864014
76	0xbd3b14ce	-0.045674138
77	0x3d20346b	0.03911249
78	0x3cd07790	0.025447637
79	0x3d54de38	0.051969737
80	0xbd08765a	-0.033315994
81	0x3d1ffc05	0.039058704
82	0x3de36503	0.11103251
83	0xbb76061c	-0.0037540263
84	0x3b966d33	0.0045906543
85	0xbceab9cd	-0.02865305
86	0xbd1bc401	-0.03802872
87	0xbd7f8e7f	-0.062391754
88	0xbd0eee3e	-0.034895174
89	0xbab2f8fd	-0.0013654527
90	0x3d99c8b6	0.07508986
91	0x3daafe9d	0.08349345
92	0xbbb3428c	-0.0054705795
93	0xbc162a6e	-0.009165389
94	0xbb93b515	-0.0045076706
95	0x3cc6d9c4	0.02427376
96	0xbd927802	-0.07151796
97	0x3c9e24ca	0.019304652
98	0xbcb7dc75	-0.02244399
99	0xbc0fba33	-0.008772421
100	0x3d27de62	0.040983565
101	0x3d3e3399	0.046435926
102	0x3ddd8c00	0.108177185
103	0xbda218c3	-0.07914879
104	0xbc463cd3	-0.012099463
105	0xbbf6bffb	-0.00753021
106	0xbda04d52	-0.07827248
107	0xbcc95f84	-0.024581678
108	0x3c550666	0.013002014
109	0xbd5f8c0e	-0.054576926
110	0xbb657d04	-0.0035017142
111	0xbdd4b8ac	-0.10386786
112	0x39ba61dc	0.00035549595
113	0xbb90b02c	-0.0044155326
114	0x3d4f7508	0.05064872
115	0x3d998bf2	0.074973956
116	0x3d90e64e	0.07075177
117	0x3b7239f8	0.0036960822
118	0xbd1980c7	-0.037476327
119	0x3ce8ab26	0.028401922
120	0x3ddc23b2	0.10748996
121	0xbbc2f60f	-0.0059497426
122	0xbd126f28	-0.035750538
123	0x3c19b31f	0.009381085
124	0x3d78c180	0.06073141
125	0xbd0e49de	-0.034738414
126	0xbcd6df02	-0.026229385
127	0x3d45e2e3	0.04831208
128	0xbd4dbd73	-0.0502295
129	0xbd096345	-0.033541936
130	0xbda0eca9	-0.07857639
131	0xbc258e57	-0.010104737
132	0xbaa175de	-0.0012318452
133	0xbd4cd13f	-0.05000424
134	0xbb0f47a0	-0.002186276
135	0x3d287835	0.041130263
136	0x3c13787a	0.009000892
137	0x3c347003	0.011013034
138	0xbb9166de	-0.0044373116
139	0xbb027c14	-0.0019910382
140	0x3b4890a9	0.0030603802
141	0xbd492a48	-0.04911259
142	0x3d3f04a3	0.04663528
143	0xbc72769c	-0.0147987865
144	0x3d1c5f2e	0.038176708
145	0xbcfdf117	-0.03099875
146	0xbc80de1d	-0.015730912
147	0x3abc4dcd	0.0014366448
148	0xbd7a0b85	-0.061046142
149	0x3d82c01f	0.063843004
150	0x3db7e580	0.089793205
151	0xbd93a33d	-0.072088696
152	0xbd635353	-0.055499386
153	0xbda06317	-0.078314
154	0xbd5bf304	-0.053698555
155	0xbbe38cc2	-0.00694427
156	0xbc31bd99	-0.010848426
157	0xbd0846b1	-0.03327054
158	0x3d6e5985	0.05819084
159	0xbcc2bf01	-0.023772718
160	0x3e0e0b70	0.1387155
161	0xbd66e1d9	-0.05636773
162	0xbccfab4b	-0.025350234
163	0x3d660308	0.056155235
164	0x3d8ec8b4	0.06971875
165	0xbd1054a6	-0.035236977
166	0x3d0306fc	0.031989083
167	0xbaba38e2	-0.0014207626
168	0x3bda3ce3	0.0066600903
169	0xbb97952e	-0.004625938
170	0xbb82c463	-0.0039906963
171	0xbb91f525	-0.0044542723
172	0x3caad654	0.020854153
173	0x3dcb30b0	0.09921396
174	0x3d0534fe	0.03252124
175	0x3d25b1dd	0.040452827
176	0x3c920627	0.0178252
177	0xbd9e890a	-0.07740982
178	0x3d41691c	0.04721938
179	0xbd106e2c	-0.035261318
180	0x3dae8c26	0.08522825
181	0xbc05c30f	-0.008164181
182	0x3c6f365f	0.014600365
183	0xbc770d88	-0.01507891
184	0xba1de692	-0.00060234324
185	0xbcad06b2	-0.021121357
186	0xbd54ebfa	-0.051982857
187	0xbc2b68e6	-0.010462021
188	0xbda43994	-0.08018795
189	0xbc56c493	-0.01310839
190	0xbd906126	-0.070497796
191	0x3d8a21e3	0.06744745
192	0xbba3e3d9	-0.005001527
193	0x3d060cac	0.03272693
194	0x3beb36a6	0.0071781455
195	0xbc32922a	-0.010899106
196	0x3db98007	0.090576224
197	0xbd015f94	-0.03158529
198	0x3dd354f2	0.103189364
199	0x3d4fe885	0.050758857
200	0x3dc421a5	0.0957673
201	0x3c69f134	0.014278699
202	0xbcc5551f	-0.02408844
203	0xbd0b89d0	-0.034066975
204	0x3c84e6ab	0.016223272
205	0x3bbd3824	0.0057745147
206	0xbce928f5	-0.028461913
207	0xbd58ea24	-0.05295767
208	0xbb003da3	-0.0019567988
209	0x3d1e6251	0.03866798
210	0x3c9abb4d	0.01888814
211	0x3dcb24d7	0.09919136
212	0x3c5f30d8	0.013622485
213	0xbd1682a3	-0.03674568
214	0x3cb8aa91	0.02254227
215	0x3d326866	0.043556593
216	0x3bfdb1d3	0.0077421456
217	0x3d0fd471	0.03511471
218	0xbd7fa71d	-0.06241523
219	0xbb591f70	-0.003313031
220	0x3be08e4a	0.0068528997
221	0xbd2680d8	-0.04065022
222	0x3c13e1a3	0.009025964
223	0x3cd638b1	0.02615008
224	0xbcd28eed	-0.025702918
225	0xbd5f8b12	-0.054575987
226	0x3dc631db	0.09677478
227	0xbceb536a	-0.028726298
228	0x3d24de6b	0.040251177
229	0x3c33904c	0.010959696
230	0x3cbcb327	0.023034645
231	0xbd0ed37a	-0.03486965
232	0x3d131b55	0.035914738
233	0x3d8d492f	0.06898724
234	0x3c9e662d	0.01933583
235	0x3d19cb33	0.0375473
236	0xbd8899b5	-0.06669942
237	0x3c969dea	0.018385846
238	0xbb710045	-0.0036773842
239	0x3d081074	0.033218816
240	0xbca0971b	-0.019603303
241	0xbd071ff7	-0.03298947
242	0x3d01cee2	0.03169144
243	0x3da1d070	0.079010844
244	0x3d0b831a	0.034060575
245	0xbcd4a92d	-0.025959576
246	0xbd7407de	-0.059577815
247	0x3b99d132	0.0046941275
248	0xbd4a6567	-0.04941311
249	0x3d62edd4	0.05540259
250	0xbd5bbc54	-0.0536464
251	0xbcb051ef	-0.021523444
252	0xbcdf5969	-0.027264314
253	0xbc821230	-0.015877813
254	0x3d59546c	0.053059027
255	0xbd24be8f	-0.040220793

map_L2.weight f4 [16, 256]
0	0xbdea90a0	-0.11453366
1	0x3de96073	0.11395349
2	0x3d8b7fed	0.06811509
3	0xbd408918	-0.047005743
4	0x3e1fa0b4	0.15588647
5	0x3d998152	0.07495369
6	0x3bf9dc05	0.0076251053
7	0xbdec1073	-0.11526575
8	0x3df70288	0.1206103
9	0xbd48d732	-0.04903335
10	0x3dbff3c1	0.09372664
11	0xbd5257b2	-0.051353164
12	0xbd18ac44	-0.03727366
13	0x3ca60e41	0.020270469
14	0x3dffb9ec	0.12486634
15	0xbd21a7fc	-0.039466843
16	0xbc2e852e	-0.01065187
17	0x3d97e3d1	0.074164994
18	0x3c9c0e29	0.01904972
19	0xbd79c4f5	-0.06097885
20	0x3e3bd5ee	0.18343326
21	0xbd3685a3	-0.04456104
22	0x3d1ce768	0.038306624
23	0xbdae532c	-0.085119575
24	0x3dbb814a	0.09155519
25	0x3baf200a	0.0053443955
26	0xbe38c383	-0.18043332
27	0x3d5107b1	0.051032726
28	0x3dbf85d4	0.093516976
29	0x3e2d9d98	0.16954648
30	0x3d221095	0.039566595
31	0x3995b332	0.00028553006
32	0xbdf8724e	-0.12131177
33	0xbdb95d28	-0.09050971
34	0xbe3fe152	-0.18738297
35	0xbd94086b	-0.07228168
36	0x3e137ce4	0.1440311
37	0x3dcdc76e	0.10047804
38	0xbd52119e	-0.051286332
39	0x3e2482f1	0.16065575
40	0x3d2fe883	0.04294635
41	0x3d72208f	0.05911308
42	0xbcba3f2f	-0.022735206
43	0x3e1efbce	0.15525743
44	0x3cd52363	0.02601785
45	0x3c9b493d	0.018955821
46	0x3d244b1d	0.040110696
47	0xbd83e707	-0.06440549
48	0x3e5a751d	0.21333738
49	0xbd0bc97a	-0.03412769
50	0xbe4a5604	-0.19759375
51	0x3e12f145	0.1434985
52	0x3e494fbd	0.19659324
53	0x3da13643	0.07871678
54	0xbe15158c	-0.14559
55	0xbd776902	-0.060402878
56	0x3e83b8ec	0.25727022
57	0x3e889be6	0.2668144
58	0x3e1c4d81	0.1526394
59	0x3d63ef15	0.05564793
60	0x3e3d9a6f	0.18515943
61	0x3e54aeba	0.20769778
62	0xbe0d8a14	-0.13822204
63	0x3d448d20	0.04798615
64	0x3dbda952	0.09260811
65	0x3d3c662e	0.045995884
66	0xbe3aff7b	-0.1826152
67	0x3d1830a0	0.037155747
68	0x3e22dfac	0.15905637
69	0x3e3cfb1b	0.18455164
70	0x3dbd9c2e	0.092583045
71	0x3d60b246	0.054857515
72	0xbe0cb47e	-0.13740727
73	0xbbb6bdff	-0.0055768485
74	0xbdfd0fe0	-0.123565435
75	0x3dbc8a1f	0.09206032
76	0xbdbabb33	-0.09117737
77	0x3dcd3efd	0.1002178
78	0xbe5131cf	-0.20429157
79	0xbc672179	-0.014107102
80	0xbe05f648	-0.1308223
81	0xbe40bf7f	-0.1882305
82	0x3d99f12e	0.075167045
83	0xbe071ec8	-0.13195336
84	0xbcacb87e	-0.021084066
85	0xbd70276e	-0.058631353
86	0x3d1e6224	0.038667813
87	0x3de170b1	0.11007822
88	0xbd7bb764	-0.06145419
89	0x3dc876f3	0.09788313
90	0xbdff5aab	-0.124684654
91	0xbe42fe4c	-0.19042319
92	0x3e33767d	0.17525668
93	0x3dc0017a	0.09375282
94	0x3de51915	0.11186425
95	0xbe0ebba6	-0.1393877
96	0xbc2b9aae	-0.01047389
97	0xbde990c4	-0.11404565
98	0xbdafaec9	-0.085782595
99	0xbc34a9f9	-0.011026853
100	0xbde23f85	-0.11047272
101	0xbda8d6a3	-0.08244064
102	0x3d84b8a5	0.06480531
103	0x3cdfe7a0	0.027332127
104	0xbda05b48	-0.078299105
105	0x3e115992	0.14194325
106	0xbdf511b2	-0.11966266
107	0xbc723490	-0.01478304
108	0x3d257bec	0.040401384
109	0x3ded76b0	0.115949035
110	0x3dcb6690	0.099316716
111	0x3e273b5f	0.16331242
112	0xbdb73a1d	-0.08946631
113	0x3e22d43b	0.15901272
114	0xbdcdeb19	-0.10054607
115	0xbdc005af	-0.09376084
116	0x3b3b64c8	0.0028594006
117	0x3d0b8bcd	0.03406887
118	0xbe1d1ce4	-0.15343052
119	0x3d6e0244	0.05810763
120	0x3d7b6ee3	0.061385047
121	0x3d9a2ee5	0.07528476
122	0xbdbd44a6	-0.09241609
123	0xbdf5ce12	-0.120021954
124	0x3d90ff5e	0.070799574
125	0x3dbf2c65	0.093346395
126	0xbd8496b2	-0.06474055
127	0xbd80a69a	-0.06281777
128	0x3d909dd3	0.070613526
129	0x3db40023	0.087890886
130	0x3e4e5496	0.20149454
131	0x3d66709c	0.056259736
132	0xbc8b51cf	-0.017006783
133	0x3e41122f	0.18854593
134	0xbe240900	-0.16019058
135	0xbdb91576	-0.090372965
136	0x3e296895	0.16543801
137	0x3e13d4c5	0.14436634
138	0xbd378e36	-0.044813357
139	0xbe35def8	-0.17760837
140	0xbdc34b43	-0.095358394
141	0xbddc8ac3	-0.10768654
142	0x3db7836b	0.08960613
143	0x3d602d3a	0.05473063
144	0x3d947594	0.07248989
145	0x3d92fe10	0.07177365
146	0x3d3ed880	0.04659319
147	0x3d300bf4	0.04298015
148	0x3e3604cf	0.17775272
149	0xbcbf0bc9	-0.02332105
150	0x3dc47e8b	0.09594449
151	0x3cc8ea8d	0.024525905
152	0x3d742d6c	0.05961363
153	0x3e53220c	0.20618457
154	0x3d0ccf3a	0.034377314
155	0xbe2ef0c6	-0.17084035
156	0xbd327dad	-0.043576885
157	0x3de9926c	0.11404881
158	0xbd570de8	-0.052503496
159	0x3bf69385	0.00752491
160	0x3d6132ce	0.05498009
161	0x3d2425da	0.04007516
162	0x3e286424	0.1644445
163	0x3dca5b09	0.09880645
164	0x3df9b3ca	0.12192495
165	0xbe2a67a5	-0.166411
166	0x3ddb6180	0.10711956
167	0xbdc56474	-0.096383005
168	0x3e12640d	0.14295979
169	0x3d4304d3	0.047612023
170	0x3d634e06	0.05549433
171	0x3db47ca0	0.08812833
172	0xbd28dd4f	-0.04122668
173	0x3d0730f4	0.03300567
174	0xbdfcbd0d	-0.12340746
175	0xbe4a8f94	-0.19781333
176	0x3a1bfe65	0.00059506885
177	0xbe00eef8	-0.1259116
178	0xbd99c5b4	-0.07508412
179	0x3e06fec4	0.13183123
180	0x3dd4fb5c	0.103995055
181	0xbdab11b2	-0.083529845
182	0xbda86d1f	-0.08223938
183	0x3e38828a	0.18018547
184	0xbe0b80c7	-0.13623343
185	0x3d8ab741	0.06773234
186	0xbd009941	-0.031396154
187	0x3d09f7a7	0.033683445
188	0xbdef6f74	-0.1169118
189	0x3e10d27f	0.14142798
190	0x3e34d433	0.17659073
191	0x3db87402	0.09006502
192	0x3d03e12e	0.03219717
193	0xbe43ff49	-0.19140352
194	0x3e360940	0.17776966
195	0x3d97617f	0.07391643
196	0x3d86ff2c	0.06591639
197	0xbd27fd89	-0.041013274
198	0xbd1f583c	-0.038902506
199	0x3db76d5c	0.089564055
200	0x3dd84085	0.10559181
201	0xbe13599a	-0.14389649
202	0x3d58147f	0.05275392
203	0x3dd9e6fe	0.106397614
204	0x3dd444a3	0.10364654
205	0x3d67b136	0.056565486
206	0xbbe1189e	-0.0068693897
207	0x3d3b7415	0.045765
208	0x3e00c7e3	0.1257625
209	0xbd46cc43	-0.048534643
210	0xbdf484eb	-0.119394146
211	0x3de9586d	0.11393819
212	0xbd599371	-0.053119127
213	0xbd108733	-0.035285186
214	0xbdbbdb0d	-0.0917264
215	0x3df1d300	0.11807823
216	0x3c574ba5	0.013140594
217	0x3c5d0a41	0.013491214
218	0x3cc4dc1e	0.024030741
219	0x3cd30ddf	0.02576345
220	0xbe0d1d11	-0.13780619
221	0x3da779ce	0.08177529
222	0xbdcb4ef9	-0.09927172
223	0x3db282f9	0.08716387
224	0xbbbbb059	-0.0057278094
225	0x3d2c9f70	0.04214424
226	0x3df8adc6	0.1214252
227	0xbe26f49f	-0.16304253
228	0xbe2bb0ef	-0.16766714
229	0x3df1fe38	0.118160665
230	0x3d915d51	0.07097877
231	0x3dda8554	0.106699616
232	0x3e243eb1	0.1603954
233	0x3e371b87	0.17881595
234	0xbe34531f	-0.17609833
235	0xbe3a3038	-0.18182456
236	0x3a96dacc	0.0011509298
237	0xbe12d7ee	-0.14340183
238	0x3df15045	0.11782888
239	0x3dc13e64	0.09435728
240	0x3cff026e	0.031129088
241	0x3e5376ef	0.20650838
242	0xbd6bb142	-0.057542093
243	0x3e1993f2	0.14997843
244	0x3d681952	0.056664772
245	0x3e07d1ba	0.13263598
246	0xbd5f72e4	-0.054552928
247	0xbe1375e0	-0.14400434
248	0x3df185c5	0.11793093
249	0xbe80c90c	-0.25153387
250	0x3da92668	0.082592785
251	0x3d98df72	0.07464494
252	0xbd548050	-0.05188018
253	0x3d84d298	0.0648548
254	0xbdfb8fe7	-0.122833066
255	0x3d191a1e	0.037378423

map_L2.bias f4 [16]
0	0xbc97709c	-0.018486314
1	0xbd21658f	-0.039403494
2	0xbd1dce09	-0.03852657
3	0x3d8683e2	0.065681234
4	0x3e021058	0.12701547
5	0x3b386566	0.002813661
6	0x3dc959c4	0.098315746
7	0x3d595123	0.053055894
8	0xbd1ad473	-0.037800264
9	0x3d15988d	0.036522437
10	0x3bca66c3	0.006176801
11	0xbcae8419	-0.021303223
12	0xbc3bd25e	-0.01146373
13	0x3bf6663d	0.007519512
14	0xbb6483bf	-0.0034868566
15	0xbdc7e0ec	-0.09759697

map_L3.weight f4 [4, 16]
0	0xbe101308	-0.1406976
1	0xbf43d451	-0.76495844
2	0x3ea11f41	0.31469157
3	0x3e1ed2da	0.15510121
4	0xbe059b13	-0.13047437
5	0x3f02dc18	0.51117086
6	0xbe99689c	-0.29962623
7	0x3e1d5524	0.1536451
8	0xbf083fd8	-0.5322242
9	0x3ea05fe0	0.31323147
10	0xbde7c9b1	-0.113177665
11	0xbe94a8d6	-0.29035062
12	0xbed271e6	-0.41102523
13	0x3e7dc438	0.24781883
14	0xbeffedc3	-0.49986085
15	0xbee00e4c	-0.43760908
16	0xbf01d6fb	-0.5071866
17	0xbe94c717	-0.29058143
18	0xbe84f059	-0.2596462
19	0x3eec9450	0.46206903
20	0x3f281b10	0.65666294
21	0x3df3d0cf	0.119050615
22	0x3f28c3a3	0.6592352
23	0x3f0ae28e	0.54251945
24	0x3f1bd02f	0.6086454
25	0xbeee48f2	-0.46540028
26	0xbb7fc8e8	-0.0039029662
27	0xbe9a4346	-0.3012945
28	0xbf3b4d78	-0.7316508
29	0xbb4ae1c8	-0.003095733
30	0xbcfe9d15	-0.031080762
31	0xbe4235b0	-0.18965793
32	0xbebae942	-0.36506087
33	0xbe26f309	-0.16303648
34	0x3dccb364	0.099951535
35	0xba748998	-0.00093283644
36	0x3dbf414c	0.09338626
37	0xbec82b8a	-0.39095718
38	0x3dc7b9fe	0.09752272
39	0x3f31b874	0.6942208
40	0xbe6c9aa3	-0.23105864
41	0x3ee2938d	0.44253197
42	0x3f007398	0.5017638
43	0x3ece5f34	0.4030701
44	0x3ec30fad	0.38097897
45	0x3f08ee3c	0.53488517
46	0xbda4414c	-0.08020267
47	0xbe55d7ab	-0.20883052
48	0xbe9068c2	-0.28204924
49	0xbf2aa8d4	-0.6666386
50	0x3e1a33db	0.15058844
51	0xbee78e7a	-0.45225888
52	0xbf3361c9	-0.70071083
53	0x3d783df7	0.06060597
54	0xbed5c411	-0.4175115
55	0xbeeabda8	-0.4584782
56	0xbee9cabb	-0.45662484
57	0xbe7e4b85	-0.24833496
58	0x3d6cb77c	0.05779217
59	0x3e3c0457	0.1836103
60	0x3eee957c	0.46598423
61	0x3f08a361	0.53374296
62	0x3eae0d25	0.33994403
63	0x3f02770e	0.50962913

map_L3.bias f4 [4]
0	0x3c103a46	0.008802956
1	0x3d84e0fa	0.064882234
2	0x3c67e05c	0.014152613
3	0xbd703ed5	-0.05865367

map_L4.weight f4 [1, 4]
0	0xbf62f1dc	-0.886503
1	0x3f14208e	0.57862175
2	0xbfbd4818	-1.4787626
3	0xbf66a32e	-0.9009274
