models_VAEGAN_batch128/ep_100_decoder_model.pth (torch_old, 708349 bytes, 10 tensors)

map_L1.weight f4 [4, 2]
0	0xbf249c2f	-0.6430082
1	0x3f944819	1.1584502
2	0xbfd38fd3	-1.6528267
3	0xbea2f52a	-0.3182767
4	0xbf64427a	-0.89163935
5	0x3f9e1fab	1.2353414
6	0xbedcae05	-0.43101516
7	0xbfb05129	-1.3774768

map_L1.bias f4 [4]
0	0x3e9693f3	0.2940975
1	0x3e641ad6	0.22275862
2	0x3d60e69e	0.054907434
3	0x3f1573d2	0.5837985

map_L2.weight f4 [16, 4]
0	0x3ee41c70	0.44552946
1	0xbdbb5a2b	-0.091480576
2	0x3f2905c6	0.66024435
3	0x3e08e0fc	0.13367075
4	0x3e3f95e7	0.18709527
5	0xbed91881	-0.42401507
6	0xbdbb7f7b	-0.09155174
7	0xbe8b2ecc	-0.2718414
8	0x3efda514	0.49540007
9	0x3f887613	1.0661033
10	0x3f856800	1.0422363
11	0x3f972d98	1.1810789
12	0x3ef17cfd	0.4716567
13	0x3f3dec85	0.74189025
14	0xbf12fa7a	-0.57413447
15	0x3f85f629	1.0465747
16	0xbdc72479	-0.097237535
17	0x3f985bf5	1.1903063
18	0xbd29768b	-0.041372817
19	0x3fbdce1b	1.4828523
20	0xbf15e0bf	-0.5854606
21	0x3e8bfe17	0.27342293
22	0xbfb8fb5a	-1.4451706
23	0x3fddfe5c	1.7343249
24	0x3eb10533	0.3457428
25	0xbf43b6be	-0.7645072
26	0xbcbd5495	-0.02311162
27	0xbf2c9d57	-0.6742758
28	0xbe8a1ff1	-0.26977494
29	0xbea40aaf	-0.320394
30	0x3f422f90	0.75853825
31	0xbf6b42d9	-0.91898876
32	0x3e5d194e	0.21591684
33	0x3e9d33bd	0.30703536
34	0x3d888aea	0.06667121
35	0x3f5152f6	0.81767213
36	0xbe1ae406	-0.15126047
37	0xbea58189	-0.3232539
38	0xbe65ea36	-0.22452626
39	0x3ecb60fb	0.39722428
40	0x3f02131f	0.50810426
41	0x3a73568e	0.0009282612
42	0xbf0098c1	-0.50233084
43	0x3e5cf9f6	0.21579728
44	0xbe8e9779	-0.2784994
45	0x3f06f0c6	0.5271114
46	0x3e965653	0.29362735
47	0x3fed6580	1.85466
48	0xbf6e3bad	-0.9305981
49	0xbf327d33	-0.6972229
50	0xc02c8243	-2.6954505
51	0x3ecd7db9	0.4013498
52	0xbfca3416	-1.5797145
53	0xbefd3e1f	-0.49461457
54	0xbfc11bf0	-1.5086651
55	0xc00f33f4	-2.237546
56	0x3e9d1bb1	0.3068519
57	0x3f494117	0.78614944
58	0xbec61bae	-0.38692993
59	0x3f930dc8	1.1488581
60	0xbf34cb9d	-0.7062319
61	0x3db97f3c	0.09057471
62	0xbe6a7183	-0.22894864
63	0x3ff78834	1.9338441

map_L2.bias f4 [16]
0	0x3cfe18f8	0.031017765
1	0xbe261a1e	-0.162209
2	0xbe3b366e	-0.18282482
3	0x3f06accd	0.52607423
4	0x3ee04f2d	0.43810406
5	0xbd5cf235	-0.053941924
6	0xbe72628d	-0.23670407
7	0x3d5659da	0.052331783
8	0x3e0b2f38	0.13592231
9	0x3e5c9853	0.21542482
10	0xbdd406af	-0.10352837
11	0x3e8e4696	0.27788228
12	0x3ebb8841	0.3662739
13	0xbe46d6b0	-0.19417834
14	0x3f22a819	0.63537747
15	0x3d134951	0.03595859

map_L3.weight f4 [64, 16]
0	0xbd1b6c52	-0.0379451
1	0x3e4308f3	0.19046383
2	0xbf40c4ae	-0.7530011
3	0x3d8591ee	0.065219745
4	0xbe2bfd92	-0.16795948
5	0x3ef6b4f3	0.48184928
6	0xbe954597	-0.29154655
7	0xbea89e4d	-0.32933274
8	0xbf22e2ca	-0.636273
9	0x3dc963ce	0.09833489
10	0xbf244e12	-0.64181626
11	0xbef16531	-0.47147515
12	0xbf43695d	-0.76332647
13	0xbc5a1374	-0.013310302
14	0x3f18cef5	0.5969079
15	0x3d236f93	0.039901327
16	0xbe7aef59	-0.24505366
17	0x3d9087dd	0.07057164
18	0xbeb718f4	-0.35761225
19	0x3f03dae4	0.51505876
20	0xbef28c3f	-0.47372624
21	0x3e914cda	0.28378946
22	0x3e032135	0.12805636
23	0x3da8a07c	0.08233735
24	0x3e19ad27	0.15007459
25	0xbe80fd5b	-0.25193295
26	0x3dfad6d1	0.12248004
27	0xbf1ad3f3	-0.6047966
28	0xbe11472d	-0.14187308
29	0xbeea0cd2	-0.45712906
30	0x3e34208b	0.17590539
31	0x3eb51ea0	0.35374928
32	0x3d1a72fb	0.03770731
33	0xbd60178c	-0.054709956
34	0xbf9896ab	-1.192098
35	0xbe092194	-0.13391715
36	0xbe9a178a	-0.30096084
37	0x3e49b1a1	0.19696666
38	0xbefc7173	-0.49305305
39	0xbe1e8bfa	-0.15483084
40	0xbe9f18a9	-0.31073502
41	0xbe7d175f	-0.24715947
42	0xbdaf9edd	-0.08575223
43	0xbe62be2f	-0.22142862
44	0x3dd8703d	0.10568283
45	0xbfaac935	-1.3342654
46	0x3e52d3f7	0.2058867
47	0x3e9cb23b	0.3060473
48	0xbf0aa417	-0.5415663
49	0xbe9d2baa	-0.30697376
50	0x3f55329b	0.8328034
51	0x3e6b0749	0.22951998
52	0x3fd3fd17	1.6561612
53	0xbdac0cb0	-0.084008574
54	0xbf041715	-0.5159772
55	0xbf36064d	-0.71103364
56	0xbd9a3045	-0.07528738
57	0x3d0b75d2	0.03404791
58	0xbe10f9d7	-0.14157806
59	0x40079f8f	2.1191137
60	0xbf7f0f78	-0.9963298
61	0x3f343419	0.70391995
62	0x3eea0561	0.4570723
63	0x3f752c4e	0.9577073
64	0xbe245142	-0.16046622
65	0xbe18bd0c	-0.14915866
66	0xbda95121	-0.08267427
67	0x3ebbbeb0	0.3666892
68	0xbe705c09	-0.23472609
69	0xbe0c20e1	-0.13684417
70	0xbeddd5aa	-0.43327075
71	0x3ea1e56e	0.31620353
72	0x3f0f3867	0.5594544
73	0x3e81264c	0.2522453
74	0x3eb66e24	0.35630906
75	0xbf6039dc	-0.87588286
76	0xbf30f038	-0.69116545
77	0xbd4cfe83	-0.05004741
78	0x3d12c885	0.03583576
79	0xbf0e724e	-0.55643165
80	0xbdf37f2a	-0.11889489
81	0x3d68ed40	0.056866884
82	0xbf61f508	-0.88264513
83	0x3e703100	0.23456192
84	0xbe93d179	-0.28870752
85	0x3f1aa738	0.60411406
86	0xbee60af8	-0.44930243
87	0x3c0cc3c7	0.008591599
88	0xbeb11e17	-0.3459327
89	0xbe88d342	-0.26723677
90	0xbeb26f9d	-0.3485078
91	0xbf556d45	-0.8336986
92	0xbe3a8b89	-0.18217291
93	0xbf803fff	-1.001953
94	0x3e6abb46	0.22923002
95	0x3ea51046	0.32238978
96	0xbeb3f349	-0.3514655
97	0xbe80268b	-0.25029406
98	0xbd67cec1	-0.05659366
99	0xbebb61bc	-0.36598003
100	0x3d2b8e94	0.04188402
101	0x3c5b49c1	0.0133842835
102	0x3e412894	0.18863136
103	0xbddd13ff	-0.107948296
104	0xbec5db64	-0.38643944
105	0x3dc40736	0.09571688
106	0xbf695d15	-0.91157657
107	0x3db5bae6	0.08873539
108	0xbe684175	-0.2268122
109	0xbd4a3b95	-0.049373228
110	0x3ed991b4	0.42493975
111	0xbd6d43d1	-0.057926003
112	0x3e3716b2	0.17879751
113	0xbe1c509c	-0.15265125
114	0xbe868e17	-0.2628028
115	0xbed7ac1a	-0.4212349
116	0xbe869c45	-0.262911
117	0x3e67097e	0.22562215
118	0xbeae2f5e	-0.34020513
119	0xbd1752ab	-0.036944073
120	0x3da33da4	0.079707414
121	0x3ec77893	0.38959178
122	0xbe7742f4	-0.24146634
123	0x3ecc5600	0.39909363
124	0xbf246e0b	-0.6423041
125	0x3f3d82e0	0.74027824
126	0x3ebb9173	0.36634406
127	0xbe4a2174	-0.19739324
128	0x3da9d4d6	0.08292548
129	0xbe7eb719	-0.24874534
130	0x3ee607e4	0.44927895
131	0xbfa7f734	-1.3122315
132	0xbf358187	-0.7090077
133	0xbe1a9d91	-0.1509917
134	0xbe47a9f0	-0.1949842
135	0xbe216c1c	-0.15763897
136	0x3e2eb3a7	0.1706072
137	0x3e98b34c	0.29824293
138	0x3dd5e23f	0.10443544
139	0x3ed5de8e	0.41771358
140	0xbee53219	-0.44764784
141	0xbdfcbd16	-0.12340753
142	0xbf543dc3	-0.8290674
143	0xbe8934ed	-0.26798192
144	0xbeb0b4a1	-0.3451281
145	0xbeef4da5	-0.46738926
146	0xbf2e7bd9	-0.68157727
147	0x3ec5194d	0.38495865
148	0x3d73d964	0.05953349
149	0xbf3d6706	-0.73985326
150	0xbf2e9e65	-0.6821044
151	0xbee4cb45	-0.44686332
152	0xbea47b1f	-0.32125184
153	0xbe423149	-0.18964113
154	0xbe667f22	-0.22509435
155	0xbeb81e11	-0.3596044
156	0xbec223f4	-0.37918055
157	0x3e9aad3f	0.302103
158	0x3ef7c9b7	0.48396084
159	0xbec17865	-0.37787166
160	0xbd104697	-0.03522357
161	0x3d5f51e0	0.05452144
162	0x3f1b9e3b	0.60788316
163	0xbe1f673e	-0.15566728
164	0x3f320fa0	0.6955509
165	0xbe0dc45a	-0.13844433
166	0x3e46c686	0.19411668
167	0x3e8cb01f	0.2747812
168	0x3ecbcfb5	0.39806905
169	0x3d968c5f	0.073509924
170	0x3e6b7f19	0.22997703
171	0xbe448698	-0.19191968
172	0x3eb0f368	0.34560704
173	0x3e8ce2de	0.27516836
174	0xbecb674c	-0.39727247
175	0xbe280aec	-0.16410416
176	0x3d0dd0be	0.0346229
177	0xbe4483ed	-0.1919095
178	0x3f5fb566	0.8738617
179	0xbfe7ba13	-1.810366
180	0xbed10d2a	-0.40830356
181	0xbe9a2303	-0.30104837
182	0xbf6c1845	-0.9222453
183	0xbe2e789a	-0.17038193
184	0x3e7d2c90	0.2472403
185	0x3de80a3f	0.11330079
186	0x3df6f93f	0.12059259
187	0x3f6a0a73	0.91422194
188	0xbf00da6e	-0.503333
189	0xbe90019b	-0.28126225
190	0xbf657305	-0.8962863
191	0x3bfcdf28	0.007717032
192	0xbf08172f	-0.53160375
193	0xbd21fa40	-0.039545298
194	0xbdfe9082	-0.124299064
195	0xbfa0753c	-1.2535777
196	0xbe65f1d6	-0.22455534
197	0xbd829166	-0.06375389
198	0x3ec28bbb	0.3799723
199	0xbd22db75	-0.03976007
200	0xbf99e702	-1.2023623
201	0xbdeb083e	-0.114761814
202	0xbeefe9e2	-0.46858126
203	0xbf4a027d	-0.78910047
204	0x3fb65f70	1.4247875
205	0x3ff28a0c	1.8948379
206	0xc0060d64	-2.0945673
207	0xbd427212	-0.047472067
208	0xbefc3c1a	-0.49264604
209	0xbdb26087	-0.087098174
210	0xbf241dfb	-0.64108247
211	0x3e707059	0.23480357
212	0x3f03212e	0.51222503
213	0xbf314fe6	-0.6926254
214	0xbf19f78a	-0.6014334
215	0xbf09a0d2	-0.5376102
216	0xbf0b0f47	-0.54320186
217	0xbe7cbc29	-0.24681152
218	0xbd4d08c7	-0.0500572
219	0xbf5ab02d	-0.8542507
220	0x3e8b2d98	0.27183223
221	0xbf57d751	-0.8431292
222	0x3ea455ec	0.32096803
223	0xbf1add8c	-0.60494304
224	0x3e8dcb41	0.27694133
225	0x3e0777cc	0.13229293
226	0x3fae20d5	1.360377
227	0xbf267a9a	-0.65030825
228	0xbf8b34bc	-1.0875468
229	0xbe6efdac	-0.23338956
230	0x3e46d29f	0.19416283
231	0x3eb896b1	0.36052468
232	0x3ee3ae75	0.44469038
233	0x3e2a20a9	0.16614021
234	0xbe0a20f7	-0.13489138
235	0xbe84b352	-0.2591806
236	0x3f8b11f9	1.086486
237	0x3e5fc5a6	0.2185274
238	0xbfb4e242	-1.4131548
239	0xbf1aaf2b	-0.60423535
240	0xbe07149c	-0.13191456
241	0xbcad169a	-0.021128941
242	0x3d47cced	0.048779417
243	0xbfeddd9c	-1.8583255
244	0xbeb04868	-0.34430242
245	0xbe8beaa7	-0.27327463
246	0x3dbe6626	0.09296827
247	0x3eb69d4e	0.3566689
248	0xbe811696	-0.25212544
249	0x3c465be6	0.012106871
250	0xbe4f910f	-0.20270179
251	0xbf15a59b	-0.5845582
252	0x3dc34124	0.09533909
253	0x3ec329dc	0.38117874
254	0xc01ecfb1	-2.4814265
255	0xbe223f4f	-0.15844463

map_L3.bias f4 [64]
0	0x3e31a879	0.17349423
1	0xbdfe2479	-0.124093
2	0xbe06bbf2	-0.13157633
3	0xbdbcf6e5	-0.09226779
4	0x3e390b39	0.18070687
5	0x3d5d2e36	0.05399915
6	0x3e081559	0.13289393
7	0x3e7df1ff	0.24799345
8	0xbe5eeecf	-0.21770786
9	0x3e02c436	0.12770161
10	0xbda06a12	-0.07832731
11	0xbebb3eff	-0.365715
12	0xbebd63d9	-0.3699024
13	0xbe3e4c50	-0.18583798
14	0x3df7ea15	0.121051945
15	0xbead36dd	-0.3383092
16	0xbd4a7599	-0.049428556
17	0xbcf67e1a	-0.030089427
18	0x3e25c789	0.16189398
19	0xbd98b633	-0.07456627
20	0x3e518472	0.2046068
21	0x3c0fd67c	0.008779164
22	0x3d657f25	0.056029458
23	0x3e66aada	0.22526112
24	0x3e50e2a2	0.20398954
25	0xbeacbdab	-0.33738455
26	0x3d5b8f15	0.05360325
27	0x3e7bf31e	0.2460446
28	0xbdabefc4	-0.08395341
29	0xbabec46c	-0.0014554388
30	0xbe16cdaf	-0.147269
31	0xbe11720a	-0.14203659
32	0xbe0f9659	-0.14022197
33	0xbc854efa	-0.01627301
34	0x3e20c2b5	0.15699275
35	0x3e7d4524	0.24733406
36	0x3db7240c	0.08942422
37	0x3e050d2b	0.12993304
38	0xbe845918	-0.25849223
39	0xbd031c07	-0.03200915
40	0xbeb021a7	-0.34400675
41	0x3d2f3a33	0.042780112
42	0xbcf77303	-0.030206209
43	0xbdb62062	-0.08892895
44	0xbde9b641	-0.11411715
45	0xbe57010e	-0.20996496
46	0x3d9b56ca	0.07584913
47	0xbec2e83b	-0.38067803
48	0x3d13d3f5	0.03609081
49	0x3d0c443f	0.034244772
50	0xbc728756	-0.014802774
51	0xbe5ece17	-0.21758305
52	0xbe18b235	-0.1491173
53	0x3e290d64	0.16509014
54	0xbe81152f	-0.25211474
55	0xbe520e56	-0.20513281
56	0x3e8c8af4	0.27449763
57	0x3bd1c60d	0.0064017833
58	0xbde73578	-0.11289495
59	0x3df91852	0.12162842
60	0x3e3315c2	0.17488769
61	0xbe4cdbda	-0.20005742
62	0xbe39498b	-0.1809446
63	0xbee3bf5e	-0.4448194

map_L4.weight f4 [256, 64]
0	0xbe5a8447	-0.21339522
1	0xbe6c97a1	-0.23104717
2	0xbfa11a5c	-1.2586169
3	0x3f7cc609	0.9873968
4	0xbe6f1509	-0.23347868
5	0xbf64c48a	-0.89362395
6	0x3d469013	0.048477244
7	0xbed0b97e	-0.4076652
8	0x3ef2137c	0.4728049
9	0xbf04b94f	-0.5184526
10	0x3ed5b17e	0.41736978
11	0x3f2d43f1	0.67681795
12	0x3f94b702	1.161835
13	0x3f01cfdd	0.507078
14	0x3faa84a3	1.3321728
15	0x3d1a4806	0.037666343
16	0xbe2fb27d	-0.17157932
17	0xbf10ff41	-0.56639487
18	0xbd4e8412	-0.05041892
19	0x3f2a5164	0.6653044
20	0xbfe7b7a4	-1.8102918
21	0x3ea49caf	0.3215079
22	0x3f11ae8b	0.56906956
23	0x3f179383	0.5920946
24	0xbe8e7cc4	-0.27829564
25	0x3f639f2c	0.8891475
26	0x3ed3436b	0.41262373
27	0x3dd72117	0.10504358
28	0x3f1fc8b3	0.6241562
29	0xbd6656e1	-0.056235198
30	0xbf926682	-1.1437533
31	0xbe00480e	-0.12527487
32	0xbeba3fe8	-0.36376882
33	0x3efb0f1b	0.49034962
34	0x3e21340e	0.15742514
35	0x3ec9785d	0.39349642
36	0x3f2392e0	0.6389599
37	0xbc959a37	-0.018262012
38	0xbf0a05f4	-0.53915334
39	0xbf0c22d3	-0.5474064
40	0x3e05d231	0.13068463
41	0x3ec10c5a	0.37704736
42	0x3f3575c5	0.7088283
43	0x3f13825f	0.57620806
44	0x3f157826	0.58386457
45	0x3f52ca68	0.823401
46	0xbd2bd584	-0.04195167
47	0xbcac9d9b	-0.021071246
48	0x400770f2	2.1162686
49	0xbf4c3410	-0.7976694
50	0xbf94e6c5	-1.1632925
51	0xbf5f7016	-0.87280405
52	0xbe45f3e3	-0.19331317
53	0x3ee3268f	0.44365355
54	0x3f168004	0.58789086
55	0x3e9385b1	0.28812936
56	0xbe11a8d8	-0.14224565
57	0xbf72d697	-0.9485869
58	0xbedefeee	-0.4355387
59	0x3f4adb73	0.792411
60	0xbf715119	-0.9426437
61	0x3d5b87eb	0.05359642
62	0xbf27e4c8	-0.6558347
63	0xbe3cfa98	-0.18454969
64	0xbf8b3645	-1.0875937
65	0xbd368fe2	-0.04457081
66	0xbf8a0d42	-1.0785296
67	0x3f647648	0.8924298
68	0xbe77efa0	-0.24212503
69	0xbf32b3d2	-0.69805634
70	0xbea7af00	-0.32750702
71	0xbf5c2519	-0.85994107
72	0x3f01c9e3	0.5069868
73	0xbf98e2dc	-1.1944232
74	0x3f4ce021	0.80029494
75	0x3e9d2946	0.30695552
76	0x3faf3587	1.368821
77	0x3f5e1221	0.8674641
78	0x3fa5cf8d	1.2953964
79	0xbeacf4cc	-0.33780515
80	0x3ec5b75f	0.38616464
81	0xbf8ffe92	-1.1249564
82	0xbf548809	-0.83020073
83	0x3f5cfaba	0.8632008
84	0xbfc0a5b7	-1.5050572
85	0xbca63f0b	-0.020293733
86	0x3e89b86d	0.26898518
87	0x3d8dfbde	0.069328055
88	0xbed15726	-0.408868
89	0x3ed15c91	0.40890935
90	0x3ed8164e	0.42204517
91	0xbf652372	-0.8950721
92	0x3ef8454a	0.48490363
93	0xbe6e93ac	-0.2329852
94	0xbf2dd6da	-0.6790596
95	0x3e231424	0.15925652
96	0xbea8fe44	-0.3300649
97	0x3f65ee96	0.8981718
98	0x3e87fb52	0.2655893
99	0x3e80459a	0.25053102
100	0x3f55842e	0.83404815
101	0xbf71b80b	-0.9442145
102	0x3d0939da	0.033502437
103	0xbe966291	-0.29372075
104	0xbddc1a3e	-0.10747193
105	0x3f0786e4	0.529402
106	0x3f47abd3	0.7799656
107	0x3df81de4	0.12115076
108	0x3f490570	0.7852392
109	0x3f9463c0	1.1592941
110	0xbe3b3b28	-0.18284285
111	0xbf28824d	-0.65823823
112	0x4021ffef	2.531246
113	0xbfcf6e28	-1.6205492
114	0xbf1dd31f	-0.6165027
115	0x3ea67380	0.32509995
116	0xbe966ac2	-0.29378325
117	0x3e006ff0	0.12542701
118	0x3eae8fe0	0.34094143
119	0xbeb27d91	-0.34861425
120	0xbeee2997	-0.46516106
121	0xbf9d6fa9	-1.2299701
122	0xbd38b965	-0.04509868
123	0x3ea7f833	0.32806548
124	0xbfbc4b88	-1.471055
125	0xbda3cb60	-0.07997775
126	0xbeae6dfc	-0.34068286
127	0xbe7d6404	-0.24745184
128	0xbe89e0d6	-0.2692935
129	0xbe0ddb4b	-0.13853185
130	0x3f388afd	0.7208708
131	0xbd36205d	-0.044464458
132	0x3d93c756	0.07215755
133	0xbe44e31a	-0.19227257
134	0xbec2d0f5	-0.38050047
135	0xbf04aa92	-0.5182277
136	0xbe7558ea	-0.239597
137	0xbe8f5a4a	-0.27998573
138	0xbe82b8d3	-0.25531635
139	0xbea60379	-0.32424524
140	0xbecc7699	-0.39934233
141	0xbeeb9f22	-0.46019846
142	0xbe6e7146	-0.23285398
143	0x3d8123b9	0.06305642
144	0xbe3cab3b	-0.18424694
145	0x3e832f32	0.25621945
146	0xbea45ed9	-0.32103613
147	0xbf8e839f	-1.1133918
148	0x3d9a82b4	0.07544461
149	0x3e0a056e	0.13478634
150	0x3e6eaf6d	0.23309107
151	0xbe9ded12	-0.30844933
152	0xbe417c19	-0.18894996
153	0xbd12d0e4	-0.035843745
154	0x3ec624d7	0.38699982
155	0x3f986c51	1.1908056
156	0xbe9eadbf	-0.30991933
157	0xbd685676	-0.05672308
158	0xbd71b97c	-0.059014782
159	0x3e50be91	0.20385195
160	0xbe1c920d	-0.15290089
161	0x3e4832d1	0.19550635
162	0xbe28d1b2	-0.16486242
163	0xbe00f053	-0.12591676
164	0x3c8e4648	0.017367497
165	0xbf67c930	-0.9054136
166	0xbf035738	-0.5130496
167	0xbeb6a61c	-0.35673606
168	0x3e81bc06	0.25338763
169	0xbe729e9c	-0.23693317
170	0x3cd2d944	0.025738366
171	0xbec3ef14	-0.3826834
172	0xbea62b85	-0.32455078
173	0x3e0df71e	0.13863799
174	0xbe1380dd	-0.14404626
175	0x3e123352	0.1427739
176	0xbe8b762d	-0.27238598
177	0xbe29648e	-0.16542265
178	0xbe9a0967	-0.30085298
179	0xbd60f581	-0.05492163
180	0xbe891ffb	-0.26782212
181	0x3e01dc18	0.12681615
182	0x3ec986f7	0.39360783
183	0x3dce1c0a	0.10063942
184	0xbe4a28f2	-0.19742182
185	0xbe94e349	-0.29079655
186	0x3ce51589	0.02796437
187	0xbed81865	-0.42206112
188	0x3dcfd0b7	0.10147231
189	0xbefa3b19	-0.48873213
190	0xbdcff807	-0.10154729
191	0x3eb0ac7f	0.34506604
192	0xbe13df5d	-0.14440675
193	0x3e0e2867	0.138826
194	0xbe8bf4ed	-0.273353
195	0xbeb791cd	-0.35853425
196	0x3c6270da	0.013820851
197	0x3da655cb	0.081218325
198	0xbd03b348	-0.032153398
199	0x3e537b84	0.20652586
200	0x3f0a0526	0.53914106
201	0xbf00b7e9	-0.50280625
202	0x3e8ee7e0	0.27911282
203	0x3f650bc7	0.89471096
204	0x3ed1724c	0.40907514
205	0x3eba11d4	0.36341727
206	0x3ebb56ff	0.3658981
207	0x3ef5999e	0.47968763
208	0xbf182f2c	-0.5944698
209	0xbf19fa80	-0.6014786
210	0xbf017ea7	-0.5058388
211	0x3eddb607	0.43302938
212	0xbf3b9483	-0.73273486
213	0x3e967489	0.29385784
214	0x3f0b7aac	0.5448406
215	0x3f970651	1.1798803
216	0xbdbe9e3e	-0.09307526
217	0x3f1f3bec	0.6220081
218	0x3e5b7db5	0.21434672
219	0x3f49ca84	0.7882464
220	0x3e23e1ba	0.16004077
221	0x3f203b80	0.6259079
222	0xbf215263	-0.6301634
223	0xbe9f81b7	-0.31153652
224	0xbda22193	-0.0791656
225	0x3ec0fc44	0.37692463
226	0xbe3666d7	-0.17812668
227	0x3eb7a1da	0.3586567
228	0x3f59beb1	0.85056597
229	0xbe963a85	-0.29341522
230	0x3dd7c29f	0.10535168
231	0xbd01450b	-0.031559985
232	0xbba35236	-0.0049841655
233	0x3ec607f8	0.38677955
234	0x3e8e768a	0.27824813
235	0xbde348eb	-0.110978924
236	0x3ead87e5	0.33892742
237	0x3e5cf302	0.21577075
238	0xbbe38e9d	-0.006944491
239	0x3f3d6106	0.7397617
240	0x3f4825de	0.7818278
241	0xbf83ba90	-1.0291309
242	0xbfb48cd3	-1.4105476
243	0xbf848f65	-1.035626
244	0x3e534593	0.20632009
245	0xbee5fe76	-0.449207
246	0xbcd52bf4	-0.026021935
247	0xbec230f6	-0.3792798
248	0x3e36e79d	0.17861791
249	0x3c9e6bb7	0.019338472
250	0xbf7adac3	-0.97990054
251	0x3f0a4e15	0.54025394
252	0x3ea2b9fb	0.31782517
253	0x3e8adcd9	0.27121618
254	0xbeb841a3	-0.35987577
255	0x3e50ae6e	0.2037904

map_L4.bias f4 [256]
0	0x3da4a261	0.08038784
1	0xbde4ac66	-0.11165695
2	0xbe484f48	-0.19561493
3	0x3e23665e	0.15957019
4	0x3de83d84	0.11339858
5	0xbd785e6b	-0.06063692
6	0x3db684e5	0.08912066
7	0xbe165c18	-0.14683568
8	0xbdea16bc	-0.114301175
9	0x3d9fbc41	0.077995785
10	0x3e52e701	0.20595933
11	0xbe3255ac	-0.17415494
12	0xbe00677e	-0.12539479
13	0x3e44ff28	0.1923796
14	0x3ea58ea9	0.32335404
15	0xbe88bda4	-0.26707184
16	0x3d726e2e	0.059187107
17	0x3d1cbf7c	0.03826855
18	0x3ce4cbd9	0.027929233
19	0x3decea7c	0.11568162
20	0xbcb57152	-0.022148762
21	0xbb105225	-0.0022021618
22	0x3e77c0f5	0.24194701
23	0x3e1cd79e	0.15316626
24	0x3dd42bee	0.103599414
25	0x3da3f830	0.080063224
26	0xbdc03b59	-0.0938632
27	0xbda619c9	-0.08110387
28	0xbe0da94d	-0.13834114
29	0xbe2d8919	-0.1694683
30	0xbd00fe0c	-0.031492278
31	0xbd751904	-0.05983831
32	0xbea2ba2b	-0.3178266
33	0x3de57cd8	0.11205453
34	0x3cb903c9	0.022584813
35	0xbe4e1af9	-0.20127477
36	0x3eaf4f25	0.3424007
37	0xbce1ebfd	-0.027578348
38	0xbea50084	-0.32226956
39	0xbe4447ec	-0.19168061
40	0xbcbbdb4a	-0.022931714
41	0x3e01378a	0.12618843
42	0xbe4ba315	-0.1988643
43	0x3e0f3469	0.13984837
44	0x3e685632	0.22689131
45	0x3de7d9f4	0.11320868
46	0xbdc86bd1	-0.09786189
47	0xbe55c676	-0.20876488
48	0xbea8fc14	-0.3300482
49	0xbcc7708a	-0.024345655
50	0x3e7b6051	0.2454846
51	0xbe41ef1f	-0.18938874
52	0x3dbcf01c	0.09225485
53	0xbcc3efe6	-0.023918103
54	0x3eb72453	0.357699
55	0xbe3eff67	-0.18652116
56	0x3e11fe62	0.14257196
57	0x3e06c935	0.13162692
58	0xbc90dfcc	-0.01768484
59	0x3e7e0d1e	0.24809691
60	0xbe660f85	-0.22466858
61	0xbec8f4e5	-0.3924934
62	0xbe540b7e	-0.20707509
63	0xbe090a9d	-0.13382955
64	0xbe0d8ab0	-0.13822436
65	0xbe4667d7	-0.1937555
66	0x3ddecdc9	0.10879094
67	0xbe857e88	-0.26073098
68	0xbe97c949	-0.29645756
69	0x3eaeca2b	0.34138617
70	0x3e7f08dd	0.24905725
71	0xbd3dda67	-0.046350863
72	0xbe5f2af0	-0.21793723
73	0x3d95707a	0.07296844
74	0xbec551af	-0.38538882
75	0x3dbea651	0.09309066
76	0x3df97c38	0.12181896
77	0xbe1b299b	-0.1515259
78	0x3eec010d	0.46094552
79	0xbd98b9d4	-0.07457319
80	0xbeacd0d1	-0.33753064
81	0xbdf17ab5	-0.11790983
82	0xbc504e4f	-0.012713983
83	0xbe2c0843	-0.16800027
84	0x3d7e8268	0.062136084
85	0xbd30395a	-0.043023445
86	0xbf0fb5ba	-0.5613667
87	0xbada7ec2	-0.0016669857
88	0xbf003b58	-0.5009055
89	0x3e4a1b85	0.1973706
90	0xbe67cda3	-0.22637038
91	0x3d16896d	0.036752153
92	0x3bf9a5e6	0.0076186536
93	0x3e157bcd	0.14598008
94	0x3e0fadc8	0.14031136
95	0xbdaf893b	-0.085710965
96	0xbe45867a	-0.1928958
97	0xbea55668	-0.32292485
98	0xbeb082a1	-0.34474662
99	0xbdb9951e	-0.09061645
100	0xbe249472	-0.16072252
101	0xbeb2fde7	-0.34959337
102	0x3ded4cbe	0.11586903
103	0x3ddc215e	0.10748552
104	0xbe47bcae	-0.1950557
105	0x3c3ebad3	0.011641222
106	0x3e03de10	0.12877679
107	0xbe3bdd31	-0.18346097
108	0xbec63743	-0.38714036
109	0xbc5e0a18	-0.013552211
110	0x3c13e0a3	0.009025726
111	0xbe1bbf83	-0.15209775
112	0xbdc381d0	-0.09546244
113	0x3e959e4b	0.2922233
114	0xbd183111	-0.03715617
115	0x3e0df5c0	0.13863277
116	0x3d0b8631	0.03406352
117	0x3e017d3a	0.12645426
118	0xbe9e6074	-0.30932963
119	0x3dca0e02	0.09865953
120	0xbe80a5b0	-0.2512641
121	0x3e594e50	0.2122128
122	0x3dfb30ec	0.122651905
123	0xbe9c257e	-0.30497354
124	0x3d5e2a72	0.054239698
125	0xbe28dc23	-0.16490225
126	0xbd925176	-0.07144444
127	0xbe1bfd9b	-0.15233462
128	0x3e484e8a	0.1956121
129	0xbd9dcb13	-0.07704749
130	0xbe47a73d	-0.1949739
131	0x3e039d83	0.12853055
132	0xbd31c719	-0.043402765
133	0xbe8fab85	-0.28060547
134	0xbe78b5e6	-0.24288139
135	0xbc220038	-0.0098877475
136	0x3e279b04	0.16367728
137	0xbe52df09	-0.20592894
138	0xbd4f406d	-0.05059855
139	0x3b7e48b9	0.003880067
140	0x3e935d99	0.28782347
141	0x3d6cb3a3	0.057788502
142	0xbe46637f	-0.19373892
143	0xbd4281ed	-0.047487188
144	0x3e1bee1f	0.15227555
145	0x3e202239	0.15638055
146	0xbe1b2770	-0.15151763
147	0x3d4e5e07	0.05038264
148	0xbe838505	-0.25687423
149	0x3ea067ec	0.31329286
150	0xbda6c177	-0.08142369
151	0x3ec32be6	0.3811943
152	0x3e10c0f9	0.14136113
153	0x3dacd0b5	0.08438245
154	0xbe25efe1	-0.16204788
155	0xbe50bccd	-0.20384522
156	0x3e2f842e	0.17140266
157	0x3edd512d	0.43225995
158	0xbcf6b092	-0.030113492
159	0x3e201262	0.15632012
160	0xbe6314ca	-0.22175899
161	0xbe9f8c35	-0.31161657
162	0xbe18e4af	-0.14930986
163	0xbe52b398	-0.20576322
164	0xbeb652f5	-0.35610166
165	0xbda51612	-0.0806085
166	0xbeaeef7d	-0.3416709
167	0xbe1cfa47	-0.15329848
168	0xbe1f7afe	-0.15574262
169	0xba0567ef	-0.00050890347
170	0x3cc7bfd0	0.024383456
171	0x3df69684	0.12040427
172	0x3e6c30f0	0.23065543
173	0xbe2e52dc	-0.17023796
174	0xbe96c4c8	-0.29447007
175	0x3ecad6f4	0.3961712
176	0xbe6757ae	-0.22592041
177	0x3e97ae45	0.29625145
178	0x3d355d24	0.04427828
179	0xbd891f39	-0.066954084
180	0xbd8eb912	-0.06968893
181	0x3cf642ff	0.030061243
182	0xbe41bb51	-0.18919112
183	0x3e2c1aad	0.16807051
184	0xbc93efaf	-0.018058626
185	0xbd647a1d	-0.05578052
186	0xbdef3734	-0.11680451
187	0x3e081d97	0.13292538
188	0xbd8c32cf	-0.068456285
189	0x3df5dd08	0.12005049
190	0xbea039e3	-0.31294164
191	0xbea04170	-0.31299925
192	0x3eaca1d0	0.33717203
193	0xbe30c7fb	-0.17263786
194	0x3e2672f7	0.16254793
195	0xbd82c6bf	-0.06385564
196	0xbebc4f80	-0.36779404
197	0xbe890caa	-0.26767474
198	0xbe9d9aa0	-0.30782032
199	0xbe45fb20	-0.19334078
200	0x3e1eafa0	0.15496683
201	0xbe92ea24	-0.2869426
202	0x3e0562c0	0.13025951
203	0xbd1f141a	-0.03883753
204	0xbeaf4c9b	-0.34238133
205	0x3d22d3f8	0.03975293
206	0xbea60d9f	-0.32432267
207	0x3dbef694	0.09324375
208	0xbe48c551	-0.1960652
209	0x3cce44b1	0.025179239
210	0x3e117fbd	0.14208885
211	0x3dc16ebb	0.09444948
212	0x3d2e3cfb	0.042538624
213	0xbd7b92f2	-0.061419435
214	0xbeba58e5	-0.36395946
215	0xbe083b2b	-0.13303821
216	0x3e41e61c	0.18935436
217	0xbed66935	-0.41877142
218	0x3db2c729	0.08729393
219	0xbe9edea2	-0.3102923
220	0xbe2fe994	-0.17178947
221	0x3dc273d2	0.09494747
222	0x3e9d1469	0.30679634
223	0x3deb2285	0.114811935
224	0xbdf8fab8	-0.12157196
225	0x3ddab629	0.106792755
226	0xbe0fa0c5	-0.14026172
227	0xbeb13bf8	-0.34616065
228	0x3c68d8be	0.014211832
229	0xbc0ee1b4	-0.008720804
230	0x3e73da06	0.23813638
231	0x3d283181	0.041062836
232	0xbdc0c7dd	-0.09413121
233	0xbed95c4c	-0.4245323
234	0x3e4d0da3	0.20024733
235	0x3dd31bed	0.10308061
236	0xbea8cbb3	-0.3296791
237	0xbd13863a	-0.03601668
238	0x3d184891	0.03717858
239	0xbdd71f62	-0.10504033
240	0xbe484c13	-0.1956027
241	0xbd804247	-0.062626414
242	0xbda6b682	-0.08140279
243	0x3c67b53e	0.014142333
244	0x3c4539f6	0.012037745
245	0x3b5e11e5	0.0033885178
246	0xbe04051e	-0.12892577
247	0x3d3499e6	0.04409208
248	0xbecdb556	-0.4017741
249	0x3e3a51c9	0.18195261
250	0x3deff8f9	0.1171741
251	0xbd12b426	-0.035816334
252	0xbe710e82	-0.2354069
253	0xbe115c1b	-0.14195292
254	0xbd098e4a	-0.033582963
255	0xbeb09ca7	-0.34494516

map_L5.weight f4 [618, 256]
0	0xbe802a10	-0.2503209
1	0xbf3c702d	-0.73608667
2	0xbeb6f205	-0.3573152
3	0x3db967e2	0.09053017
4	0x3d1cfc2c	0.038326427
5	0xbebd7817	-0.37005684
6	0xbe9853ca	-0.29751426
7	0xbe93bdac	-0.28855646
8	0xbf19f669	-0.6014162
9	0xbe8302a1	-0.25587943
10	0xbea1aaf8	-0.3157575
11	0x3f0d610d	0.5522621
12	0x3e08204c	0.1329357
13	0xbe19a66d	-0.15004893
14	0xbfab60d6	-1.3388927
15	0x3edaecc4	0.42758763
16	0xbf9e1fd0	-1.2353458
17	0xbed27e64	-0.41112053
18	0x3d3e0ca0	0.04639876
19	0x3ea7063d	0.32621947
20	0xbee4dcd0	-0.44699717
21	0xbe4fbb7d	-0.20286365
22	0xbe90e45e	-0.2829923
23	0xbdee459a	-0.11634369
24	0xbd7785ce	-0.06043034
25	0x3f0abb69	0.54192215
26	0xbf5311ab	-0.82448834
27	0x3e434ad0	0.19071507
28	0xbea8d051	-0.32971433
29	0x3ea3d8bf	0.32001302
30	0x3e3860e5	0.18005712
31	0x3dc6bf19	0.09704418
32	0x3e9e8289	0.30958965
33	0x3da930b3	0.08261242
34	0x3f87a3b8	1.0596838
35	0xbe0e6933	-0.13907318
36	0xbf0806ee	-0.53135574
37	0xbd901487	-0.07035165
38	0xbe65f09a	-0.22455063
39	0xbf07b727	-0.53013843
40	0x3eb66a6e	0.35628074
41	0xbd578234	-0.052614406
42	0x3e24b282	0.1608372
43	0xbe242dad	-0.16033049
44	0xbf47b4c0	-0.7801018
45	0xbf9287be	-1.1447675
46	0xbe1a816e	-0.15088436
47	0xbe925290	-0.28578615
48	0x3e5f6d4e	0.2181904
49	0x3bf8f665	0.007597732
50	0x3d259b1f	0.040431138
51	0x3e2e541f	0.17024277
52	0xbe0defd4	-0.13861018
53	0xbeed3934	-0.46332705
54	0xbda3a964	-0.07991293
55	0x3e815031	0.25256494
56	0xbd9ed839	-0.07756085
57	0x3e086097	0.13318096
58	0x3ef4062f	0.47660968
59	0xbe236230	-0.15955424
60	0x3cf2c7c5	0.029636273
61	0xbf3bbe28	-0.7333703
62	0xbefa5452	-0.48892456
63	0xbe6a69c9	-0.22891916
64	0xbed72c49	-0.42025974
65	0xbe209684	-0.15682417
66	0xbfa7f1b5	-1.3120638
67	0xbe9de1e8	-0.30836415
68	0xbdc10cdb	-0.0942628
69	0xbc94c6a7	-0.018161131
70	0xbf0034f2	-0.5008079
71	0xbf1dd50c	-0.6165321
72	0xbe2ae4b1	-0.16688801
73	0xbf40718b	-0.7517325
74	0x3eaf6d6c	0.3426317
75	0xbf4bd68d	-0.79624254
76	0xbf50061b	-0.81259316
77	0xbf02c189	-0.5107656
78	0xbec9c774	-0.39409983
79	0x3d52dec9	0.051481996
80	0xbe2a15e5	-0.16609915
81	0xbc761b6a	-0.015021184
82	0xbeaff76d	-0.34368458
83	0x3ec3444a	0.38138038
84	0xbe4f3a4a	-0.2023708
85	0xbed4965e	-0.4152097
86	0xbe04c76d	-0.129667
87	0xbde57b49	-0.112051554
88	0x3e82f59c	0.2557801
89	0x3b2d28f0	0.0026422106
90	0x3dde439b	0.108527385
91	0xbe441371	-0.19148041
92	0xbe93d69b	-0.28874668
93	0xbec01e06	-0.37522906
94	0xbf648dc8	-0.8927884
95	0xbe3f917a	-0.18707839
96	0xbdfc8ad8	-0.1233117
97	0x3eeb1bda	0.45919687
98	0xbe2a790e	-0.16647741
99	0xbe470414	-0.1943515
100	0x3f0171d7	0.5056433
101	0x3d997fc5	0.07495073
102	0x3f34c192	0.70607865
103	0xbe7e98e5	-0.24863012
104	0xbedd5213	-0.4322668
105	0x39a57e2a	0.00031565252
106	0xbea3cb81	-0.319912
107	0xbeae769e	-0.34074873
108	0xbe8e49ad	-0.27790585
109	0xbea911ec	-0.33021486
110	0x3d892ce0	0.06698012
111	0xbf0765a8	-0.5288949
112	0xbdbcfa21	-0.09227396
113	0xbf31083c	-0.6915319
114	0xbf0cb05d	-0.5495661
115	0x3efa6467	0.48904726
116	0xbe460325	-0.19337137
117	0xbedcf941	-0.43158916
118	0x3f037caf	0.5136213
119	0xbf13c020	-0.57715034
120	0xbe28e2db	-0.16492788
121	0xbdad175d	-0.08451722
122	0xbf6ee855	-0.9332326
123	0xbe8ba84b	-0.27276835
124	0x3cca2cbe	0.024679538
125	0x3e9178c4	0.2841245
126	0x3e2f41e5	0.1711498
127	0xbeec6326	-0.46169394
128	0xbf5ccd54	-0.86250806
129	0xbd39f72e	-0.045401745
130	0x3f1a36fb	0.60240144
131	0xbe1f24df	-0.15541409
132	0xbdcc0ddf	-0.09963583
133	0x3d11e07b	0.035614472
134	0x3e41a29d	0.18909688
135	0xbe8337a6	-0.25628394
136	0xbdf7d509	-0.1210118
137	0xbe2699ac	-0.16269559
138	0xbd44c220	-0.048036695
139	0xbf346c36	-0.70477617
140	0xbf1e7f52	-0.61913025
141	0xbfcbd19c	-1.5923343
142	0xbe6d7eeb	-0.23192947
143	0x3d15480a	0.036445655
144	0xbe2b112c	-0.1670577
145	0xbda409ad	-0.08009658
146	0xbeb5d0f5	-0.35510984
147	0x3dcd0c65	0.1001213
148	0xbe4b7b19	-0.19871177
149	0xbec830c9	-0.3909972
150	0xbf2a364f	-0.6648912
151	0xbf57d2c8	-0.84306
152	0xbdf54b1f	-0.11977219
153	0xbf46aefe	-0.77610767
154	0xbf72a847	-0.9478802
155	0xbc6ce174	-0.014458049
156	0xbe975a1a	-0.2956093
157	0xbf3b8fe3	-0.7326643
158	0x3e685c0b	0.22691362
159	0xbf392b7f	-0.72331995
160	0x3e685822	0.2268987
161	0xbef83796	-0.4847991
162	0xbe31f6a7	-0.17379247
163	0x3c3cd14c	0.01152451
164	0xbdf494a8	-0.119424164
165	0xbe875dab	-0.2643865
166	0xbe416011	-0.18884303
167	0xbe28de50	-0.16491055
168	0xbd588eab	-0.052870434
169	0xbe0e7e55	-0.1391538
170	0xbecb09b0	-0.39655828
171	0xbfa420f0	-1.2822552
172	0xbdff948a	-0.124795035
173	0xbcb8dc32	-0.022565935
174	0xbe90e37b	-0.28298554
175	0xbe8d81c7	-0.27638075
176	0xbbd110b1	-0.0063801636
177	0x3d1f3336	0.038867198
178	0xbe90aa9e	-0.2825517
179	0xbeccba75	-0.39986005
180	0x3d863a95	0.065541424
181	0xbf9339bb	-1.1501993
182	0xbd26ce6b	-0.0407242
183	0xbe0439bd	-0.1291265
184	0xbebbed6a	-0.3670457
185	0xbf7cc554	-0.987386
186	0xbe818f7a	-0.25304776
187	0xbed20499	-0.41019133
188	0xbeb57e04	-0.35447705
189	0xbe8a87b4	-0.27056658
190	0xbdbe53a6	-0.092932984
191	0x3eaf75ed	0.34269658
192	0xbecbccf4	-0.39804804
193	0x3ee8c47c	0.45462406
194	0xbf261284	-0.64872
195	0xbed4b36a	-0.41543132
196	0xbe3f3b37	-0.18674932
197	0xbee206f8	-0.44145942
198	0xbdd7f8f8	-0.10545534
199	0xbdfad4c2	-0.122476116
200	0x3e21f9a2	0.15817884
201	0x3e43985c	0.19101089
202	0xbf082c82	-0.53192914
203	0x3d763c1a	0.06011591
204	0xbecb5bd0	-0.39718485
205	0xbf86449d	-1.0489689
206	0xbd920db8	-0.07131523
207	0xbf1f02e5	-0.6211379
208	0xbec083d6	-0.37600583
209	0xbe870abc	-0.26375377
210	0x3e0fd28e	0.14045164
211	0xbe44ff7d	-0.19238086
212	0xbf017ab9	-0.50577885
213	0xbd4d39a8	-0.050103813
214	0xbf147c14	-0.5800183
215	0xbeced219	-0.40394667
216	0xbd1e36d3	-0.038626503
217	0xbe8741fd	-0.26417533
218	0xbeb08110	-0.34473467
219	0xbe666542	-0.22499564
220	0x3c0aa6e6	0.008462643
221	0x3d8c2ab6	0.06844084
222	0xbe9fe23b	-0.31227288
223	0xbf727c58	-0.94720984
224	0x3e2978d9	0.16550006
225	0xbd97f039	-0.07418866
226	0xbf242579	-0.6411968
227	0xbe46bcb5	-0.19407924
228	0xbf7c6005	-0.98584014
229	0x3e593fcd	0.21215744
230	0xbea46537	-0.3210847
231	0xbf28fafd	-0.6600798
232	0xbeb1fece	-0.34764713
233	0x3f40a34a	0.7524916
234	0xbd5b24d2	-0.05350191
235	0xbe3cefae	-0.18450806
236	0x3edc40f4	0.43018305
237	0xbdfbc7d1	-0.12293971
238	0x3e46ce67	0.19414674
239	0xbf1310bf	-0.5744743
240	0xbe1c0da7	-0.15239583
241	0xbf1039ed	-0.5633839
242	0xbf0c8bef	-0.5490102
243	0x3ed18e8e	0.40929073
244	0x3c1aacfe	0.009440659
245	0xbf2d25e4	-0.6763594
246	0xbe754c71	-0.23954941
247	0x3e319f8d	0.1734602
248	0xbc507fb2	-0.012725757
249	0xbd862085	-0.06549171
250	0xbe751287	-0.23932849
251	0x3d349f0c	0.04409699
252	0x3bf29098	0.007402491
253	0xbf6c143d	-0.9221838
254	0x3e2b5af2	0.16733912
255	0xbe01511d	-0.12628599

map_L5.bias f4 [618]
0	0xbf05e76a	-0.52306235
1	0xbf155a16	-0.58340585
2	0xbf0cc023	-0.5498068
3	0xbf140620	-0.57821846
4	0xbeeaab96	-0.45834035
5	0xbf74b99d	-0.95595723
6	0xbe9ca31f	-0.30593202
7	0xbf097af3	-0.5370323
8	0xbe509c95	-0.20372231
9	0xbd6fd138	-0.058549136
10	0xbef472b8	-0.47743773
11	0xbf11461e	-0.56747615
12	0xbf0f340e	-0.55938804
13	0xbec555ab	-0.38541922
14	0xbf1aefc9	-0.60522133
15	0xbed51f2a	-0.4162534
16	0xbf04b13c	-0.5183294
17	0xbf0ddeff	-0.5541839
18	0xbf1119e4	-0.5668013
19	0xbf14c877	-0.58118385
20	0xbf04480e	-0.51672447
21	0xbf0f1907	-0.55897564
22	0xbf3964c9	-0.7241941
23	0xbf15a9b5	-0.5846208
24	0xbf10537f	-0.56377405
25	0xbf0ff3e9	-0.5623155
26	0xbf1ac962	-0.60463536
27	0xbf143eb0	-0.57908154
28	0xbefa4852	-0.488833
29	0xbf44c862	-0.7686826
30	0xbf11164a	-0.56674635
31	0xbf078386	-0.52935064
32	0xbf11ee8b	-0.5700461
33	0xbf101c39	-0.56293064
34	0xbf0d5cb3	-0.5521957
35	0xbf0ca32d	-0.54936486
36	0xbf1051ab	-0.56374615
37	0xbf146a41	-0.5797463
38	0xbf1b562a	-0.6067835
39	0xbf11733d	-0.56816465
40	0xbf0f0220	-0.5586262
41	0xbefa88ef	-0.48932597
42	0xbf11a6fc	-0.5689542
43	0xbf114d7e	-0.5675887
44	0xbf0b1005	-0.5432132
45	0xbf07cfde	-0.53051555
46	0xbf118ac3	-0.5685236
47	0xbf145442	-0.5794107
48	0xbf067a71	-0.5253058
49	0xbf144538	-0.5791812
50	0xbf106d88	-0.5641713
51	0xbf0f53d2	-0.55987275
52	0xbf134d1f	-0.5753955
53	0xbf0f2592	-0.559167
54	0xbf11e46e	-0.5698918
55	0xbf0ccb87	-0.5499806
56	0xbf0d7c60	-0.55267906
57	0xbf0e3ac5	-0.55558425
58	0xbf0a1ee8	-0.5395341
59	0xbf08f0e8	-0.53492594
60	0xbf19d241	-0.60086447
61	0xbf04ea47	-0.5191998
62	0xbf104c32	-0.56366265
63	0xbf13d4ac	-0.57746387
64	0xbf18478c	-0.5948417
65	0xbf12390e	-0.5711831
66	0xbf01431a	-0.50493014
67	0xbf1950c7	-0.5988888
68	0xbefdacbe	-0.49545854
69	0xbf25ec50	-0.6481371
70	0xbf114785	-0.56749755
71	0xbf17b2a2	-0.5925695
72	0xbf199a85	-0.60001403
73	0xbf0c6ce0	-0.5485363
74	0xbf1035ba	-0.5633198
75	0xbf466ed3	-0.77512854
76	0xbf125680	-0.5716324
77	0xbf0edb25	-0.5580314
78	0xbf100cc8	-0.562695
79	0xbf0f4619	-0.55966336
80	0xbf0bc813	-0.54602164
81	0xbf04fbf5	-0.51946956
82	0xbf10c108	-0.5654454
83	0xbe90bfa3	-0.28271207
84	0xbe7c7cdf	-0.2465701
85	0xbe8bb172	-0.27283818
86	0xbe8b70ee	-0.27234596
87	0xbe955cb3	-0.29172286
88	0xbe9d576f	-0.3073077
89	0xbe8ddf24	-0.27709305
90	0xbe803681	-0.25041583
91	0xbe97b983	-0.29633722
92	0xbe875bc6	-0.26437205
93	0xbfda9a55	-1.7078348
94	0x3e35760e	0.17720816
95	0xbdbcd582	-0.09220411
96	0xbd808d5e	-0.06276964
97	0x3e028b50	0.12748456
98	0x3dfd8e1a	0.12380619
99	0x3e23bd52	0.15990189
100	0x3df20d1a	0.11818905
101	0xbde7f5ce	-0.113261804
102	0x3b646d09	0.003485503
103	0xbe02f264	-0.12787777
104	0xbdeda894	-0.11604419
105	0xbde6ef00	-0.112760544
106	0xbe078481	-0.1323414
107	0xbdd50833	-0.104019545
108	0xbe088bf6	-0.13334641
109	0xbd8be1a7	-0.06830149
110	0xbdb639af	-0.08897721
111	0xbdce8290	-0.100834966
112	0xbdde754c	-0.10862216
113	0xbdf3419d	-0.11877749
114	0xbe844f90	-0.2584195
115	0xbdbfb73c	-0.09361121
116	0xbdee7171	-0.11642731
117	0xbe677095	-0.2260154
118	0xbdc33a8e	-0.09532653
119	0xbe8c7c58	-0.27438617
120	0xbde23c9d	-0.11046717
121	0xbe7d504c	-0.24737662
122	0xbd951382	-0.072791114
123	0xbea74f9c	-0.32677925
124	0xbeb61ba2	-0.35567957
125	0xbeafa577	-0.34305927
126	0xbead610c	-0.33863103
127	0xbeb75e37	-0.35814068
128	0xbe906a5f	-0.28206155
129	0xbe9f7f38	-0.31151748
130	0xbeae37f2	-0.34027058
131	0xbebcc135	-0.36866155
132	0xbeb1929a	-0.3468216
133	0xbe2869e6	-0.16446647
134	0xbe30adc5	-0.17253788
135	0xbe4a8b2f	-0.19779657
136	0xbe3dc6ed	-0.18532915
137	0xbe481584	-0.19539458
138	0xbe7efe36	-0.24901661
139	0xbe1e2cf1	-0.15446831
140	0xbe5b4c78	-0.2141589
141	0xbe22632a	-0.1585814
142	0xbe303801	-0.17208864
143	0xbef95632	-0.48698574
144	0xbe9b496b	-0.3032945
145	0xbe808bce	-0.25106663
146	0xbeaad316	-0.3336417
147	0xbea244fc	-0.31693256
148	0xbebd3d0d	-0.3696064
149	0xbea68938	-0.32526565
150	0xbe9ea631	-0.3098617
151	0xbeabf32a	-0.33583957
152	0xbe908e59	-0.28233603
153	0xbe8210be	-0.25403398
154	0xbe6de800	-0.23233032
155	0xbe7c7b60	-0.24656439
156	0xbe805c53	-0.25070438
157	0xbe58b716	-0.21163592
158	0xbe4a0247	-0.19727431
159	0xbe5fa75f	-0.21841191
160	0xbe68c2e6	-0.22730598
161	0xbe60079f	-0.21877907
162	0xbe556776	-0.20840248
163	0xbeaceb7c	-0.3377341
164	0xbebdd153	-0.37073764
165	0xbec044e3	-0.37552556
166	0xbec03b2c	-0.37545145
167	0xbed0a5fb	-0.40751633
168	0xbec696eb	-0.38787016
169	0xbeca3a0e	-0.39497417
170	0xbec41b18	-0.3830192
171	0xbec05236	-0.37562722
172	0xbeb72499	-0.3577011
173	0xbf18a7b3	-0.5963089
174	0xbef4239e	-0.47683424
175	0xbf16f6a2	-0.5897008
176	0xbf138b85	-0.57634765
177	0xbf107456	-0.56427515
178	0xbf10aa3d	-0.56509763
179	0xbf0b6887	-0.5445637
180	0xbf13420c	-0.57522655
181	0xbf181647	-0.5940899
182	0xbf017eee	-0.50584304
183	0xbf107290	-0.5642481
184	0xbf4406fa	-0.76573145
185	0xbf116096	-0.56788003
186	0xbf134ebf	-0.5754203
187	0xbf22f461	-0.6365414
188	0xbf12a9db	-0.5729043
189	0xbf12298b	-0.5709464
190	0xbf1018c5	-0.56287795
191	0xbf0d29a7	-0.5514168
192	0xbf0da791	-0.5533381
193	0xbf4124ef	-0.7544698
194	0xbf1a1053	-0.6018116
195	0xbf108d41	-0.56465536
196	0xbf1545bb	-0.58309525
197	0xbf1d7ac4	-0.6151545
198	0xbefcb3f1	-0.49356034
199	0xbf36396a	-0.71181357
200	0xbf06b9af	-0.5262708
201	0xbf13124f	-0.5744981
202	0xbf0a92d1	-0.54130274
203	0xbf081657	-0.5315909
204	0xbf0b9a6b	-0.545325
205	0xbf052518	-0.52009726
206	0xbf0aa97a	-0.5416485
207	0xbf1a3805	-0.6024173
208	0xbf16b24f	-0.5886583
209	0xbf114712	-0.5674907
210	0xbf121a4b	-0.5707137
211	0xbf10cdd3	-0.5656406
212	0xbf128379	-0.5723186
213	0xbf164464	-0.58698106
214	0xbf14e406	-0.58160436
215	0xbf1d72dc	-0.61503386
216	0xbf115322	-0.56767476
217	0xbf1387e7	-0.57629246
218	0xbf102755	-0.56310016
219	0xbf0f388b	-0.5594565
220	0xbf0372e8	-0.5134721
221	0xbf18c13b	-0.59669846
222	0xbf0bf9ea	-0.54678214
223	0xbf0abfa0	-0.54198647
224	0xbf0748ce	-0.52845466
225	0xbf0b9218	-0.54519796
226	0xbf0fde0d	-0.561982
227	0xbf131a4b	-0.57461995
228	0xbeffcaf0	-0.49959517
229	0xbf164138	-0.58693266
230	0xbf0ec2e7	-0.5576615
231	0xbf05353e	-0.52034366
232	0xbf0d985f	-0.55310625
233	0xbf163d65	-0.5868743
234	0xbf16be02	-0.5888368
235	0xbf148e3f	-0.5802955
236	0xbe8cb523	-0.27481946
237	0xbf0c40e8	-0.5478654
238	0xbe4f5d83	-0.20250516
239	0xbc9199e5	-0.017773578
240	0xbf0e7ef2	-0.55662453
241	0xbf1253b9	-0.57159
242	0xbf13874c	-0.5762832
243	0xbf0f3115	-0.5593427
244	0xbf172caf	-0.59052557
245	0xbf1b9280	-0.60770416
246	0xbf176ea2	-0.5915319
247	0xbf024b11	-0.5089579
248	0xbf068047	-0.52539486
249	0xbf0dc331	-0.55375963
250	0xbf03ed39	-0.5153385
251	0xbf0b6b03	-0.5446016
252	0xbf1055fb	-0.56381196
253	0xbf142b53	-0.5787861
254	0xbf14888d	-0.5802086
255	0xbf093df4	-0.5361016
