models_VAEGAN_batch128/ep_2000_encoder_model.pth (torch_old, 706175 bytes, 12 tensors)

map_L1.weight f4 [256, 618]
0	0x406b4cfb	3.6765735
1	0x4079e966	3.9048705
2	0x406dceb3	3.715741
3	0x407149b7	3.7701242
4	0xc0c7bb59	-6.2416196
5	0xc0064f48	-2.098589
6	0xc05d8d40	-3.4617462
7	0x4013eaaa	2.3111978
8	0xc06c9c55	-3.6970417
9	0x40a1e495	5.059153
10	0xc0349035	-2.8213017
11	0x3ff7dca3	1.9364208
12	0x4059afa0	3.4013443
13	0xbfe15fd5	-1.7607371
14	0x404a8a4d	3.1646912
15	0x40916e31	4.544701
16	0x408e15d3	4.440164
17	0x406e9ee3	3.7284477
18	0x40723f30	3.7851067
19	0x404a2c9b	3.1589725
20	0x4062e564	3.545251
21	0x4057bb99	3.370825
22	0x4072f7e0	3.796379
23	0x40541c75	3.3142369
24	0x4082341b	4.0688605
25	0x405dd3ae	3.466045
26	0x3f966f39	1.1752692
27	0x404dc4bc	3.2151327
28	0x4084a810	4.1455154
29	0x401f9d99	2.493994
30	0x4087c8ee	4.2432775
31	0x40461593	3.0950668
32	0x406fe0c2	3.7480931
33	0x3fecb308	1.8492136
34	0x406dd048	3.7158375
35	0x40622ba1	3.533913
36	0x40776e81	3.8661196
37	0x4063b933	3.5581787
38	0x4030ca7c	2.7623587
39	0x406ecdad	3.7313035
40	0x405eaf60	3.479454
41	0x4066c9ee	3.6060748
42	0x405271ab	3.2881877
43	0x402beadb	2.6862094
44	0x4035d785	2.8412793
45	0x4083a8d9	4.1143613
46	0x40333d58	2.8006191
47	0x40475d58	3.1150723
48	0x405423fb	3.314696
49	0x407f232a	3.9865212
50	0x40344f10	2.8173256
51	0x405e917e	3.4776301
52	0x406051a0	3.504982
53	0x3f48b7fe	0.7840575
54	0x406d07ca	3.7036004
55	0x40685588	3.6302204
56	0x405d4301	3.4572146
57	0x4081933d	4.0492234
58	0x407b4a1f	3.926399
59	0x40112282	2.2677312
60	0x40615c5f	3.521263
61	0x406a88cc	3.6645994
62	0x402763a2	2.615456
63	0x4066323b	3.5968158
64	0x404efd13	3.2341964
65	0x40055d1f	2.0838087
66	0x3fec3341	1.8453141
67	0x40293cc8	2.6443348
68	0x4039bf70	2.9023094
69	0x406140bb	3.5195758
70	0x40501f92	3.251927
71	0x40426af6	3.0377784
72	0x4073fb7d	3.8122246
73	0x4064f1d7	3.5772607
74	0x40896eed	4.2947907
75	0x4080e7d9	4.0283017
76	0x408b08f7	4.3448443
77	0x405370d7	3.3037622
78	0x4062a182	3.5411077
79	0x4071eefe	3.780212
80	0x404f43d5	3.2385151
81	0x400a3212	2.159306
82	0x407cc404	3.9494638
83	0x4166e023	14.429721
84	0x41653135	14.324513
85	0x41669987	14.412482
86	0x41656ea7	14.339515
87	0x41657e9c	14.3434105
88	0x41660ea3	14.378573
89	0x4165aac5	14.354192
90	0x4165c31b	14.360133
91	0x4165ce63	14.362887
92	0x41661341	14.379701
93	0x416fab7e	14.979368
94	0x416d146c	14.817486
95	0x41703a96	15.014303
96	0x416d6e11	14.839372
97	0x416eedae	14.933027
98	0x416e154a	14.880198
99	0x41701e9f	15.007476
100	0x416dbf48	14.8592
101	0x41708011	15.031266
102	0x417013ea	15.004862
103	0x417ebde4	15.92136
104	0x41817a0f	16.184599
105	0x417e31dc	15.887173
106	0x4180f2e6	16.118603
107	0x417fea46	15.994696
108	0x417f92bf	15.973327
109	0x4180a409	16.080095
110	0x41805354	16.040688
111	0x4180cac4	16.099007
112	0x418074f3	16.057104
113	0x41846fc5	16.554575
114	0x4184104f	16.507963
115	0x41849cd5	16.576578
116	0x4183d05e	16.476742
117	0x4183e375	16.486063
118	0x4183dee9	16.483843
119	0x418473fc	16.556633
120	0x41840853	16.504065
121	0x4183fcc4	16.49842
122	0x418318f7	16.38719
123	0x404471cd	3.0694458
124	0x404042c9	3.0040762
125	0x403afd58	2.9217129
126	0x40434320	3.050972
127	0x40405402	3.0051274
128	0x40367de6	2.8514342
129	0x40457a29	3.085581
130	0x40400e55	3.0008748
131	0x403cdb80	2.9508972
132	0x40466f8e	3.1005588
133	0x4177d0b1	15.48845
134	0x4178d8cb	15.552928
135	0x41789385	15.5360155
136	0x4177820f	15.469253
137	0x4175ca8f	15.361953
138	0x4178467b	15.517207
139	0x417744ba	15.454279
140	0x41755980	15.334351
141	0x41775f00	15.460693
142	0x4178c2bf	15.547545
143	0x412ad5bc	10.677181
144	0x412b3016	10.69924
145	0x412ab904	10.67017
146	0x412a9593	10.661517
147	0x412a8553	10.65755
148	0x4128f13d	10.558896
149	0x4129d961	10.615571
150	0x412b7af5	10.717519
151	0x412ac546	10.673162
152	0x412b5721	10.708772
153	0x416c09a5	14.752355
154	0x41696440	14.586975
155	0x416bf494	14.747211
156	0x41684501	14.516847
157	0x41698fb2	14.597582
158	0x4168e9c0	14.557068
159	0x4169456d	14.57945
160	0x4168941e	14.536161
161	0x4168c309	14.547616
162	0x4167970a	14.474375
163	0x405a8d39	3.4148695
164	0x406245f8	3.5355206
165	0x4061219d	3.5176766
166	0x405e12b9	3.4698927
167	0x4060bb45	3.51143
168	0x4064b243	3.5733802
169	0x406731f6	3.6124244
170	0x405d5afe	3.4586787
171	0x40651f78	3.5800457
172	0x405b3a26	3.425424
173	0x407066fa	3.7562852
174	0x408348bf	4.10263
175	0x406d36f8	3.70648
176	0x402cdcf2	2.7009854
177	0x404395c4	3.056016
178	0x407652d5	3.8488057
179	0x4069b251	3.6515086
180	0x4056869c	3.351966
181	0x405104b1	3.2659113
182	0x406df10e	3.7178378
183	0x4059d60d	3.4036896
184	0x407854a4	3.880166
185	0x3f6e45e5	0.930754
186	0x406e76b0	3.725994
187	0x406ad01f	3.6689527
188	0x403249ea	2.7857614
189	0x4056fa67	3.3590333
190	0x405cf2a5	3.4523098
191	0x407e3994	3.9722643
192	0x406a136e	3.657436
193	0x401b19ee	2.4234576
194	0x402f4291	2.738438
195	0x404fbbd0	3.2458382
196	0x40586af4	3.381528
197	0x40483bfc	3.1286612
198	0x408bb539	4.365872
199	0x4076def9	3.8573592
200	0x408431ae	4.1310644
201	0x4045334d	3.0812562
202	0x405cde7d	3.4510796
203	0x406a5e6c	3.662013
204	0x4070e2ab	3.7638347
205	0x4044d5c2	3.0755467
206	0x403631df	2.846794
207	0x40480969	3.1255744
208	0x4036e37d	2.8576348
209	0x405e26eb	3.4711254
210	0x3fffdd69	1.9989444
211	0x405ac643	3.418351
212	0x407f367c	3.9877005
213	0x4087e985	4.247256
214	0x407acf1f	3.9188917
215	0x3f953d32	1.16593
216	0x406a4ac9	3.6608145
217	0x4086f599	4.21748
218	0x40684f29	3.6298316
219	0x407519d4	3.8297014
220	0x4015680e	2.334476
221	0x40632a67	3.549463
222	0x407e0e85	3.9696362
223	0x40609be2	3.5095143
224	0x404d97f1	3.2123988
225	0x406ded75	3.7176182
226	0x405a6981	3.4126894
227	0x40873848	4.2256203
228	0x403cd779	2.9506514
229	0x40294917	2.645086
230	0x4024b2d5	2.573415
231	0x4066e93e	3.607986
232	0x405bcdb1	3.4344294
233	0x40671c82	3.611115
234	0x4060bb1f	3.511421
235	0x40606a86	3.5065017
236	0xbff983ee	-1.9493387
237	0x4063b1b8	3.557722
238	0xc0b74f41	-5.7284245
239	0xbf9a1edf	-1.2040671
240	0x405b8427	3.429941
241	0x40878a60	4.2356415
242	0x4051e2d5	3.2794697
243	0x3ff2b3b9	1.8961097
244	0x4044d895	3.075719
245	0x40300712	2.7504315
246	0x3f909153	1.129435
247	0x408a9568	4.330738
248	0x40628dd2	3.539906
249	0x40815547	4.04166
250	0x406cb52e	3.6985583
251	0x407dc397	3.9650629
252	0x407f8463	3.9924552
253	0x405b7bb0	3.4294243
254	0x403b2409	2.9240744
255	0x40822f39	4.0682645

map_L1.bias f4 [256]
0	0xc1bb55de	-23.416927
1	0xc1a4dc9e	-20.607723
2	0xc1adecd6	-21.740643
3	0xc1b6cf37	-22.85118
4	0xc1a7b7f8	-20.964828
5	0xc1baba1c	-23.340874
6	0xc1acfe90	-21.624298
7	0xc1b6eb3f	-22.864866
8	0xc1afa18d	-21.953882
9	0x3f9215ea	1.1412938
10	0xc15189aa	-13.096109
11	0xc0607160	-3.5069199
12	0xc1ae5c45	-21.795053
13	0xc1b8fc3e	-23.123165
14	0xc1a8ed16	-21.115765
15	0xc1b80a4e	-23.005032
16	0xc1b8cd99	-23.10039
17	0xc1b5b003	-22.710943
18	0xc1a8871d	-21.065973
19	0x3e79f5c5	0.2441016
20	0xbe85a785	-0.2610437
21	0xc1af9994	-21.94999
22	0xc1aff774	-21.995827
23	0xc1b51d60	-22.639343
24	0xc1b9a101	-23.203615
25	0xc1b6d282	-22.852787
26	0xc1a8cad4	-21.099037
27	0x3f88e916	1.0696132
28	0xc1abf6ea	-21.495564
29	0xc1b9604a	-23.172016
30	0xbf8eb891	-1.1150075
31	0xc1553b6b	-13.327006
32	0xc1b0f583	-22.119879
33	0xc1a0d38c	-20.103294
34	0xc1a9fdbc	-21.248894
35	0xc1b7bd9c	-22.967583
36	0xc1bb914b	-23.445944
37	0xc1aa79f5	-21.30955
38	0xc1ba02ae	-23.251308
39	0xc1bc21d4	-23.516518
40	0xc1aaea78	-21.364487
41	0xc1b0daf0	-22.106903
42	0xc083de2f	-4.120872
43	0xc1af8270	-21.93869
44	0xc1803c71	-16.029512
45	0xc1b8e206	-23.110363
46	0xc1b85c45	-23.045053
47	0xc1ad6ab1	-21.677095
48	0xc1bbf63a	-23.495228
49	0xc1aef1e9	-21.86812
50	0xc1a4f461	-20.619326
51	0x3fb301db	1.3984941
52	0xc1b2fedd	-22.374445
53	0xc1bbaf64	-23.46064
54	0xc1b0bb4f	-22.09146
55	0xc1bb61ec	-23.422813
56	0xc1aaa685	-21.331308
57	0xc1b67ef3	-22.811987
58	0x3eddd9da	0.4333027
59	0xc1a97a2d	-21.184656
60	0xc1ab92a8	-21.44661
61	0x3fdb9e2e	1.7157648
62	0xc1af4cb3	-21.91245
63	0xc1a4a502	-20.58057
64	0x40147c85	2.3201
65	0xc1af8417	-21.939497
66	0xc1bb329a	-23.399708
67	0xc1ab61f7	-21.422834
68	0xbf1c59ec	-0.6107471
69	0xc1bcdfee	-23.60934
70	0xc1b84145	-23.03187
71	0xc1aced0c	-21.615746
72	0xc1b99579	-23.197985
73	0xc1ac1fee	-21.51559
74	0xc1b36de6	-22.428661
75	0xc08816a7	-4.252765
76	0xc1af4fa4	-21.913887
77	0xc1a4e2eb	-20.6108
78	0xc1a123db	-20.142508
79	0xc1b1c1cf	-22.219633
80	0xc1b3d771	-22.480196
81	0xc19bef22	-19.491764
82	0xc1b42e71	-22.522676
83	0xc1b11c04	-22.13868
84	0xc1a37d65	-20.436228
85	0xc1aaa9a2	-21.332829
86	0x3fe307c5	1.7736746
87	0xc1afe173	-21.985083
88	0xc1b10065	-22.125193
89	0xc19fa705	-19.956553
90	0xbfa4cc19	-1.2874786
91	0xc1b60117	-22.750532
92	0xc1b2fdd0	-22.373932
93	0xc1b59df6	-22.70213
94	0xc1ba566c	-23.292198
95	0xc1b43bb3	-22.52915
96	0xc1b78f7b	-22.945059
97	0xc186fd55	-16.873697
98	0xc1b26a8f	-22.30203
99	0xc1b29e9b	-22.327444
100	0xc194878d	-18.566187
101	0xc1a805c3	-21.002813
102	0xc1aa438a	-21.282978
103	0xc1b7e668	-22.987503
104	0xc1b3e1af	-22.485197
105	0xc1b411ef	-22.508757
106	0xc1b9994d	-23.199854
107	0xc1b206f9	-22.253405
108	0xc1ae7410	-21.806671
109	0xc1b85768	-23.042679
110	0xc1952feb	-18.648397
111	0xc1ba1325	-23.259348
112	0xc1acb3f0	-21.58786
113	0xc1b87772	-23.058323
114	0x3fc3ba5e	1.529125
115	0xc1afd96c	-21.981163
116	0xc1ab69b5	-21.426615
117	0xc1abf738	-21.495712
118	0xc19d7db9	-19.686388
119	0x40611ab0	3.5172539
120	0xc1b7d607	-22.979506
121	0xc1a4fd80	-20.62378
122	0xc1b2865a	-22.315601
123	0xc19ed37d	-19.853266
124	0xc1a84afa	-21.03661
125	0xc1b9d665	-23.229685
126	0xc1bcfa43	-23.622198
127	0xc1b8f648	-23.120255
128	0xc1b3c77b	-22.472403
129	0xc1a97c22	-21.185612
130	0xc1b79470	-22.94748
131	0xc1a2fb64	-20.37275
132	0xc1b38015	-22.43754
133	0xc1b87a18	-23.059616
134	0xbf6bf983	-0.921776
135	0x3f13f5c1	0.57796866
136	0xc1aaad44	-21.334602
137	0xc12f5a8b	-10.959605
138	0xc1b229e8	-22.270462
139	0xc1b71553	-22.885412
140	0xc19df1d7	-19.743086
141	0xc1b25602	-22.291996
142	0xc06c5d18	-3.693182
143	0xc1b71241	-22.883913
144	0xc1a63b5a	-20.77898
145	0xc1a83fb3	-21.031103
146	0xc19db7d6	-19.714764
147	0xc1af0779	-21.878649
148	0xc1b7d6e3	-22.979925
149	0xc1b94737	-23.159773
150	0xc19f1ae9	-19.88814
151	0xc1b53f47	-22.655897
152	0xc1a77000	-20.929688
153	0xc1b31dc1	-22.389528
154	0x3f5cffb7	0.8632769
155	0xc1b34641	-22.409304
156	0x412f68a6	10.963049
157	0xc0a8084f	-5.251014
158	0x40cca24b	6.394811
159	0xbf6c9605	-0.9241641
160	0x3f1f5c8c	0.6225059
161	0xc1bb7a38	-23.434677
162	0xc1b0723a	-22.055775
163	0xc1b0f083	-22.117437
164	0xc1ba4d7e	-23.287838
165	0xc1195b31	-9.584764
166	0xc1ac2c40	-21.521606
167	0xc1b5b46b	-22.713095
168	0xc1bace5e	-23.350765
169	0xc1b05777	-22.042707
170	0xc1ab8e32	-21.444431
171	0xc1b2d84e	-22.355618
172	0xc1b6ad57	-22.834639
173	0xc1b7f263	-22.993353
174	0xc1afd2b8	-21.97789
175	0xc19c8c9d	-19.568659
176	0xc1b8a046	-23.078259
177	0xc1ad98bc	-21.699577
178	0xc1b9cd9f	-23.2254
179	0xc1b286b8	-22.31578
180	0xc1ba14b0	-23.260101
181	0xc1abeb2c	-21.48983
182	0xc1b9ecfd	-23.240717
183	0xc0acea50	-5.4036026
184	0xc1be19e4	-23.762642
185	0xc1021252	-8.129473
186	0xc1a7b0a6	-20.961254
187	0xc1b331f5	-22.399393
188	0xc19e45a6	-19.784008
189	0xc1b5cac2	-22.724003
190	0xc1b7d1fe	-22.977535
191	0xc19e2afa	-19.770985
192	0xc1bb3761	-23.40204
193	0xc1aca0fb	-21.578604
194	0xc1b477c3	-22.558477
195	0xc1ac3d01	-21.529787
196	0xbf198d7f	-0.5998153
197	0xc09f8101	-4.9844975
198	0xc1b47171	-22.555391
199	0x402b51bd	2.676864
200	0xc1b334d4	-22.400795
201	0xc1b6ee18	-22.866257
202	0xc1aeece1	-21.865664
203	0xc1af3114	-21.898964
204	0xc1af4f0d	-21.913599
205	0xc0b8422f	-5.758079
206	0xc1b25628	-22.292068
207	0xc151319c	-13.074612
208	0xc1b14971	-22.16086
209	0xc1b9541e	-23.166073
210	0xc1a2909b	-20.320608
211	0xc1b2b3b3	-22.337744
212	0xbf828126	-1.0195663
213	0x3fb2adaf	1.3959254
214	0xc1af2cd4	-21.896889
215	0xc1af582c	-21.918053
216	0xc1afd4f5	-21.978983
217	0xc1b9d032	-23.226658
218	0xc044df2c	-3.0761213
219	0xc1b160e2	-22.172306
220	0x40468a83	3.102204
221	0xc1bafaef	-23.372526
222	0xc1b95ed9	-23.171312
223	0xc1b6e103	-22.859869
224	0xc1b74eba	-22.91344
225	0xc1b58244	-22.688606
226	0xc1b3817b	-22.438223
227	0xc19573c3	-18.681524
228	0xc1b9167b	-23.135977
229	0xc0b01150	-5.5021133
230	0xc1a1d373	-20.228247
231	0xc1a67df2	-20.811497
232	0xc1abb38a	-21.462666
233	0xc1bacfa4	-23.351387
234	0xc1aeb8a2	-21.840153
235	0xc1ab21b8	-21.391464
236	0xc1ad05a2	-21.62775
237	0xc1b2c4c3	-22.346075
238	0xc1acc6d6	-21.597088
239	0xc1af643c	-21.923943
240	0xc1b6cc2b	-22.849691
241	0xc1a45a68	-20.544144
242	0x402b3ecd	2.675708
243	0xc1994e9d	-19.163385
244	0xc1ba1af2	-23.263157
245	0xc1a9e175	-21.235086
246	0xc1b4d1aa	-22.602375
247	0xc1b08c53	-22.068518
248	0xc1b49ca5	-22.576487
249	0xc1ace9f3	-21.614233
250	0xc1a4f11d	-20.617731
251	0xc1aafd26	-21.373608
252	0xc093f545	-4.62369
253	0xc1af1b61	-21.888369
254	0xc1a850d7	-21.039473
255	0xc1b6a8bc	-22.83239

map_L2.weight f4 [64, 256]
0	0x3bcc1336	0.006227876
1	0xbd88bfea	-0.0667723
2	0x3d132b18	0.03592977
3	0xbe067f19	-0.13134421
4	0x3cab3a0e	0.020901706
5	0xbc8d7a25	-0.017270157
6	0xbde275f9	-0.11057658
7	0xbcfcda99	-0.030865954
8	0x3d16eb2a	0.036845364
9	0xbe3ab648	-0.18233597
10	0x3b28fa38	0.0025783908
11	0xbe608990	-0.21927476
12	0xbb44ad83	-0.0030010648
13	0xbd0ff765	-0.035148043
14	0xbbc790db	-0.006090266
15	0xbd854083	-0.06506445
16	0x3e0ef00c	0.13958758
17	0xbc1bfd4a	-0.009520838
18	0x3df30bae	0.11867462
19	0xbbdd7e48	-0.0067594387
20	0xbde71884	-0.11283973
21	0x3d9962e9	0.07489569
22	0x3d510e95	0.051039297
23	0xbd81790e	-0.063219175
24	0xbcf1fe92	-0.029540334
25	0xbde5176f	-0.1118611
26	0x3e16f0fe	0.14740369
27	0xbd18b6dc	-0.037283763
28	0x3c6b2b37	0.014353565
29	0xbe33bc3b	-0.17552273
30	0xbe225b41	-0.15855123
31	0x3d53eb51	0.051738087
32	0x3d1d3760	0.038382888
33	0xbd856e56	-0.065151855
34	0xbda00b6b	-0.07814678
35	0xbe22b401	-0.15888979
36	0x3e03aeec	0.12859696
37	0xba8ca75e	-0.0010731032
38	0x3e0f1521	0.13972904
39	0x3cff115b	0.031136205
40	0x3b6a7d11	0.0035780112
41	0x3ddbb912	0.10728659
42	0xbd21b863	-0.039482486
43	0x3bed3ca9	0.0072398973
44	0xbcbc2ef3	-0.022971606
45	0xbdc67189	-0.09689624
46	0x3d55442c	0.052066967
47	0xbca706ac	-0.020388924
48	0x3e15d29a	0.1463112
49	0xbd16def8	-0.036833733
50	0xbb199600	-0.0023435354
51	0xbdacd325	-0.0843871
52	0x3d836998	0.06416625
53	0xbd9c83fe	-0.07642363
54	0xbd2b683a	-0.041847445
55	0x3e507c2a	0.20359865
56	0x3d5b16be	0.053488486
57	0x3d0743c8	0.033023626
58	0x3cb7af5d	0.022422487
59	0x3d2f52a9	0.04280344
60	0x3d33809a	0.043823816
61	0xbdbd508d	-0.092438795
62	0xba82b811	-0.0009973069
63	0x3da6dde9	0.08147795
64	0x3e149305	0.14509209
65	0x3d3f1989	0.04665521
66	0xbe09d80d	-0.13461323
67	0x3e5d7cb7	0.21629606
68	0xbe7e98e4	-0.2486301
69	0x3dd91026	0.10598783
70	0x3c952ece	0.018210795
71	0xbdb0f7c8	-0.086410105
72	0xbd93c499	-0.072152324
73	0x3c7905f7	0.015199176
74	0x3b43b40b	0.0029861953
75	0xbe979de8	-0.2961266
76	0xbc6fe539	-0.014642053
77	0xbde294fd	-0.110635735
78	0x3d39a312	0.04532153
79	0x3a2e4237	0.000664744
80	0x3e1fc56b	0.15602653
81	0x3e02e7ac	0.12783688
82	0x3db9f58b	0.09080037
83	0x3da99ebe	0.08282231
84	0x3d020306	0.031741165
85	0x3e18f8c2	0.14938644
86	0x3cb8d153	0.022560751
87	0xbd67429c	-0.056460008
88	0x3dd806bc	0.105481595
89	0x3e19ac26	0.15007076
90	0x3c8934e1	0.016748847
91	0xbc9ffd09	-0.019529836
92	0x3d32a84e	0.04361754
93	0x3e42591d	0.18979307
94	0xbd97b51e	-0.07407592
95	0x3b88f034	0.004179025
96	0xbc2d7856	-0.010587772
97	0x3c2af08c	0.010433327
98	0xbce8d3a4	-0.02842123
99	0xbd2dd338	-0.042437762
100	0x3dae6af1	0.08516491
101	0xbc59ff6d	-0.013305527
102	0x3cc4f43c	0.024042241
103	0xbd935832	-0.07194556
104	0x3c2599ea	0.010107497
105	0x3e3c2e57	0.18377052
106	0x3dc0f42e	0.094215736
107	0x3d82be19	0.063839145
108	0x3d81b185	0.06332687
109	0x3d980924	0.074236184
110	0xbe312833	-0.17300491
111	0xbc5788dc	-0.013155188
112	0x3d60798b	0.054803412
113	0xba3e0531	-0.00072486984
114	0x3e3774bd	0.17915626
115	0xbe01107f	-0.12603949
116	0x3dfd3d61	0.12365223
117	0x3d262093	0.04055841
118	0x3d870eae	0.06594597
119	0xbe4c4b99	-0.19950713
120	0x3ddbc436	0.10730784
121	0x3ce963d6	0.028489988
122	0xbcc358a7	-0.023845984
123	0x3db6f9d2	0.08934368
124	0x3ced0a10	0.028935462
125	0x3da790e6	0.08181934
126	0x3e035ae4	0.12827641
127	0x3d07b49d	0.03313123
128	0x3d4142ee	0.04718297
129	0xbe52fe01	-0.20604707
130	0x3da63e3c	0.08117339
131	0x3d8cffa6	0.068846986
132	0x3d877104	0.06613353
133	0x3dabebad	0.08394561
134	0x3d1f2f6a	0.038863577
135	0xbd30664a	-0.0430663
136	0xbd1b1493	-0.037861418
137	0xbd66404c	-0.056213662
138	0x3cc0e419	0.023546265
139	0x3e1af6e7	0.15133248
140	0xbde41d45	-0.11138395
141	0x3b91d786	0.004450741
142	0x3cc8db72	0.024518702
143	0x3d0fed8b	0.035138648
144	0xbcb84abf	-0.02249658
145	0xbb79de39	-0.003812684
146	0x3c93c936	0.01804028
147	0x3e358168	0.17725146
148	0x3d25d80b	0.040489238
149	0xbdf70847	-0.12062126
150	0x3df50ff4	0.119659334
151	0x3d6932cc	0.05693321
152	0x3e7a22a3	0.24427275
153	0xbd9de5e6	-0.07709865
154	0x3e53db02	0.20689014
155	0xbcebd8aa	-0.028789837
156	0xbee22cea	-0.44174892
157	0xbc89487c	-0.016758196
158	0x3d8b0167	0.06787377
159	0x3c8c3c5a	0.017118622
160	0xbc2bdbfc	-0.01048946
161	0xbd73ec75	-0.059551675
162	0x3d19bb29	0.037532005
163	0x3d5f5691	0.054525916
164	0xbc2856e2	-0.010274621
165	0x3d94b67e	0.0726137
166	0x3e07bf9b	0.13256685
167	0x3d9b6b1a	0.075887874
168	0xbd42bde0	-0.04754436
169	0x3db6643a	0.089058354
170	0x3d81cf31	0.06338347
171	0xbd917494	-0.07102314
172	0x3ddf84cb	0.10914
173	0xbe1c26d8	-0.15249193
174	0x3e26da2f	0.16294168
175	0x3d866a58	0.06563252
176	0x3cf184b7	0.029482229
177	0xbd642038	-0.05569479
178	0xbe1d5217	-0.15363346
179	0xbc984e3a	-0.018591989
180	0x3bd365b0	0.006451331
181	0x3d2e33f3	0.04253001
182	0xbd396a64	-0.045267478
183	0xbdb9f901	-0.09080697
184	0x3e18803c	0.14892668
185	0x3e51b192	0.20477894
186	0x3d8dc56e	0.06922422
187	0x3dd0f2ab	0.10202535
188	0xbd1b0110	-0.03784281
189	0x3c7d43dc	0.0154580735
190	0x3dcc3d29	0.09972603
191	0x3e4d0407	0.20021068
192	0xbd08c626	-0.033392094
193	0xbde8d204	-0.11368182
194	0x3d8abd1a	0.067743495
195	0xbd39b0cd	-0.045334626
196	0x3de04aa7	0.10951739
197	0x3ce6e7d7	0.028186722
198	0x3d82c20f	0.0638467
199	0xbba363f0	-0.0049862787
200	0x3deeacce	0.11654054
201	0xbdddef33	-0.10836639
202	0xbd96443a	-0.07337232
203	0xb9709295	-0.0002294279
204	0xbc8a2e7c	-0.016867869
205	0xbce49eeb	-0.02790781
206	0xbd999c08	-0.07500464
207	0x3d361780	0.044456005
208	0x3d16c09e	0.036804788
209	0x3d043a77	0.03228232
210	0x3e2a7fdf	0.16650341
211	0xbd956831	-0.072952636
212	0xbd830b77	-0.06398671
213	0x3e3aa0ca	0.18225399
214	0x3e5c6be7	0.21525536
215	0x3da26a80	0.079304695
216	0x3dac7bbf	0.0842204
217	0x3d3197b0	0.04335755
218	0xbc5a5afa	-0.013327355
219	0xbd30d0f6	-0.04316803
220	0xbd8d53e4	-0.069007665
221	0xbe21739a	-0.15766755
222	0xbd8309c7	-0.06398349
223	0xbd3c5176	-0.045976125
224	0x3d0b5b15	0.03402241
225	0xbc96445b	-0.018343141
226	0x3da6a0aa	0.08136113
227	0xbdad0358	-0.084479034
228	0xbd029183	-0.031877052
229	0x3d98fba3	0.07469871
230	0x3de531c2	0.11191131
231	0x3dd2f562	0.10300709
232	0x3cd7024f	0.026246218
233	0x3c392558	0.011300407
234	0xbce7067c	-0.028201334
235	0x3d2f57c3	0.042808305
236	0xbcece729	-0.02891882
237	0xbd79f313	-0.06102283
238	0xbdb832ee	-0.08994089
239	0x3ce41f17	0.027846856
240	0x3e0ca5d4	0.13735133
241	0xbcf40ed9	-0.029792236
242	0xbbc51e17	-0.00601555
243	0xbde40669	-0.11134035
244	0x3cdb68a2	0.026783291
245	0x3db25bcc	0.08708915
246	0x3c57f6f2	0.013181435
247	0x3df88f31	0.121366866
248	0x3dd91c3e	0.1060109
249	0xbe47624b	-0.1947109
250	0xbd23c09c	-0.03997861
251	0x3ddec061	0.10876537
252	0x3b821668	0.003969956
253	0x3de84f50	0.11343253
254	0x3e04aa89	0.12955679
255	0xbd754541	-0.0598805

map_L2.bias f4 [64]
0	0xbf669961	-0.9007779
1	0xbf5a9721	-0.85386854
2	0xbf53ecd6	-0.8278326
3	0xbf58b382	-0.8464891
4	0xbf6412cb	-0.89091176
5	0xbf6a4359	-0.91509014
6	0xbf6c9638	-0.92416716
7	0xbf94c7bd	-1.1623455
8	0xbf51fa35	-0.8202241
9	0xbf67a088	-0.90479326
10	0xbf718f77	-0.94359535
11	0xbf67aefd	-0.90501386
12	0xbf765d50	-0.96236134
13	0xbf661d2c	-0.8988826
14	0xbf5fc82a	-0.874148
15	0xbf6b3859	-0.91882855
16	0xbf5b5fb8	-0.8569293
17	0xbf5c0c6f	-0.8595647
18	0xbf549c7d	-0.8305128
19	0xbf4aeb1e	-0.7926501
20	0xbf588a81	-0.8458634
21	0xbf706a86	-0.9391254
22	0xbf6553d9	-0.89581066
23	0x3fb1d025	1.3891646
24	0xbf5389eb	-0.8263232
25	0xbf597106	-0.84938085
26	0xbf3e2d24	-0.7428763
27	0xbf6d0091	-0.9257899
28	0xbfd7ccfc	-1.6859431
29	0xbff2cc82	-1.8968661
30	0xbf5f9b10	-0.8734598
31	0xbf66b65c	-0.9012201
32	0xbf5d9d94	-0.8656857
33	0xbf65a045	-0.89697677
34	0xbe13d64d	-0.14437218
35	0xbf4ae49f	-0.792551
36	0xbf74178f	-0.9534845
37	0xbf588e3b	-0.84592026
38	0xbf5c6aa4	-0.8610022
39	0xbf8ccf13	-1.1000694
40	0xbf79763c	-0.97446036
41	0xbf4ff9d7	-0.812406
42	0xbf83fed3	-1.0312141
43	0xbf5ddce9	-0.8666521
44	0xbf7f2cd3	-0.9967777
45	0xbf6625fc	-0.8990171
46	0xbf6898df	-0.9085826
47	0xbf6fff6d	-0.93749124
48	0xbf821dd0	-1.0165348
49	0xbf4dd2c0	-0.80399704
50	0xbf5c87b0	-0.8614454
51	0xbf5d836d	-0.86528665
52	0x405b6e16	3.428594
53	0xbf6dc0e3	-0.92872447
54	0xbf6204c9	-0.8828855
55	0xbf6a00d5	-0.9140752
56	0xc08e7db4	-4.4528446
57	0x3ffe854b	1.9884428
58	0xbf827f9b	-1.0195192
59	0xbfaf9419	-1.3717071
60	0xbf529f43	-0.82274264
61	0xbf5b9427	-0.8577294
62	0xbf4c5a37	-0.79825157
63	0xbf6485be	-0.89266574

map_L3.weight f4 [16, 64]
0	0x3c34e5fc	0.011041161
1	0x3ce44169	0.027863221
2	0xbbf5767b	-0.0074909306
3	0x3c2006fe	0.009767292
4	0xbd104561	-0.035222415
5	0xb9918241	-0.00027753602
6	0xbcecf04f	-0.028923182
7	0x3b9dac6a	0.004811813
8	0xbc6a8cdb	-0.014315809
9	0xbc756d60	-0.01497969
10	0xbcd9fe6e	-0.02661058
11	0xbc585e72	-0.013206111
12	0xbd16f362	-0.0368532
13	0xbc2bd908	-0.010488756
14	0xbd829724	-0.06376484
15	0xbcdffb53	-0.02734152
16	0xbdcd72a0	-0.100316286
17	0x3cb1f047	0.021721018
18	0xbd2b86da	-0.04187665
19	0xbd66732b	-0.056262176
20	0xbd93e7ba	-0.07221933
21	0xbd193369	-0.037402544
22	0xbc7a1d0c	-0.015265714
23	0x3b6e1e8e	0.003633413
24	0xbd4ff635	-0.05077191
25	0xbd2f042a	-0.04272858
26	0x3d062ebd	0.032759417
27	0x3d27bfc7	0.040954378
28	0xbc119aab	-0.008886973
29	0xbb438d47	-0.0029838847
30	0x3b82a571	0.0039870073
31	0x3ce8ad04	0.028402813
32	0x3d836c53	0.064171456
33	0x3c98b36f	0.018640248
34	0xbd05d6b3	-0.032675456
35	0xbd565d8b	-0.052335303
36	0xbd640cbc	-0.055676207
37	0xbd0a014b	-0.03369264
38	0x3c352bf0	0.011057839
39	0xb9934d27	-0.00028095508
40	0x3d14f12d	0.036362816
41	0xbbc67b8e	-0.0060572093
42	0x3c136b60	0.008997768
43	0x3cddc4b7	0.02707134
44	0x3dc6db81	0.09709836
45	0xbc339b03	-0.010962251
46	0x3d8a13fc	0.06742093
47	0xbd5c06a1	-0.05371726
48	0x3d57ff33	0.05273361
49	0x3c365510	0.011128679
50	0xbd262259	-0.0405601
51	0x3d70cb10	0.058787405
52	0xbba80ddd	-0.0051286058
53	0x3c8bd717	0.017070336
54	0xbc288011	-0.01028444
55	0x3b7af43f	0.0038292555
56	0x3c6740c4	0.014114562
57	0x3c2bba0e	0.010481371
58	0x3bbfee7f	0.0058572884
59	0x3d03b3df	0.03215396
60	0x3b804ca0	0.0039153844
61	0x3db9b7a7	0.09068232
62	0x3d0bc8e8	0.034127146
63	0xbd1e0ffb	-0.03858946
64	0x3c65c18c	0.014023196
65	0xbba30b31	-0.0049756994
66	0x3ba19196	0.0049306853
67	0xbbaaa83d	-0.005208044
68	0x39bb5f55	0.00035738447
69	0xbaeece30	-0.0018219408
70	0x3aba0174	0.0014191107
71	0xbe98cc33	-0.29843292
72	0xbab75a8c	-0.0013988777
73	0xbbc3297f	-0.0059558745
74	0x3ac4e040	0.0015020445
75	0xbabb337f	-0.0014282315
76	0xbc3a7799	-0.011381053
77	0xbb12cedd	-0.0022401132
78	0x3bb14a35	0.0054104575
79	0xbc4d6a76	-0.012537589
80	0x3b37450a	0.0027964734
81	0xbb5446ca	-0.0032390826
82	0x3b41b543	0.0029557503
83	0x3b30bf16	0.0026969365
84	0x3c0cb6d2	0.00858851
85	0x3c1fba6e	0.009749038
86	0xbae04008	-0.0017108927
87	0x3f001d4a	0.5004469
88	0xbb70e532	-0.0036757705
89	0x3bf8c19e	0.0075914403
90	0x3b1f21ee	0.0024281698
91	0x3b05bc77	0.0020406523
92	0xbd3a151d	-0.04543029
93	0xbecc7d42	-0.39939314
94	0xbba907d9	-0.005158406
95	0x3a2d4b7f	0.0006610676
96	0x3ae0cacb	0.0017150281
97	0xbb8cf110	-0.004301198
98	0x3c260c23	0.01013473
99	0xba937f5a	-0.0011253164
100	0x3bb876c2	0.0056293914
101	0x3c1858ff	0.009298562
102	0xbbf963fa	-0.007610795
103	0xbe71f163	-0.23627238
104	0x3b47dbdf	0.0030496044
105	0xbc3bfa22	-0.0114732105
106	0xb965e42c	-0.00021924142
107	0x3b0510b0	0.0020304136
108	0x3afa2685	0.0019084966
109	0x3eb7d07c	0.35901248
110	0x3bedd488	0.0072580017
111	0x3c5d75ac	0.013516825
112	0xbaf8b5ec	-0.0018975115
113	0x3bb8fa0f	0.0056450437
114	0x3a18b255	0.00058249134
115	0x3b3c19c0	0.0028701872
116	0x3e97ec8d	0.2967266
117	0x3bc9a7d9	0.006154042
118	0x3b6f2bbb	0.0036494571
119	0x3a9eea04	0.0012124185
120	0xbdfa3065	-0.12216262
121	0x3e479f08	0.1949426
122	0xba69056d	-0.0008889053
123	0xbaa827a5	-0.0012829198
124	0xbc2e9427	-0.010655439
125	0xbc062b91	-0.008189098
126	0xbb81c41b	-0.003960145
127	0xbaf4b8c4	-0.0018670787
128	0xbd465035	-0.048416335
129	0x3c125293	0.00893082
130	0xbd2bace8	-0.041912943
131	0x3d787035	0.060653884
132	0x3d1f6e39	0.038923476
133	0x3d037feb	0.032104414
134	0x3d55c812	0.052192755
135	0x3c20c941	0.009813608
136	0x3d50afb4	0.050948814
137	0x3bf5cf5d	0.0075015263
138	0xbbb4e992	-0.005521008
139	0x3c00bec3	0.007857981
140	0xbcd1b02e	-0.025596704
141	0x3c463eb7	0.012099913
142	0x3b1bbfc9	0.0023765436
143	0x3db616e5	0.088910855
144	0x3d23de56	0.040006958
145	0xbc0fa07e	-0.008766292
146	0xbc5f6b2e	-0.0136363935
147	0xbb1601f2	-0.0022889343
148	0x3c3fb259	0.011700236
149	0x3d2169b5	0.03940745
150	0xbd602322	-0.054721005
151	0x3adfa06f	0.0017061363
152	0xbd058e49	-0.032606397
153	0xbd11935a	-0.035540916
154	0xbd46629c	-0.048433885
155	0xbcb020bf	-0.02149999
156	0x3d03cead	0.032179523
157	0xbc870a45	-0.01648439
158	0x3ba9bdf9	0.005180117
159	0xbae61fd9	-0.0017557099
160	0x3ab08911	0.0013468583
161	0xbbcf67b0	-0.006329499
162	0x3cf6edf4	0.030142762
163	0xbc233560	-0.009961456
164	0xbcd6be2f	-0.026213733
165	0xbc284f57	-0.010272822
166	0xbcf24f50	-0.029578835
167	0x3b0ee56d	0.002180423
168	0x3d11549d	0.035481084
169	0xbb834497	-0.0040059793
170	0xbcb13be2	-0.021635
171	0xbc5b26a9	-0.0133759165
172	0x3d8d6f27	0.06905966
173	0x3c25d215	0.010120888
174	0x3d2b41ff	0.041810986
175	0xbd0f62b5	-0.035006244
176	0x3d184a0d	0.037179995
177	0x3cd45ae8	0.025922254
178	0x3ccedfc4	0.025253184
179	0xbd00f8c0	-0.031487226
180	0x3c03a770	0.008035526
181	0xbd6248cd	-0.05524521
182	0x3cec14a3	0.028818434
183	0x3b8263d4	0.0039791856
184	0x3ba2c4ec	0.0049673226
185	0xbc2020c8	-0.009773441
186	0x3c5b28dc	0.013376441
187	0xbd2b0ea5	-0.041762013
188	0x3d13beb7	0.03607055
189	0x3d8144a1	0.06311918
190	0xbc9e3988	-0.019314542
191	0xbbcd3692	-0.006262609
192	0xbcf0be4a	-0.029387612
193	0xbb8a48d9	-0.00422011
194	0x3cda9081	0.026680233
195	0x3ce2a4f6	0.02766655
196	0x3d73dff0	0.059539735
197	0xbd072112	-0.032990523
198	0xbd459886	-0.04824116
199	0xbb4559ca	-0.0030113333
200	0xbdd30577	-0.10303777
201	0x3ab11ba6	0.0013512268
202	0xbcb30d92	-0.021857057
203	0x3d62b726	0.055350445
204	0xbbe718d0	-0.0070525184
205	0xbcd3ea1c	-0.025868468
206	0x3c8ac486	0.016939413
207	0x3ad157a3	0.0015971552
208	0xbc7d1666	-0.015447235
209	0x3b093a3e	0.0020939256
210	0x3daf31a4	0.0855439
211	0x3d6f0241	0.05835176
212	0xbd03f9c3	-0.032220613
213	0xbd6b8472	-0.057499357
214	0xba803d98	-0.0009783981
215	0x3a95924b	0.0011411397
216	0x3cdfed01	0.027334692
217	0xbcb67839	-0.022274124
218	0xbc91b2b4	-0.017785408
219	0x3c0347eb	0.008012752
220	0x3caad569	0.020853715
221	0xbc3e7641	-0.011624874
222	0x3da7c26b	0.08191379
223	0x3c68dea2	0.014213236
224	0xbd62cbbd	-0.05537008
225	0xbc0c5e44	-0.008567397
226	0xbc813325	-0.015771458
227	0x3a1eb19c	0.00060536875
228	0x3d909b74	0.070609
229	0x3d54d840	0.051964045
230	0x3c5a51af	0.013325139
231	0x3b7e13d4	0.0038769143
232	0x3be7c3fd	0.007072924
233	0x3c969f95	0.018386642
234	0x3d2bb03f	0.04191613
235	0x3c3b6c5e	0.011439411
236	0xbcc6a9ff	-0.024250982
237	0x3ba45f95	0.005016277
238	0x3d13bbe0	0.036067843
239	0xbc0099a7	-0.007849134
240	0xbce69d57	-0.028151197
241	0x3c9a3a08	0.0188265
242	0x3b8c0e8a	0.004274194
243	0x3db28ed3	0.08718648
244	0xbc48dc46	-0.0122595485
245	0x3d0f3a35	0.03496762
246	0x3c6298df	0.013830393
247	0x3dfbd20c	0.12295923
248	0xbb25c084	-0.002529175
249	0xbbd2399e	-0.00641556
250	0xbd6fa5c4	-0.058507696
251	0xbda28ed2	-0.07937397
252	0x3c822a70	0.015889376
253	0xbd6f5584	-0.058431163
254	0x3befa315	0.007313142
255	0x3bd7bf46	0.006584081

map_L3.bias f4 [16]
0	0xbe33c380	-0.17555046
1	0x40760618	3.844122
2	0xbe35c103	-0.1774941
3	0xbe25ad26	-0.16179332
4	0xbe201396	-0.15632471
5	0xbe13684c	-0.14395255
6	0xbe23b0c3	-0.15985398
7	0x3f3da9ba	0.7408711
8	0xbdf649d8	-0.12025803
9	0xbdd9010e	-0.10595904
10	0xbe33e842	-0.17569068
11	0xbe1dfdf4	-0.15428907
12	0xbe29529e	-0.16535422
13	0xbe1b7a9a	-0.15183488
14	0xbe15577c	-0.14584154
15	0xbe443876	-0.19162163

map_L4.weight f4 [4, 16]
0	0xbd1f2082	-0.03884936
1	0x3a5a2af7	0.00083224423
2	0x3ce81bf1	0.028333636
3	0xbb5d6ce3	-0.0033786825
4	0xbb6dc1d1	-0.0036278854
5	0xbce45f40	-0.02787745
6	0x3c926516	0.017870467
7	0xb9f79c6f	-0.00047228063
8	0xbc6d2c66	-0.014475917
9	0xbd13a553	-0.036046337
10	0xbc96fb40	-0.018430352
11	0xbc93fd93	-0.01806525
12	0xbd250a16	-0.04029282
13	0xbc7471b6	-0.014919689
14	0x3c4f7e1f	0.012664347
15	0x3cdf85f1	0.027285548
16	0x3a299d63	0.0006470291
17	0x3dc73795	0.09727398
18	0x3a3bfc0a	0.00071710406
19	0xbb8c91d2	-0.004289844
20	0x3ab20319	0.0013581245
21	0x38e972ff	0.000111317255
22	0x3a1bde4b	0.0005945905
23	0xbe019b7b	-0.12656967
24	0xbbc7c918	-0.0060969703
25	0xbb84f4ef	-0.0040575187
26	0xbb9601f1	-0.004577868
27	0xbb0912c0	-0.0020915717
28	0x3ba9506d	0.005167058
29	0x3b157ca5	0.002280989
30	0xb9261d3f	-0.00015841889
31	0x3c015f70	0.007896289
32	0xbd0dc1f3	-0.034608793
33	0x3a576dbb	0.000821795
34	0x3cb107ea	0.021610219
35	0x3d949232	0.07254447
36	0x3cc7fb92	0.02441195
37	0x3d096ca4	0.033550873
38	0x3d8ffcf0	0.07030666
39	0x39a44ff9	0.00031340102
40	0xbd0fcdad	-0.035108257
41	0xbc73104c	-0.014835428
42	0x38ae7b9a	8.319989e-05
43	0x3c8b722f	0.01702222
44	0xbc9906a9	-0.018679934
45	0xbc0252cd	-0.007954312
46	0xbd56bbf0	-0.052425325
47	0x3c2fd8e7	0.010732866
48	0xb8812d44	-6.159631e-05
49	0xbe7c07f8	-0.24612415
50	0xba0fb583	-0.00054820644
51	0x3a8c5fd7	0.0010709715
52	0xba5c7a2f	-0.0008410541
53	0xb820f885	-3.8378425e-05
54	0x39380897	0.00017550807
55	0xbe08b8be	-0.13351724
56	0x3b617513	0.0034402057
57	0x3b18f465	0.002333903
58	0x3b5b0e28	0.0033425186
59	0x3965dd59	0.000219216
60	0x3ade222b	0.0016947439
61	0xba653ec7	-0.00087450113
62	0x3a024026	0.00049686653
63	0x3a881ff8	0.0010385504

map_L4.bias f4 [4]
0	0xbcbf83a8	-0.023378208
1	0x3ff1370b	1.8844923
2	0xbc052e74	-0.008128751
3	0xbec7e458	-0.390414

map_mu.weight f4 [2, 4]
0	0xb90a9b00	-0.00013218448
1	0x3e550d18	0.20805776
2	0xb995211d	-0.00028444166
3	0x3dbd6f53	0.09249749
4	0x3921059a	0.00015356243
5	0x3d84bbc8	0.06481129
6	0xb84bbbdd	-4.8573933e-05
7	0xbe8b01b2	-0.2714973

map_mu.bias f4 [2]
0	0x3eada9dd	0.33918658
1	0x3d0bc05a	0.034118988

map_var.weight f4 [2, 4]
0	0xc1481c10	-12.506851
1	0xc0a9fedf	-5.312362
2	0x4036e9f7	2.85803
3	0x41900eec	18.007286
4	0xc1522def	-13.136214
5	0xc09dd89e	-4.9326925
6	0x402c115a	2.688559
7	0x41981e8c	19.014915

map_var.bias f4 [2]
0	0xc1c4c9cd	-24.598536
1	0xc1d040d8	-26.031662
