models_VAEGAN_batch128/ep_2000_decoder_model.pth (torch_old, 708349 bytes, 10 tensors)

map_L1.weight f4 [4, 2]
000000 03 f8 5b bf 7c 89 24 3f 48 b5 07 c0 b3 38 15 bf
       -0.8592531 0.64272285 -2.1204395 -0.5828964
000010 06 aa 85 bf 4a 72 c4 3f d1 54 44 bf 67 35 c3 bf
       -1.0442512 1.5347378 -0.7669192 -1.5250672

map_L1.bias f4 [4]
000000 9f 18 0a 3f b0 aa 27 3f 63 83 4d 3d 87 ae 5c 3f
       0.5394382 0.65494823 0.05017413 0.8620381

map_L2.weight f4 [16, 4]
000000 4f e0 ca ba e1 7b 23 bc 87 4b 1b 3d 7f 8d 06 b9
       -0.0015478226 -0.0099782655 0.037913825 -0.00012831947
000010 2d 75 32 bf a5 d2 b1 bf a0 83 c4 3e 80 93 86 be
       -0.69710046 -1.3892409 0.38381672 -0.2628441
000020 12 a9 75 3f 40 df c8 3f 33 1f bd 3f 5e ad 08 40
       0.95961106 1.569313 1.4775146 2.1355815
000030 03 b4 24 3e 49 f3 1c 3f 64 96 d0 be c9 dc 2e bf
       0.16084294 0.61308724 -0.4073974 -0.6830564
000040 5e d8 bd be e2 dd 2f 40 f4 41 f7 be d9 59 5c be
       -0.37079138 2.7479177 -0.48292506 -0.21518649
000050 25 20 9b bf d5 43 1c 3e e8 43 85 bf 88 d9 dd 3f
       -1.2119185 0.15260251 -1.0411348 1.733201
000060 64 26 c7 3e ff f2 b7 bf 9d 27 32 3e e8 2b 63 bf
       0.38896477 -1.4371032 0.17397924 -0.8873887
000070 06 2e d3 be 20 6d 3f bf fa 1f aa 3f 7e 0a 8f bf
       -0.4124605 -0.74775887 1.3291008 -1.1175077
000080 65 46 24 3b 5c ca db bc cc 9e d5 3c 0e 62 af 3c
       0.0025066372 -0.02682989 0.026076697 0.02140906
000090 b1 13 2e bc 56 1c 01 bd bf 8e 0e 3d fc bb e4 3c
       -0.010624812 -0.031521164 0.034804102 0.02792167
0000a0 39 fb 8b bc df 1b 32 bd 04 5e b5 3c e8 20 44 3d
       -0.017087566 -0.04348361 0.022139557 0.047882944
0000b0 93 df 8b 3e 4d 71 8c be 65 76 11 3e 6c be 05 40
       0.2731901 -0.27430192 0.1420532 2.0897474
0000c0 ee 54 69 bd 60 24 6e bf 91 7f 3b c0 bc ef 33 3f
       -0.05696576 -0.93024254 -2.929661 0.7028768
0000d0 b7 11 0f c0 06 fb 7c bf 13 24 0d c0 2f b4 70 be
       -2.2354562 -0.9882053 -2.2053268 -0.23506235
0000e0 ea 21 c6 3e 18 59 c6 3f de 63 39 bf 6d 82 9c 3d
       0.3869775 1.5495939 -0.7241801 0.07642064
0000f0 6e c3 10 bf 8c 3f ab bf 8c dd 60 3f 81 76 c0 3f
       -0.565482 -1.3378768 0.87838054 1.5036165

map_L2.bias f4 [16]
000000 3e c0 0c bd bf 70 e3 be 98 92 0d bf 96 af 34 3e
       -0.034363024 -0.44421956 -0.5530181 0.17645106
000010 db 71 33 3f b8 3f 64 bd d8 01 eb be 58 75 4a bf
       0.70095605 -0.05572483 -0.45899844 -0.790853
000020 70 6d 77 bc 4f 80 e1 bc d9 0c 91 bc f8 38 70 be
       -0.0151017755 -0.027527003 -0.017706322 -0.23459232
000030 b8 db 3f 3d be 8f 0c be 0c 10 6f 3f e9 6e ce be
       0.0468404 -0.13726708 0.9338386 -0.40318993

map_L3.weight f4 [64, 16]
000000 18 08 a8 bd 9e ae f2 3e c1 33 ca be 58 7b 0f bf
       -0.08204669 0.47398847 -0.3949261 -0.5604758
000010 24 48 76 be fb 6b 8c be 5e 81 ad 3d 26 f5 30 3e
       -0.24050957 -0.27426133 0.084719405 0.17281017
000020 17 1c 4b 3d ac 53 d7 3d 3e df d5 3d f6 78 0f bf
       0.049587335 0.10514006 0.10442971 -0.56043947
000030 42 cd e9 3e f1 2c 1c bf a9 c7 c4 3f 64 27 86 3e
       0.45664412 -0.61006075 1.5373431 0.26201928
000040 4a f5 c3 3c 5b 8a d1 3e 5e cc 0e be 89 bd bd 3e
       0.023920674 0.4092587 -0.13945147 0.37058666
000050 ad f4 95 bf f8 20 1d 3d ae 3d 78 3e 72 63 89 3e
       -1.1715294 0.03836152 0.24242279 0.26833683
000060 b0 56 90 3c b5 14 7e bd 8c 5c 1b 3c 93 b6 d1 bd
       0.01761946 -0.062031467 0.009482514 -0.102399014
000070 d6 35 06 40 40 58 03 c0 9d 64 60 3f 4d 91 7a bf
       2.097036 -2.0522614 0.87653524 -0.9787796
000080 ad e1 4f bc d3 dc 46 3e e7 b1 07 c0 4f 39 e9 bd
       -0.012688083 0.19420175 -2.1202333 -0.11387884
000090 a9 9a 34 bf 76 20 2d 3f dd 42 eb bf ca 44 88 be
       -0.7054849 0.67627656 -1.837978 -0.26614982
0000a0 68 a2 97 bc 3b 67 82 3c 50 51 58 3b 8a 28 e6 3d
       -0.018510059 0.015918365 0.003300745 0.11238201
0000b0 60 ef c4 3e 0e c4 1e c0 36 e5 c4 3e 5e f2 a4 3e
       0.3846388 -2.4807162 0.38456124 0.3221616
0000c0 fd da 7a bb 57 11 23 bf 81 06 85 3f a7 43 19 3e
       -0.00382775 -0.63698334 1.039261 0.14967214
0000d0 c1 5a 83 3f 64 2f 60 bf 65 f5 a7 3f 89 bc 08 3f
       1.0262071 -0.8757231 1.3121763 0.5341268
0000e0 9c 1b 9a 3b 50 ec e8 3b 28 62 15 bc 37 d0 54 3f
       0.0047029983 0.007108249 -0.009117641 0.8313021
0000f0 4b 62 46 bf 8f 24 19 40 85 69 0f be 0e 5a f8 be
       -0.77493733 2.3928564 -0.14005096 -0.48506206
000100 6d 19 a5 3c 71 0d a8 3e d1 3d 8e be 4f 45 3a bd
       0.020153726 0.32822755 -0.27781537 -0.045476254
000110 9c 65 0c bf 1f 04 1f bf 30 86 83 3e a0 96 87 3d
       -0.54842544 -0.62115663 0.25688314 0.06620526
000120 1c a8 69 bc 80 ba c0 3c a8 72 14 3d 8e 8f 9a be
       -0.014261272 0.02352643 0.036242157 -0.3018765
000130 d2 2d 3b 3f 76 a6 22 bf 15 7c c1 3f 0c 14 1e 3f
       0.7311679 -0.6353525 1.5115992 0.6174934
000140 ad 50 8b 3c 2f a0 3b 3e 04 13 dd bf 49 bb ac 3c
       0.017006243 0.18322824 -1.7271428 0.021085398
000150 16 95 5f bf dc 49 0c 40 99 1a a7 bf 2e cf 7b bf
       -0.8733686 2.192008 -1.3054992 -0.98363006
000160 6a 3d 33 bb 8d ce b7 3c b8 0e 2e 3a 6b 15 a1 bf
       -0.0027349838 0.022437358 0.00066397665 -1.2584661
000170 71 c3 02 3f 92 92 4e c0 e7 96 16 3c 8a 16 45 bd
       0.5107947 -3.227696 0.009191251 -0.048117198
000180 4f ba d8 bc 19 42 b8 bd 81 f0 28 3f de 83 32 bd
       -0.026456026 -0.08996982 0.6599198 -0.04358279
000190 52 49 5e bf f2 6d ce be 86 97 ca 3f 10 4e 45 3f
       -0.8683063 -0.40318257 1.5827491 0.7707224
0001a0 b6 60 25 3d 41 0f aa bc 01 24 b9 bc c7 f0 d9 be
       0.040375434 -0.020759227 -0.022600176 -0.4256651
0001b0 74 09 8a bf b2 b7 04 40 e7 f5 3f 40 6f b9 ad 3d
       -1.0784135 2.0737119 2.9993837 0.08482634
0001c0 05 2d 57 3c 4a fa 6e bf 2f e7 d2 be ff c3 09 3e
       0.013133292 -0.9335066 -0.41192004 0.13453673
0001d0 f7 98 1c bf fa ef 8d 3e 67 68 a5 be 01 d8 03 bf
       -0.61170906 0.2772215 -0.32306215 -0.5150147
0001e0 a8 1d 31 3a b0 8b cd bc e6 eb 1f 3c 8d 94 24 3e
       0.0006756433 -0.025091022 0.009760832 0.16072293
0001f0 c0 1a 11 c0 25 1b d7 3f ec 17 89 3e 0a 59 10 bf
       -2.2672577 1.6805159 0.26776063 -0.5638586
000200 0b 0e 57 3e ed 69 07 bf 5a af 38 be 77 f6 e7 bd
       0.2100145 -0.52896005 -0.18035641 -0.11326306
000210 e4 32 eb bf 6e f2 35 bf 8c cb 6d 3f 0a d1 52 be
       -1.8374906 -0.71073043 0.9288871 -0.20587555
000220 35 7b 9c bb 47 be fd 3c f3 8a f7 3d 2a d3 0d be
       -0.0047754296 0.03097452 0.12087049 -0.13850084
000230 d1 39 c3 3e 7d ce 25 be 50 32 1e 40 be 6c 0f 3f
       0.38130048 -0.1619205 2.4718208 0.560253
000240 9b 42 3f bd 81 bd 9e be 80 ae b8 bf f4 89 cb bd
       -0.04669438 -0.31003955 -1.4428253 -0.09938422
000250 c5 c7 b8 3e b0 61 c5 bf 2f 22 7c bf a1 f3 5c bf
       0.36089912 -1.5420437 -0.9848966 -0.8630925
000260 12 b4 d9 bc ee 45 69 bd 81 1a 5c bc 65 d0 a5 3e
       -0.026575122 -0.056951456 -0.013434053 0.32385555
000270 12 18 6a bf 95 52 54 3e b3 f3 22 3f 15 bf 50 be
       -0.9144298 0.20734628 0.63653105 -0.20385392
000280 50 2e 8a ba 65 bf ab be e1 db 77 3f 5d 46 35 be
       -0.0010542367 -0.3354446 0.96819884 -0.17702623
000290 c1 02 29 40 85 45 a5 3d ea dd d9 3f 41 19 23 3f
       2.640793 0.080699004 1.7020848 0.6371041
0002a0 21 7f 84 3d 78 16 54 3d 29 f0 98 bd dc f5 2c bf
       0.064695604 0.05177924 -0.07467682 -0.6756265
0002b0 0c e8 47 3f 52 3d fd 3e e9 a7 4f bf 5e 3a 1d be
       0.7808845 0.49460846 -0.81115586 -0.15354297
0002c0 d0 83 0e bc 9b 1f 1a 3f ad 43 fc 3d ee 7e 00 3f
       -0.008698419 0.60204476 0.12317596 0.5019368
0002d0 fe 50 77 bf 60 95 38 bf d6 33 fb be 29 a5 69 3e
       -0.9660796 -0.7210293 -0.49062985 0.2281691
0002e0 5d fd b5 3d 14 84 1a 3e 53 d9 94 bd ba d3 59 3f
       0.08886216 0.15089446 -0.07268014 0.85088694
0002f0 04 02 ef 3e 46 b5 90 bd 03 1e 54 3e 26 29 d4 be
       0.46681225 -0.07065825 0.20714574 -0.41437644
000300 66 4f 75 3b e2 75 38 3f c7 b2 cf 39 75 d9 63 be
       0.0037431358 0.72054875 0.00039615316 -0.22250922
000310 6b 41 e4 3e 96 e7 bf bf f6 ea 49 3e 82 a8 1e 3e
       0.4458116 -1.499255 0.19718537 0.15493968
000320 b6 6f ac bc 06 98 c0 3d c8 01 b9 bc 45 56 5e bd
       -0.021049362 0.09403996 -0.022583857 -0.05428149
000330 91 69 bd 3f 70 55 50 bf 3b 68 23 3f 1e c0 92 3f
       1.4797841 -0.8138037 0.6383092 1.146488
000340 2e 48 0c bc 56 fe 2d bf d3 21 18 c0 b5 5b 38 bc
       -0.008562131 -0.6796621 -2.3770645 -0.011252333
000350 73 a5 88 3f eb 61 c0 bf 24 ac bd bf fe 75 b4 bf
       1.0675491 -1.5029882 -1.4818158 -1.4098508
000360 f6 a4 a4 3b 19 71 13 bd 36 df 18 bb 2e 50 47 bf
       0.0050245477 -0.03599653 -0.0023326403 -0.7785672
000370 5a 45 cd 3e ef ee da bf b4 23 2c 3e db f0 93 bd
       0.40091974 -1.7104167 0.16810495 -0.07223674
000380 83 3d 2e 3d 19 f0 c8 be 07 a6 e4 3f 3b ab f7 3b
       0.04253913 -0.3924568 1.7863168 0.007558254
000390 ed 08 3f bf af 71 10 bf 2f 06 98 3f 34 11 ba 3d
       -0.74622995 -0.5642347 1.1876887 0.090853125
0003a0 12 fe 66 3c a5 01 3a bd 3f 6b 30 3d af f9 a2 3f
       0.014098661 -0.045411725 0.043071028 1.2732447
0003b0 2a 1f e3 3f 36 15 ba bb d3 76 f0 bf 73 e1 a7 3d
       1.7743886 -0.005678798 -1.8786262 0.08197298
0003c0 0b bd 6d 3d 5b 4d 17 be a3 ed 0e be f4 8e b0 3e
       0.058041614 -0.14775603 -0.13957839 0.34484065
0003d0 f6 79 90 bf a9 22 3a bf 79 44 39 3f 85 f2 1d bd
       -1.128722 -0.7270914 0.72370106 -0.038561363
0003e0 42 68 83 bc 05 bd e4 3b 8c 6f 43 3b 95 2f 20 be
       -0.016040925 0.0069805407 0.0029821126 -0.15643151
0003f0 e0 ad 34 3f 8a 3b d1 be 37 6d ec 3f 40 a1 1b 3f
       0.7057781 -0.40865737 1.847083 0.6079292

map_L3.bias f4 [64]
000000 11 f9 84 bf dc 52 b0 bf 91 ea c2 be 4d 61 a3 3e
       -1.0388509 -1.3775287 -0.38069585 0.31910172
000010 c3 58 9c bf 83 98 13 be d5 40 92 bf 45 8f 1c 3f
       -1.2214588 -0.14413647 -1.1426035 0.6115611
000020 e4 31 eb bf 55 8d b1 be b0 1b 7e 3e db 5e c5 be
       -1.83746 -0.3467814 0.2481525 -0.3854893
000030 b5 9d 8b bf 1a 7f 23 bf 2c 9b 99 3b 9d aa c1 bf
       -1.0907503 -0.63865817 0.0046876874 -1.5130192
000040 9a 30 4c 3e c6 86 21 3d a1 79 7e bf 14 08 fc be
       0.19940415 0.03943517 -0.9940434 -0.49224913
000050 3b 1e a4 3d c7 2a 86 be db a5 4b 3e b9 ba 96 bf
       0.080135785 -0.26204512 0.19887488 -1.1775733
000060 63 cb a4 3f 0f 07 ee 3f e9 19 4a 3e 11 e4 f4 be
       1.2874569 1.8595904 0.19736446 -0.4783025
000070 92 db eb bf 24 d1 ea bf 6a 07 46 bf ec 64 be bf
       -1.8426383 -1.8345075 -0.7735506 -1.4874549
000080 e0 f9 d5 3e 87 65 3c bd 14 0f 71 3f ce 76 d1 bf
       0.41792202 -0.04599526 0.9416363 -1.6364381
000090 00 53 84 bd bd c5 0e bf 17 1c 06 bf a1 86 cb 3e
       -0.064611435 -0.55770475 -0.5238661 0.3975115
0000a0 37 0b eb bf 98 2d 81 bf e8 71 48 3d e0 9b 74 bf
       -1.8362797 -1.0092039 0.048936754 -0.95550346
0000b0 ca 19 c1 bf b3 e3 5e bd 41 7f d0 3e bf 3b a6 bf
       -1.5085995 -0.05441637 0.40722087 -1.2986983
0000c0 8b 3d 42 3e 15 9a c6 be 6e 01 fb bd 16 5c 85 bf
       0.1896879 -0.3878943 -0.12256132 -1.0418727
0000d0 fb ee 9f be 05 71 c7 bf 0e 6a 8d bc 34 1f 12 3f
       -0.31237015 -1.5581366 -0.017262485 0.5707886
0000e0 0c f3 b4 3f e0 3d ad bf 54 43 6d bf 3e a4 61 bf
       1.4136672 -1.3534508 -0.9268086 -0.8814124
0000f0 34 1d d5 bf 44 89 d5 bf 4f 0c 63 bf bb ef 77 bf
       -1.6649537 -1.6682515 -0.88690656 -0.96850175

map_L4.weight f4 [256, 64]
000000 1a cc 44 3c f0 51 e3 3e 3b 6e 98 bf 15 5e 93 3f
       0.012011552 0.4439845 -1.190864 1.1513087
000010 e0 fe 01 be 75 2d 8e 3f bd c5 64 3e d0 05 01 bf
       -0.12694883 1.1107622 0.22341056 -0.50399494
000020 2b f2 f9 bd 40 3d 54 3f 2f ad 97 bd 9b ca 08 3e
       -0.12204393 0.8290596 -0.07406079 0.13358538
000030 e4 59 8e bd c1 b0 a9 3f 55 76 98 3f d1 40 ca bd
       -0.06950739 1.3257066 1.1911112 -0.09875644
000040 cb 73 2a 3f b7 18 43 c0 dd 90 cb 3d 45 d0 f6 bf
       0.66582936 -3.0483835 0.0993974 -1.9282309
000050 cc 52 ad bf 36 9a 0f 40 26 91 e8 3f 3d c5 bd 3f
       -1.3540893 2.2437873 1.8169296 1.4825817
000060 6a de 85 3f e8 e8 31 40 d1 61 18 40 6b 7a 47 be
       1.04585 2.7798405 2.3809702 -0.19480292
000070 d1 ac 40 3e 89 33 8c be 4e 03 8a be a3 dc 4d c0
       0.18815924 -0.27383068 -0.26955646 -3.2165916
000080 7d 53 69 be 8d b9 84 40 d6 e9 55 40 57 45 d5 be
       -0.22785755 4.1476502 3.3423972 -0.41654465
000090 c3 25 2f 40 c4 eb 05 40 13 9f 93 bd 49 75 82 bf
       2.7366798 2.092515 -0.072080754 -1.0192043
0000a0 6f cd 7b 3d d2 80 1a 3e 86 50 01 c0 90 70 91 3f
       0.061475214 0.15088204 -2.0205398 1.1362476
0000b0 e9 00 bd bd eb 5b 85 3b f6 65 4b 40 78 4f b2 bf
       -0.09228689 0.0040697954 3.1780982 -1.3930502
0000c0 97 f8 2b 40 64 03 0b c0 bb cc 67 c0 f1 04 d2 bd
       2.6870477 -2.172082 -3.6218708 -0.10254849
0000d0 f0 0c 0f bf bf a4 86 3c e5 0c a2 3f 87 7a f4 bc
       -0.55879116 0.016435979 1.2660185 -0.029843582
0000e0 b8 17 5f 3f 1b 1e 33 3b ed 40 3d bf a6 58 1c be
       0.87145567 0.0027331177 -0.73927194 -0.15268192
0000f0 9d b7 74 be e8 bd c8 3d 7e c1 aa be 19 f0 6c bf
       -0.23898168 0.09801847 -0.33350748 -0.9255386
000100 d1 5b d8 bb b7 c6 32 3e a2 a9 10 40 8c c3 29 3f
       -0.0066027422 0.17458616 2.2603536 0.66314006
000110 0b 96 90 bd 13 13 10 40 bc 15 a4 3f d9 b8 55 3e
       -0.070598684 2.2511642 1.2819133 0.20871295
000120 b9 79 10 be b1 13 e1 bd 70 3f 6d 3e 63 8b 82 3d
       -0.14108934 -0.10990084 0.2316873 0.06374242
000130 49 80 9d 3b e8 f6 0f bf ed ea a0 3e ea 7a 3b 3d
       0.0048065525 -0.56236124 0.31429234 0.045771517
000140 de da f1 bf b8 c3 6f 3e e3 ae df bd 3a 18 dd 3e
       -1.8894918 0.23414505 -0.10922029 0.43182546
000150 96 a5 42 bf e0 68 80 3f c7 67 17 bf 46 e7 f2 3e
       -0.76033914 1.0032005 -0.59142727 0.47442073
000160 8b 0d b3 bf 63 7a ec 3f f2 34 8e 3f 66 b1 ea be
       -1.3988508 1.847485 1.1109908 -0.4583847
000170 18 27 3c 3d da 7c 58 bf 07 49 90 3f df 4c 29 3f
       0.04593572 -0.8456551 1.1272286 0.6613292
000180 ae 50 67 bf 30 16 c8 3f fd 28 8a 40 ed 04 9e bd
       -0.9035748 1.5631771 4.3175035 -0.07715783
000190 4a 56 94 3f b8 c2 33 be c3 f9 67 bd 83 b1 02 bf
       1.1588833 -0.17554748 -0.056634676 -0.5105211
0001a0 35 99 08 bd 8f de 04 3e 32 4c 04 c0 9f 74 96 3e
       -0.033349235 0.12975524 -2.0671506 0.2938585
0001b0 73 d2 f7 3d 76 6f 51 be 22 7f 01 3f 78 0c ff bf
       0.12100687 -0.20452675 0.50584614 -1.992568
0001c0 18 c8 c4 3f d2 54 17 40 12 c8 8d 3e d5 e6 95 be
       1.5373564 2.364552 0.27691704 -0.29277673
0001d0 1d 68 9b 3f 23 56 27 bc 88 8d 9a 3f 6e ff e9 3f
       1.2141148 -0.010213408 1.2074442 1.8281076
0001e0 77 62 3c 3d 3a 0f 9f bc fa 6d 6d 3e d8 ed 96 be
       0.04599234 -0.01941644 0.23186484 -0.29478335
0001f0 2d 18 b5 3d ce 7e 91 3b d3 c5 7d 3e 80 6a 0e 3f
       0.08842502 0.004440165 0.24782495 0.55631256
000200 91 47 4a 3d 6c e8 02 bf b8 45 28 3f e9 f9 0b 3d
       0.049384657 -0.511359 0.6573138 0.03417388
000210 d1 f1 65 bd b3 57 94 c0 fd 6e 2e 3f fb 5b ea 3f
       -0.056138817 -4.6357055 0.68138105 1.830932
000220 5a be 15 3e e4 7f a2 3d 08 2e ac 3e e3 31 66 3d
       0.14623395 0.079345495 0.3362887 0.05619992
000230 68 c7 62 3d 9d 76 0f 3f 32 df dc 3f 24 8e 7d bd
       0.05536595 0.56040365 1.7255614 -0.061903134
000240 6c 6d ab 3f c7 1e 11 3f 35 a1 44 be 33 98 a8 3d
       1.3392768 0.5668759 -0.1920212 0.08232155
000250 e2 5b 68 3f 20 3a fe 3f 87 74 34 bf 53 5b a4 bf
       0.907652 1.9861488 -0.70490307 -1.284037
000260 f1 c5 55 40 63 d2 d4 bf e1 fa ff bd 39 ee d6 3e
       3.3402064 -1.6626705 -0.12499023 0.41978624
000270 35 11 02 3e bc 9d 28 c0 10 2c 5d c0 43 cd 2d 3e
       0.12701876 -2.6346273 -3.4558144 0.16972832
000280 79 5d a9 bd de 2e e7 3f 60 f1 ad 3e 4f 99 10 bd
       -0.082697816 1.8061178 0.33973217 -0.035302456
000290 33 44 40 3f 5c f6 b3 bf 5e 8c 57 be 61 51 a5 bf
       0.75104064 -1.4059558 -0.2104964 -1.291546
0002a0 9d 2b c0 3d ef bb 05 be 3c fb d7 bf 2c d6 d8 3c
       0.093833186 -0.13059972 -1.6873546 0.026469313
0002b0 3e 8d 81 be 43 e1 99 3e 0d 4b 4a bf 51 7a 1e 3e
       -0.25303072 0.30054674 -0.7902077 0.15476348
0002c0 15 6e a2 3d 28 62 75 bf 8c 6e 9b bf 51 6a 05 be
       0.07931153 -0.958529 -1.2143111 -0.13028838
0002d0 2d d2 8d be 1c bc c5 3d 3b 67 84 be 45 e3 bf bb
       -0.27699414 0.0965502 -0.2586001 -0.00585595
0002e0 18 23 2d 3f 9a d4 d0 3d e3 de c9 bd b3 98 e1 bf
       0.67631674 0.101968005 -0.098569654 -1.7624725
0002f0 b2 06 50 3d 55 0c ac 3d f6 d2 ce 3e 0a 30 07 be
       0.050787635 0.0840079 0.40395325 -0.13201919
000300 d5 82 36 3e 95 c6 13 bf 6a 36 e6 3f c1 f2 e5 bf
       0.17823346 -0.5772489 1.7985356 -1.7964708
000310 0a e8 20 3d db 2d 0a 40 51 a1 c3 3f e1 1a 16 3f
       0.03928379 2.1590488 1.5283605 0.58634764
000320 71 c3 a5 be 3a 8e b4 3f 1b 52 f8 bc 76 a8 1a 3e
       -0.32375672 1.4105904 -0.030312588 0.15103325
000330 42 76 56 3d 2d 9c 09 bf 2a 68 86 bf 92 57 b2 3d
       0.052358873 -0.5375393 -1.0500538 0.08708109
000340 19 c4 2f c0 0b 4e 84 c0 a9 2f 82 be 27 08 ee be
       -2.7463439 -4.1345267 -0.25426987 -0.46490595
000350 ef 65 83 be 45 96 29 c0 25 d4 07 3f a2 51 b4 3e
       -0.25663707 -2.6497967 0.5305808 0.3521853
000360 88 a5 3f c0 8c 17 04 c0 0b 26 c7 3d 84 6c d6 3e
       -2.9944782 -2.0639372 0.09724053 0.41879666
000370 00 d1 02 be e4 0e 69 3f 65 d4 84 bd 3f 01 1c c0
       -0.1277504 0.91038346 -0.064858235 -2.437576
000380 d2 12 b0 bf 0e 02 cc bf 5a 43 fe 3f da e6 32 bd
       -1.3755744 -1.5938127 1.9864304 -0.04367719
000390 fa 8e 25 40 83 04 e0 bf 97 13 17 bd f3 b4 05 3f
       2.5868516 -1.7501377 -0.036883917 0.5222923
0003a0 49 be 3a bb 4d af 4c bd ae e6 68 3f 41 f1 c3 3e
       -0.0028494766 -0.049971867 0.9097699 0.3827
0003b0 fa a3 42 be 4b 1f e1 bf e2 e9 81 c0 36 76 22 bf
       -0.19007865 -1.7587675 -4.0598 -0.63461626
0003c0 5c 69 be 3f e8 41 1b c0 7c e5 9c 3f 0d 97 31 3e
       1.4875903 -2.4258976 1.2257533 0.17342778
0003d0 22 d5 77 3f ce bf 58 bd 0e 7b b9 3f 1a 3d 43 3e
       0.9680959 -0.052917294 1.4490678 0.19066277
0003e0 e4 1d 8f 3d c3 54 3e 3d 1d 70 3a be ec 6a 33 3f
       0.06988123 0.046467554 -0.1820683 0.70085025
0003f0 94 c8 a5 bc 22 30 7e bd 3e 1e 19 3f 25 0a d6 be
       -0.020237245 -0.06205762 0.5981177 -0.41804615

map_L4.bias f4 [256]
000000 79 17 15 bd 8a 7f 95 be af ba 99 be c8 cf 62 be
       -0.03639934 -0.29198867 -0.3002524 -0.22149575
000010 84 6f e5 bf c1 83 2b be 7e b5 4f be 9d 91 8e be
       -1.7924657 -0.16749479 -0.20284078 -0.2784547
000020 f2 cf ee be 18 86 88 bd 9a fc d2 bd af e9 b7 be
       -0.46643025 -0.06666201 -0.10302086 -0.35920474
000030 8a 63 ac 3d 91 85 0b bf 23 71 f0 be c7 75 88 be
       0.08417423 -0.5450068 -0.46961316 -0.26652357
000040 55 9d 15 3f a7 34 c6 be 94 51 a6 bd c8 8c af be
       0.58443195 -0.38712046 -0.081210285 -0.34287095
000050 3f b6 93 be 35 5d 66 be 74 79 0e be 78 a8 16 be
       -0.2884998 -0.22496493 -0.13913518 -0.14712703
000060 e0 50 c1 be 23 e9 23 bc 5f e4 e8 be aa ef 1a 3e
       -0.37757015 -0.010004315 -0.45486733 0.15130487
000070 60 c5 97 be 3e 03 99 be 8c 78 d6 3d 11 c4 c0 bd
       -0.29642773 -0.29885286 0.10472211 -0.09412397
000080 5e 43 11 bf de 03 4f be 62 2b 91 be b6 49 8a bd
       -0.5674342 -0.20216319 -0.2835341 -0.067523405
000090 d4 cc e9 be a7 60 20 bf 9d 32 e7 bd 78 e0 cd bd
       -0.45664084 -0.6264748 -0.112889506 -0.1005258
0000a0 2d 93 3b bf db 57 ba be 0e 6c f9 be d7 29 da be
       -0.7327145 -0.36395153 -0.48715252 -0.42610046
0000b0 a2 24 90 be ea 8a 9c be 6d f3 b7 be 0b 01 56 be
       -0.2815295 -0.30574733 -0.35927907 -0.20898835
0000c0 28 14 5f bf 86 7a 39 bf d5 71 81 be d6 13 8d be
       -0.8714013 -0.7245258 -0.2528216 -0.27554196
0000d0 d6 8b 4e bd 35 1a 96 bd 2b 27 70 bd 5f a1 87 be
       -0.050426327 -0.07329217 -0.058631103 -0.26490304
0000e0 ef f4 41 3e 9f a4 67 bf 60 5b 1f bf 1e b2 53 bd
       0.18941091 -0.90485567 -0.622488 -0.051683538
0000f0 26 71 bd bc cb b6 57 3d 98 cd 0a bd f4 ae 62 3c
       -0.023125242 0.05266456 -0.033887476 0.013835657
000100 1c 5c 16 be 92 62 9e be 99 b8 0a bf e6 4e 23 bf
       -0.14683574 -0.30934578 -0.54187924 -0.63792264
000110 63 69 7e be 15 1e cc be 31 8b 36 be 72 65 8b be
       -0.2484489 -0.398667 -0.17826535 -0.27225834
000120 9d ef 2e be 25 aa 2a bf a3 5d 74 be d6 5c c1 bd
       -0.17083593 -0.6666587 -0.23863845 -0.09441535
000130 8d 9f 01 bf 5a 3b b0 bd 75 4e 12 bf 6d 5c 42 be
       -0.5063408 -0.086050704 -0.57150966 -0.1898057
000140 48 34 81 3d fe 55 20 be d9 d7 70 bd 20 1c 9f bd
       0.063088 -0.15657803 -0.0587996 -0.07769036
000150 e1 6a 70 be 28 8a fa bd 44 4f 06 bd 94 34 53 3c
       -0.23478271 -0.122333825 -0.032790437 0.012890954
000160 e4 c8 8d be de d9 d6 be bf 8a f4 be c0 8f 14 3e
       -0.2769233 -0.41963094 -0.47762105 0.14507961
000170 30 96 93 bd 26 3d e7 bc d4 d0 3c be ea 23 1f be
       -0.0720638 -0.0282274 -0.18439037 -0.15541044
000180 2c e3 aa be a1 d0 59 bc e6 fd 1e 3d 8c 78 d9 39
       -0.33376443 -0.01329437 0.038816355 0.0004147928
000190 b8 9f f1 be b9 7e 8c bf 6f e4 97 bd 4b ae 37 be
       -0.47192168 -1.0976173 -0.07416617 -0.17937581
0001a0 1a 0c ab be 2e 67 8a be 0c 70 ce bc 48 a1 b1 bd
       -0.3340767 -0.27031845 -0.025199912 -0.0867334
0001b0 44 1b 75 3c cf b7 7e be 04 c7 b3 be 05 1f 8a be
       0.014960114 -0.24874805 -0.35112774 -0.2697679
0001c0 d7 4e 17 bf 39 a2 0f be 56 16 b9 be b8 3a de be
       -0.59104675 -0.14026727 -0.36149853 -0.43404174
0001d0 99 c5 70 be 5f 1d 35 be 5f 4d da be 3a c8 87 be
       -0.23512878 -0.17686985 -0.42637154 -0.26519948
0001e0 39 42 c2 be 34 ca de be 77 a4 b0 bd 72 4f d8 be
       -0.3794115 -0.43513644 -0.08625119 -0.42248112
0001f0 ae 43 8c bd ed dc 3d be 75 48 80 3d 23 37 f8 be
       -0.068488464 -0.18541308 0.0626382 -0.48479566
000200 85 84 50 3e 2a a2 84 bc f2 30 20 bf b3 9e 9f be
       0.20363052 -0.016190607 -0.62574685 -0.31175765
000210 9d 2d c5 be ed 22 a9 bc ef de 91 be c9 39 9b bf
       -0.38511363 -0.020646537 -0.28490397 -1.212701
000220 88 ab a4 be 68 51 81 be bb 6b 37 bd dd a9 18 be
       -0.32162118 -0.2525742 -0.044780474 -0.14908548
000230 d2 7d c3 3c a7 5e d4 be 79 08 8e be bb f4 90 be
       0.023863707 -0.41478464 -0.2774084 -0.28311715
000240 e0 82 02 bd 8b dd a6 be 6e ac da be fd 8d 29 be
       -0.031863093 -0.325909 -0.42709678 -0.1655807
000250 b8 e9 30 bf 28 b4 16 be 79 13 cc be 64 96 16 bf
       -0.69106627 -0.14717162 -0.39858606 -0.5882323
000260 04 58 8c be f4 70 06 bf 9e 86 cc be 02 19 58 be
       -0.274109 -0.525161 -0.39946455 -0.2110329
000270 7d bb 60 be 03 cc f6 bd 14 28 b1 be 98 8d eb be
       -0.21946521 -0.12050631 -0.3460089 -0.46006465
000280 ce 50 e1 bd c7 32 28 bf 2b 11 40 be a5 42 bc be
       -0.110017404 -0.6570248 -0.18756549 -0.36769596
000290 e0 7a c4 3e 0e 4b 66 3c 2f cd 90 be 07 08 04 be
       0.38374996 0.01405598 -0.28281543 -0.12893687
0002a0 3a 43 19 bf e5 14 26 3b 06 10 6d be a1 2f 7d be
       -0.59868205 0.0025342044 -0.23150644 -0.247252
0002b0 c0 eb 45 bc 22 97 78 bf 3d e6 06 be a8 8f 83 be
       -0.012080133 -0.9710561 -0.13173766 -0.2569554
0002c0 67 54 c0 be 09 d0 f6 bd ec fe b0 be b8 ff bb 3d
       -0.37564394 -0.12051398 -0.3456949 0.09179634
0002d0 93 c7 ed bd 70 ac a2 be 66 09 00 be f3 aa 4a bf
       -0.116103314 -0.31772184 -0.12503585 -0.791671
0002e0 dc c0 50 be d7 84 a5 bc 94 56 5a bf e2 89 2f bf
       -0.2038607 -0.020204945 -0.8528836 -0.6856977
0002f0 f0 cb 7d be 16 d6 23 bf 72 f1 ec be 9b 97 10 bf
       -0.24784827 -0.63998544 -0.46277958 -0.5648133
000300 7b a6 93 be 39 17 b5 be e6 f5 86 3d 56 3a 46 bf
       -0.28837952 -0.3536928 0.0658987 -0.77432764
000310 3b 9a c9 be d6 ce bb be f2 d3 26 3b 48 85 5b bd
       -0.3937548 -0.3668124 0.002545592 -0.053593904
000320 54 1b 12 be 96 72 c6 be ed 4f 7f 3d 48 bb 8f bf
       -0.14268237 -0.38759297 0.062332083 -1.1229029
000330 92 b1 64 bc a6 54 60 3e 2d 97 d8 be 68 a8 03 be
       -0.013958352 0.21907291 -0.42302838 -0.1285721
000340 fb b0 7d 3c 5f 65 dd 3e 53 19 a6 be 55 4a 18 bf
       0.01548409 0.43241403 -0.32441196 -0.5948842
000350 76 f3 ea be 2e 12 0c bd f0 b9 c4 3e bb 13 d6 bd
       -0.4588887 -0.034197025 0.3842311 -0.10452982
000360 7f e1 3f be 8f 5f 0f be ef ef 36 bd 50 e0 b8 bd
       -0.18738364 -0.14001296 -0.044662412 -0.09027159
000370 d9 23 9d bd 6c ac b2 be b5 e5 f7 be 22 1f 2e bf
       -0.07672853 -0.34897172 -0.4841744 -0.68016255
000380 03 72 fd be f7 9f 00 3e ef 05 a7 be 0a 92 4f be
       -0.49501047 0.12561022 -0.32621714 -0.20270553
000390 e6 13 da bd bf 8e 62 be 52 bf c9 be 85 41 77 be
       -0.106483266 -0.22124766 -0.39403778 -0.24146087
0003a0 80 e1 3e be 59 e5 f4 be 2e 14 a4 be 74 c2 72 be
       -0.18640709 -0.47831228 -0.32046646 -0.2370699
0003b0 ff 0f 5d bd 47 0c a7 be 14 86 f8 be a8 7c be be
       -0.053970333 -0.32626554 -0.48539793 -0.3720448
0003c0 15 7a 88 be cc c0 69 be 5e ad a3 be 48 64 35 be
       -0.2665564 -0.22827452 -0.31968206 -0.17714036
0003d0 c2 bb 0b 3f a2 3a 42 be eb b2 05 3e 55 46 a3 bf
       0.5458337 -0.18967679 0.13056533 -1.2755839
0003e0 b1 de aa bc f0 b9 f8 bd 67 4d e8 bd a9 e5 ab be
       -0.02085814 -0.1214484 -0.11342888 -0.33573654
0003f0 d0 6b 97 bd b0 10 05 be 0a 1c 00 be 7d c8 f8 bc
       -0.073936105 -0.12994647 -0.12510696 -0.030369038

map_L5.weight f4 [618, 256]
000000 aa 38 10 40 50 d2 5b c0 0a 0c 9b bf 51 ce 0e 40
       2.2534585 -3.4347115 -1.2113049 2.2313426
000010 c4 b6 9d c0 9e e5 fc 3e ae a9 1a bf 43 4f 2a c0
       -4.9285603 0.49393934 -0.6041516 -2.6610878
000020 0c 94 d9 3d 19 26 c6 39 33 de ac bf 6c 7d 44 bf
       0.10623941 0.00037793888 -1.350531 -0.7675388
000030 2f b3 9d bf 66 43 c2 3f b6 be 00 bf df 35 1d c0
       -1.2320307 1.5176818 -0.50291 -2.456413
000040 07 4b c2 bf 97 54 f1 be e0 fd 58 bf fb fe 40 c0
       -1.5179147 -0.4713485 -0.8476238 -3.0155628
000050 a5 bd ab be a0 28 d0 3f 61 21 68 be 25 2a 0f 40
       -0.33543125 1.6262398 -0.22668983 2.2369473
000060 d9 13 9d 3d 60 9d 3f 40 dd 48 c3 be c0 b4 55 bf
       0.07669801 2.9939804 -0.38141528 -0.8347893
000070 93 f3 cf 3f c9 fc 92 be 5d 22 ac c0 8e 93 f1 3e
       1.6246208 -0.28708485 -5.3791947 0.47182888
000080 60 9f eb bf db 9d 28 3e 68 bb 15 3f b6 5e ec 3e
       -1.8408012 0.16466467 0.58489084 0.4616601
000090 0c dc 3c 3e d0 9f a2 bf ed 61 51 3e d8 08 f0 bf
       0.18443316 -1.2705021 0.20447512 -1.8752699
0000a0 fd 81 a2 3e 99 b5 b3 3f f5 7f 9c 3f 54 fe 5e be
       0.31739798 1.4039794 1.2226549 -0.21776706
0000b0 bf 68 1d 3f ef 58 07 c0 3c 7e 89 40 51 d8 59 bf
       0.61487955 -2.114803 4.2966595 -0.850957
0000c0 3a 85 ef 3f 74 94 67 40 99 2d c1 3f 13 66 ee 3e
       1.8712533 3.6184359 1.509204 0.4656225
0000d0 ea d3 fb bc b8 84 f3 3f 8f 74 b7 3e 40 94 55 bf
       -0.030740697 1.9024878 0.35831115 -0.83429337
0000e0 a1 6a 4d be 81 7a 1b 3f 96 02 56 40 1b bc 51 3d
       -0.20060207 0.607338 3.3439078 0.051204782
0000f0 39 0b 1c 3f 42 33 50 3f 32 64 9c 3e 4a 48 75 3f
       0.60954624 0.81328213 0.30545193 0.9581343
000100 92 d0 b6 3d bb ad 97 3f ae be f3 3e 39 98 f3 3e
       0.089265004 1.1849893 0.47606415 0.47577074
000110 4a a8 a9 bf 73 06 b5 3f e9 32 74 3f 3c 06 9a 3e
       -1.3254483 1.4142593 0.9539018 0.3008288
000120 24 cb 94 3e 43 82 22 40 58 96 84 3e 40 a2 a9 c0
       0.29061234 2.5392005 0.25895953 -5.301056
000130 b7 45 0d bf 40 a0 b8 3e bd b8 12 3f 8a 5f aa bf
       -0.551845 0.3605976 0.5731314 -1.3310406
000140 18 ac 25 40 99 4c c8 bf 6b 56 5a 3e 5e 29 84 be
       2.5886288 -1.5648376 0.21322028 -0.2581281
000150 6d 2d e6 3f 76 91 ce bf 91 c0 f5 bf 72 34 9f 3e
       1.7982613 -1.6138141 -1.9199392 0.310947
000160 bd b5 95 bf cb 80 67 3f a2 79 ed 3f b6 96 f1 3b
       -1.1696087 0.904309 1.8552744 0.0073727025
000170 dc ef 23 bf 7b d4 39 bf 84 fd 19 40 df e7 ae 3f
       -0.6403787 -0.72589844 2.4060984 1.3664511
000180 00 2c ec 3e 5a 85 48 bf d8 31 79 3f ca 80 29 40
       0.4612732 -0.7832848 0.9734168 2.6484857
000190 ff dd 6d be a3 23 f6 40 80 2d aa 3f 55 52 a2 3e
       -0.23229216 7.69185 1.3295135 0.3170344
0001a0 61 a2 ad bf 65 be 1e 3f d7 c1 8e 3d bc 49 81 be
       -1.3565179 0.6200927 0.06970566 -0.25251567
0001b0 7a 45 a7 be a5 70 25 c1 19 46 d9 3f e5 17 dd 3f
       -0.32670194 -10.340001 1.6974517 1.7272917
0001c0 7c e3 af bf 56 ff ca bf a8 95 7a 3f 1a 4d 2f bd
       -1.3741298 -1.5859172 0.9788461 -0.04279814
0001d0 c0 1e 74 be 72 4f 20 3e b4 75 ce be 2e 77 87 bf
       -0.23839855 0.15655306 -0.40324175 -1.0583246
0001e0 0a f7 c0 3e 9a d9 29 c0 44 65 92 c0 26 92 03 3d
       0.37688476 -2.6539063 -4.5748615 0.0321218
0001f0 bc eb 08 bf ac 32 45 3e ad 7e 89 bd 9c f2 54 bf
       -0.534847 0.19257611 -0.067136146 -0.8318269
000200 17 c2 f5 bf 8d e4 5c 3f 7e 32 62 40 a6 65 f8 bf
       -1.9199857 0.8628624 3.5343318 -1.9406021
000210 86 bf 19 be ec 8a 9b 3e 42 84 64 3f 13 49 fb 3f
       -0.15014467 0.30379426 0.8926431 1.9631675
000220 dd ae 29 3f 70 eb a2 bf b8 b8 11 c0 42 8a 85 3e
       0.66282445 -1.27281 -2.2768993 0.26082045
000230 0b 1e 62 3d 05 16 82 bf 8c 19 01 bf ce d0 05 be
       0.055204432 -1.016297 -0.50429606 -0.13067934
000240 5e 29 aa 3d 9c 47 46 c0 36 98 2b 3f 77 31 d2 3f
       0.083086714 -3.0981207 0.6702913 1.6421345
000250 93 4c 3f 3f 42 7c f0 3e 7d 3e da be f4 10 2a 40
       0.7472622 0.469698 -0.426258 2.6572847
000260 f4 53 00 3f 3b f6 71 c0 ff 2b 54 c0 83 c5 5f 3e
       0.501281 -3.7806537 -3.3151853 0.21852688
000270 5f e6 cb bf f6 f0 51 bf 97 16 82 bf 26 5d 48 c0
       -1.5929679 -0.820083 -1.0163144 -3.1306853
000280 c7 01 b9 be 4c a7 a4 40 12 e4 10 bf 47 f1 3b bf
       -0.36134169 5.145422 -0.5659801 -0.73415035
000290 43 ff fd bc 68 60 17 c1 fa cd fa 3e 03 49 69 3f
       -0.031005507 -9.461037 0.48985273 0.9112703
0002a0 19 c4 01 40 9d 45 d3 bf 58 3b 16 3f 92 c7 a5 3f
       2.0275939 -1.6505619 0.586843 1.2951529
0002b0 68 62 de 3f 7e e4 8f c0 b6 8a 47 40 22 82 23 40
       1.7373781 -4.496642 3.1178412 2.5548177
0002c0 fa 65 05 40 ef bc c4 3e 63 1a 3b bd ad b3 09 3f
       2.0843492 0.38425395 -0.04567946 0.5378979
0002d0 88 b5 b6 be 19 3e 9b bf 8a e5 9f 3f c7 31 6f 3f
       -0.35685372 -1.2128326 1.2491925 0.9343533
0002e0 81 2f eb be fe 2b 0f bc 11 51 d3 40 65 d8 62 3e
       -0.4593468 -0.008738516 6.603646 0.2215286
0002f0 9a 2a cb 3f df 87 d6 be 4e 24 f8 3c 5a 4a 32 40
       1.5872376 -0.41900536 0.030290749 2.785788
000300 3e 33 98 be 8b e8 3d c0 18 57 1f c0 52 d2 a8 be
       -0.29726595 -2.9673183 -2.4896908 -0.32972962
000310 ac 59 24 3f 24 81 9a 3e b1 85 ef be ce 74 ad bf
       0.6419933 0.3017665 -0.46781686 -1.3551271
000320 bf 4a 28 bd 19 0b be 3f 39 fd 3c be 2c b4 4a c0
       -0.04108691 1.4847137 -0.18455972 -3.1672468
000330 3f e2 0c 3f 8f 74 0b c1 dc 0f 0d c0 a7 38 43 3f
       0.55032724 -8.715957 -2.204093 0.7625832
000340 5c c8 4f bf 2e 14 ec 3f 90 59 e3 3e 69 a3 a3 3e
       -0.811651 1.8443658 0.44404268 0.3196061
000350 45 cd ae 40 04 7a 8f bf 23 cc f3 bf 17 57 ce 3f
       5.4625573 -1.1209111 -1.9046673 1.6120328
000360 0e a6 2a 3f b0 e0 41 40 29 f0 a1 bf fd fd b7 be
       0.6665963 3.0293388 -1.2651416 -0.35935965
000370 af 2e a6 3d 93 df 93 3f 51 82 a2 3f 5c d7 9f 40
       0.08114373 1.1552604 1.269602 4.995039
000380 30 bc 72 3e b8 28 a4 3c 9c f0 04 3f 32 b0 6f 3f
       0.237046 0.020038947 0.5192964 0.9362823
000390 ba 83 d7 bd 32 58 6b 3d 6b 3d 79 be 35 24 b3 3f
       -0.10523172 0.057457156 -0.24339835 1.3995425
0003a0 76 0b a8 3e ee 0a 54 40 67 d2 b3 3d 7d 56 9f bc
       0.32821244 3.313167 0.087803654 -0.01945042
0003b0 46 21 6c c0 1d 82 22 40 d8 a8 96 be 88 36 5e 3f
       -3.6895308 2.5391915 -0.29425693 0.8680196
0003c0 90 e5 3f 3f 05 a9 fe bf 08 1d 5b 3f 83 8f 2a bf
       0.7495966 -1.9895331 0.85591173 -0.6662523
0003d0 69 7b 75 c0 33 1e fb 3f 1c 5f 70 3e 38 29 14 bf
       -3.8356574 1.9618591 0.23473781 -0.57875395
0003e0 c2 b9 b3 3f ae cb 24 c0 7d a7 cb 3f 92 44 30 c0
       1.4041064 -2.5749316 1.5910488 -2.7541852
0003f0 65 e3 f9 be c8 84 bf 3f 5a 99 f0 3e bd 7e 62 3f
       -0.488063 1.4962397 0.46991998 0.8847464

map_L5.bias f4 [618]
000000 3f d8 44 c1 f4 6b 4a c1 ff 7a 3e c1 fb 14 3f c1
       -12.302794 -12.651356 -11.905028 -11.942622
000010 78 7a 10 3f 3c 0f c9 c0 4c a4 71 c0 ad 27 30 c1
       0.5643687 -6.2831097 -3.775653 -11.009686
000020 8c 51 e9 bf 90 2d a2 c0 fc d8 03 c1 71 e3 70 c0
       -1.8228011 -5.068062 -8.240475 -3.763882
000030 57 99 31 c1 25 0a 78 c0 48 1a 2c c1 f5 9c 8a c0
       -11.0999365 -3.8756192 -10.756416 -4.33166
000040 cc 1b 48 c1 5e f7 4e c1 e5 e4 4a c1 09 8d 34 c1
       -12.506786 -12.935392 -12.680882 -11.284432
000050 04 ed 4d c1 d2 ec 43 c1 62 6c 3c c1 97 31 50 c1
       -12.870365 -12.245317 -11.776461 -13.012107
000060 69 70 45 c1 4a 68 4f c1 de 13 33 c1 70 a9 44 c1
       -12.339944 -12.962961 -11.19235 -12.291367
000070 a0 e7 3f c1 78 b6 3d c1 a2 6f 40 c1 90 41 43 c1
       -11.994049 -11.857048 -12.027254 -12.203506
000080 a8 86 40 c1 72 4c 37 c1 7e 69 3f c1 2e cb 3c c1
       -12.032875 -11.456163 -11.963255 -11.799604
000090 aa 76 4a c1 58 0a 4e c1 42 43 56 c1 ed b9 40 c1
       -12.653971 -12.877525 -13.39142 -12.045392
0000a0 84 d7 49 c1 21 9f 3e c1 58 82 3e c1 71 8b 2c c1
       -12.615116 -11.91385 -11.906822 -10.784043
0000b0 cb 42 3c c1 d0 6b 4a c1 54 a2 3e c1 b9 fd 45 c1
       -11.766307 -12.651321 -11.914631 -12.374444
0000c0 b3 38 3b c1 6b 9a 49 c1 6e 48 39 c1 87 b5 43 c1
       -11.701343 -12.6002 -11.580183 -12.231818
0000d0 d9 03 39 c1 a6 65 4d c1 53 1c 43 c1 e6 ab 4d c1
       -11.563439 -12.8373165 -12.194415 -12.854467
0000e0 f2 2d 32 c1 11 23 42 c1 b6 36 44 c1 16 cb 30 c1
       -11.136217 -12.133561 -12.263357 -11.049582
0000f0 ac 31 3e c1 5e 59 2c c1 6f a1 42 c1 ca 77 4b c1
       -11.887127 -10.771818 -12.1644125 -12.716745
000100 fd 6d 43 c1 57 fb 38 c1 7f aa 27 c1 f5 a2 27 c1
       -12.214353 -11.561362 -10.479125 -10.477284
000110 ef 7b 43 c1 bf 28 33 c1 a2 33 38 c1 8f 37 46 c1
       -12.217757 -11.197448 -11.512606 -12.388564
000120 3e f1 43 c1 0f 6a 41 c1 69 ac 49 c1 0f 29 2f c1
       -12.246397 -12.088393 -12.604592 -10.947524
000130 fa 5e 48 c1 9c 87 42 c1 5c 87 5e c1 32 2d 40 c1
       -12.523188 -12.158108 -13.908047 -12.011034
000140 5e e6 33 c1 11 6a 30 c1 c9 d2 44 c1 16 72 47 c0
       -11.243742 -11.025895 -12.301461 -3.1163383
000150 34 01 3e c0 2d 04 49 c0 d9 5c 47 c0 6e b4 3a c0
       -2.9688234 -3.1408799 -3.115042 -2.9172626
000160 a5 37 44 c0 14 dd 3f c0 a7 6e 47 c0 23 d3 3f c0
       -3.0658963 -2.9978685 -3.1161287 -2.9972618
000170 33 2c 3e c0 6d 0c 3d c1 e4 2a a5 c0 87 55 82 c0
       -2.9714477 -11.815534 -5.1614857 -4.0729403
000180 e2 1c 5e c0 8e 8c 54 c0 f3 cf 86 c0 92 95 62 c0
       -3.4705129 -3.3210788 -4.2128844 -3.540379
000190 ab d8 84 c0 d2 c3 54 c0 38 63 83 c0 60 ae 45 c0
       -4.1514487 -3.324452 -4.1058617 -3.088768
0001a0 bf d7 4e c0 06 e1 7a c0 7b 07 83 c0 fd 57 57 c0
       -3.231918 -3.9199843 -4.094663 -3.3647454
0001b0 01 99 54 c0 9a 74 51 c0 23 08 81 c0 c8 81 81 c0
       -3.3218386 -3.2727418 -4.0322433 -4.0470924
0001c0 85 ba 77 c0 c6 f8 36 c0 1d 58 a0 c0 34 e8 3c c0
       -3.8707592 -2.858934 -5.010756 -2.9516726
0001d0 b4 a3 39 c0 2e 4a 9a c0 34 89 37 c0 1d 16 99 c0
       -2.9006166 -4.821555 -2.8677492 -4.7839494
0001e0 08 1b 29 c0 aa dc 92 c0 cc 4f 3f c0 fc d4 ad c0
       -2.6422749 -4.5894365 -2.9892454 -5.432249
0001f0 c2 b1 9c c0 3e 16 9b c0 36 de a7 c0 49 70 9b c0
       -4.896699 -4.846465 -5.2458754 -4.8574567
000200 ee 55 92 c0 af ff 87 c0 b5 90 82 c0 b5 31 9d c0
       -4.5729895 -4.2499614 -4.0801644 -4.9123178
000210 f0 d6 93 c0 b0 11 8d c0 6c 37 92 c0 a5 b8 96 c0
       -4.6199875 -4.408409 -4.5692654 -4.7100396
000220 a0 c5 98 c0 6f e5 a7 c0 8d a2 ba c0 fa f3 8d c0
       -4.774124 -5.246757 -5.8323426 -4.4360323
000230 35 5d b4 c0 cc 67 c9 c0 1e b2 bf c0 b7 dd dc c0
       -5.636378 -6.2939205 -5.990493 -6.902065
000240 4f da 78 c0 ac 6b 55 c0 01 06 4c c0 21 7a 62 c0
       -3.8883245 -3.3346968 -3.1878664 -3.5387042
000250 3d 80 ba c0 1a 71 98 c0 64 59 b2 c0 48 88 bc c0
       -5.828154 -4.7638063 -5.573412 -5.891636
000260 e4 8d 55 c0 ac b4 a3 c0 47 07 a0 bf b4 2a 90 c0
       -3.3367853 -5.1158047 -1.2502221 -4.505213
000270 65 53 bb bf d4 b4 80 c0 26 48 8b c0 42 67 d0 bf
       -1.4634825 -4.0220737 -4.352557 -1.6281512
000280 61 2b 7c c0 11 c5 3d c0 96 71 83 c0 2d 36 77 c0
       -3.9401476 -2.965153 -4.1076155 -3.8626816
000290 90 a7 5a c0 5f b1 73 c0 55 82 66 c0 c4 82 79 c0
       -3.4164772 -3.8077009 -3.6017048 -3.8986063
0002a0 e2 f8 6d c0 e2 7c 68 c0 f5 cc 83 c0 4e 25 7e c0
       -3.7183156 -3.6326222 -4.118769 -3.971027
0002b0 e0 5d 5d c0 dd 49 44 c1 67 d2 3f c1 65 c7 40 c1
       -3.4588547 -12.268033 -11.988868 -12.04868
0002c0 a7 b7 2a c1 af 80 45 c1 90 7d 49 c1 46 c2 4d c1
       -10.669837 -12.343917 -12.593155 -12.85993
0002d0 2f 5b 3f c1 9c a8 42 c1 2e 2c 45 c1 76 ad 49 c1
       -11.959762 -12.166164 -12.323286 -12.604849
0002e0 b9 56 2f c1 a5 35 4d c1 4c 16 40 c1 4d 6d 34 c1
       -10.958673 -12.825597 -12.005444 -11.276685
0002f0 fb 95 3f c1 06 93 43 c1 dd 2f 32 c1 c3 4a 49 c1
       -11.974116 -12.223394 -11.136685 -12.580752
000300 2a ea 4d c1 7b 40 3e c1 6d 23 56 c1 82 c2 38 c1
       -12.869669 -11.890742 -13.383649 -11.547487
000310 de 14 50 c1 79 f2 2c c1 3c 3e 47 c1 a1 4d 3d c1
       -13.005095 -10.809197 -12.452694 -11.831452
000320 80 67 4a c1 7c 37 45 c1 b6 11 33 c1 27 93 2c c1
       -12.650269 -12.326046 -11.191824 -10.785926
000330 34 25 41 c1 0e 34 43 c1 10 54 3c c1 1f 5f 47 c1
       -12.071583 -12.200209 -11.770523 -12.460723
000340 a2 ab 38 c1 d4 64 5e c1 b0 ef 38 c1 46 5f 39 c1
       -11.541903 -13.899616 -11.558517 -11.58576
000350 1d 28 45 c1 d1 2f 49 c1 30 c9 48 c1 65 fb 32 c1
       -12.322293 -12.574174 -12.549118 -11.186376
000360 29 c2 3e c1 0d 8f 3f c1 d4 b3 41 c1 45 c8 49 c1
       -11.922402 -11.9724245 -12.106403 -12.611394
000370 12 0e 30 c1 dd 66 3f c1 be 82 42 c1 cf a2 3c c1
       -11.003435 -11.962613 -12.1569195 -11.789748
000380 d4 20 3b c1 70 05 3f c1 cc 4c 4e c1 e0 ae 48 c1
       -11.695515 -11.9388275 -12.893749 -12.542694
000390 39 de 43 c1 5a 30 26 c1 89 bc 42 c1 66 a6 4e c1
       -12.241754 -10.386805 -12.171029 -12.915625
0003a0 e8 1f 43 c1 76 0e 4c c1 70 e7 4d c1 03 8e 43 c1
       -12.19529 -12.7535305 -12.869003 -12.222171
0003b0 83 bf c4 bf e6 d1 32 c1 29 ac b5 c0 ea 4a da be
       -1.5370945 -11.176245 -5.6772656 -0.4263528
0003c0 02 6a 4e c1 e9 af 49 c1 cb b5 3e c1 16 5b 36 c1
       -12.900881 -12.605447 -11.919383 -11.397238
0003d0 34 db 45 c1 12 da 56 c1 b0 1c 33 c1 bf 4c 48 c1
       -12.366016 -13.42824 -11.194504 -12.518737
0003e0 f1 10 4e c1 0a 0c 45 c1 14 eb 2b c1 26 13 43 c1
       -12.879136 -12.315439 -10.744892 -12.192175
0003f0 5b 60 44 c1 3a 92 50 c1 2f b9 39 c1 0c 84 4b c1
       -12.273524 -13.0357 -11.607711 -12.719738
