models_VAEGAN_batch128/ep_2000_discriminator_model.pth (torch_old, 21281 bytes, 7 tensors)

map_L1.weight f4 [256, 2]
0	0xbdf69f2a	-0.12042077
1	0xbe2da15a	-0.16956082
2	0x3e182f53	0.14861803
3	0x3e42d324	0.19025856
4	0xbdfc5a1f	-0.12321877
5	0x3cf68ceb	0.030096492
6	0xbe11a9ff	-0.14225005
7	0x3e5c3d68	0.215078
8	0xbe29ef7c	-0.16595262
9	0x3eae7c56	0.34079236
10	0xbdae0a1a	-0.084980205
11	0xbe23e881	-0.16006662
12	0x3dfe2e29	0.12411148
13	0x3e22f959	0.15915431
14	0xbd9ac148	-0.07556397
15	0xbe100ff4	-0.14068586
16	0xbdbf5316	-0.09342019
17	0x3e861d17	0.2619407
18	0xbe948a5e	-0.29011816
19	0x3dac0a5b	0.08400413
20	0xbe21cf80	-0.15801811
21	0xbe602a6c	-0.21891183
22	0xbe9900ea	-0.2988351
23	0xbc587b87	-0.013213045
24	0x3c13945c	0.00900754
25	0x3e549faa	0.20764032
26	0x3de99e07	0.114070944
27	0x3e28b0e7	0.16473733
28	0xbe2a5107	-0.16632472
29	0x3e58d24e	0.21173975
30	0xbe3d33a1	-0.18476726
31	0xbe715039	-0.23565759
32	0x3d97ca87	0.07411676
33	0xbc418fdd	-0.011814085
34	0xbe8c7eea	-0.27440578
35	0x3d9a64a3	0.07538726
36	0xbd928c54	-0.07155672
37	0x3e13fb88	0.1445142
38	0xbd45b47b	-0.048267823
39	0x3d132712	0.035925932
40	0x3e767616	0.24068484
41	0xbd84f953	-0.06492867
42	0xbe15c9e6	-0.146278
43	0xbd48e812	-0.049049444
44	0xbe8e54d9	-0.2779911
45	0x3dcd63b4	0.100287825
46	0xbeaa484a	-0.33258277
47	0xbd8b9959	-0.06816358
48	0xbe254222	-0.16138509
49	0x3dcadd60	0.09905505
50	0xbc4743b7	-0.012162141
51	0x3d5c2bd3	0.05375273
52	0xbe33588c	-0.17514247
53	0xbd2b9943	-0.04189421
54	0xbe27276f	-0.16323636
55	0x3e165258	0.14679849
56	0x3d129060	0.035782218
57	0xbda93e11	-0.08263791
58	0x3d876819	0.06611652
59	0x3cf636d9	0.03005545
60	0x3e09d1a6	0.13458881
61	0x3e267595	0.16255791
62	0x3d1376d1	0.036001984
63	0xbe6a713f	-0.22894762
64	0xbe37cd24	-0.17949349
65	0xbe2f3d36	-0.17113194
66	0xbde42bdc	-0.11141178
67	0xbe5e6915	-0.21719773
68	0xbc444706	-0.011979824
69	0xbe92eb17	-0.28694984
70	0xbdb31e2b	-0.087459885
71	0x3ce8e14c	0.028427742
72	0xbe3b97dd	-0.1831965
73	0x3e904e86	0.2818491
74	0xbc91ebb5	-0.01781259
75	0xbd82f456	-0.0639426
76	0xbdc6f380	-0.09714413
77	0xbd2d6086	-0.04232838
78	0x3e1c70bd	0.15277381
79	0x3d26a04d	0.04068022
80	0xbd654d34	-0.05598183
81	0xbe4404e1	-0.19142486
82	0xbdfdab62	-0.12386204
83	0xbdbc1af8	-0.091848314
84	0x3d5f1eeb	0.054472845
85	0xbde52c79	-0.11190123
86	0xbe1e6993	-0.15469961
87	0x3e079bc1	0.13243009
88	0x3e6eb4fe	0.2331123
89	0xbdad3fc9	-0.08459432
90	0xbd921e9b	-0.07134744
91	0x3e08ac85	0.13347061
92	0x3e2caa17	0.16861759
93	0x3d296a33	0.041361045
94	0xbe06ef99	-0.13177337
95	0xbdcb0ed1	-0.099149354
96	0x3e4f5f99	0.20251311
97	0xbe042f12	-0.12908581
98	0x3d9d1b30	0.07671201
99	0x3e246ca5	0.1605707
100	0xbe7fd4f4	-0.24983579
101	0xbe6059e3	-0.21909289
102	0x3d871637	0.06596034
103	0x3d210529	0.03931156
104	0x3e20898f	0.15677474
105	0xbd30f3b0	-0.04320115
106	0xbe1ff974	-0.15622503
107	0xbddc603a	-0.10760541
108	0x3e834f84	0.25646603
109	0xbe00eb6d	-0.12589808
110	0xbe00102a	-0.12506166
111	0x3dbe936b	0.093054615
112	0x3e14993b	0.14511578
113	0xbe45365e	-0.1925902
114	0x3e61f5c3	0.22066407
115	0xbdb5952e	-0.088663444
116	0xbc278940	-0.010225594
117	0x3e5d6c89	0.21623434
118	0x3dba0d8c	0.09084615
119	0xbd9d4a35	-0.076801695
120	0x3dc230ed	0.09481988
121	0x3d675901	0.056481365
122	0x3e55762f	0.20845865
123	0xbe63ad1e	-0.22234008
124	0xbe063506	-0.13106164
125	0xbdf0d772	-0.11759843
126	0x3e3850f4	0.17999631
127	0x3d4b5dca	0.04964999
128	0x3e2d53d3	0.16926508
129	0xbd74a0ef	-0.05972379
130	0x3dbc36ff	0.09190177
131	0x3df2d58a	0.118571356
132	0xbec2b267	-0.38026735
133	0xbdbd6a27	-0.092487626
134	0xbdc0a3a7	-0.09406214
135	0xbded6c79	-0.11592955
136	0x3cdb51f9	0.026772486
137	0x3c1121c5	0.008858149
138	0xbdc7dda9	-0.09759075
139	0x3e0fe81c	0.14053386
140	0x3debf012	0.11520399
141	0x3e21e946	0.15811643
142	0xbdbff7f8	-0.09373468
143	0xbd998f90	-0.074980855
144	0xbe0b1e7a	-0.13585845
145	0xbe27ba8a	-0.16379753
146	0x3d3635b9	0.044484828
147	0x3d575168	0.05256787
148	0xbdce873c	-0.10084388
149	0x3d96e2c1	0.073674686
150	0xbcb8cf0a	-0.022559661
151	0xbe2949f2	-0.16532114
152	0xbd941bbc	-0.072318524
153	0x3d36936a	0.04457418
154	0xbdc5a727	-0.096510224
155	0xbe1e867b	-0.15480988
156	0xba809b04	-0.0009811823
157	0xbeb233ec	-0.34805238
158	0x3c42016b	0.011841158
159	0x3d5b2ade	0.05350768
160	0xbe371056	-0.17877325
161	0x3d1eaf94	0.038741663
162	0xbe0adce7	-0.1356083
163	0xbe1933f7	-0.1496123
164	0xbe1f3046	-0.15545759
165	0x3d69484b	0.05695371
166	0xbdc2fc14	-0.09520736
167	0xbe31edef	-0.1737592
168	0xbd88e63d	-0.066845395
169	0xbceaed88	-0.028677717
170	0x3bc5da84	0.006038012
171	0x3e3cbf08	0.18432248
172	0xbe0495ce	-0.12947771
173	0x3de6df84	0.11273101
174	0x3e809720	0.251153
175	0xbda82a38	-0.082111776
176	0x3e8ab8db	0.2709416
177	0xbdac6aee	-0.08418833
178	0xbdb51d95	-0.08843533
179	0x3e2f6970	0.17130065
180	0x3ced135e	0.028939899
181	0x3dc8923c	0.09793517
182	0xbe1a3ec2	-0.15063003
183	0x3d443fec	0.047912523
184	0x3e7566ee	0.23965046
185	0xbe284f97	-0.16436611
186	0x3df0e7f6	0.11762993
187	0xbcf3f522	-0.029779974
188	0x3e0c577b	0.13705246
189	0x3d9dbf1a	0.07702465
190	0xbe8b6638	-0.27226424
191	0x3db4f3e2	0.088355795
192	0x3e5d51e0	0.21613264
193	0xbdd8ce1e	-0.10586189
194	0xbdd3a705	-0.10334591
195	0x3e1e1000	0.15435791
196	0xbe0e1a59	-0.13877238
197	0x3e6393e3	0.22224383
198	0xbe29db24	-0.16587502
199	0x3cded828	0.02720268
200	0xbe6b26a2	-0.22963956
201	0xbe8ac4bb	-0.27103218
202	0x3d917223	0.07101848
203	0xbd6a4ccd	-0.05720215
204	0x3b3d5d12	0.0028894586
205	0x3d1cd747	0.038291242
206	0xbd2b74bd	-0.041859377
207	0x3d2691a6	0.040666245
208	0xbe0e8960	-0.13919592
209	0x3e793d9a	0.24339905
210	0x3e166a9f	0.1468911
211	0x3e22ffb1	0.15917851
212	0xbc4d0044	-0.01251227
213	0x3b95e8d0	0.0045748726
214	0x3d806689	0.06269557
215	0x3de2c3bd	0.1107249
216	0xbe50ed20	-0.20402956
217	0xbd465779	-0.048423264
218	0x3e56e3dd	0.2098536
219	0x3daee751	0.08540214
220	0x3e3151aa	0.17316309
221	0xbd8928e6	-0.06697254
222	0x3e214a00	0.15750885
223	0x3e5afee4	0.21386296
224	0xbdb571c5	-0.088595904
225	0x3e64c43b	0.22340481
226	0x3d3af3d5	0.045642693
227	0x3dd10528	0.102060616
228	0xbd9648df	-0.07338118
229	0xbe5bf47e	-0.21479985
230	0xbe1b8bed	-0.15190096
231	0x3de55208	0.11197287
232	0xbbe4d1de	-0.006983026
233	0xbd063dcb	-0.032773774
234	0x3e117659	0.14205302
235	0x3dd9e382	0.10639097
236	0x3ca3d2fb	0.019998064
237	0xbdf6223e	-0.1201825
238	0xbe86b5fe	-0.26310724
239	0xbd83f585	-0.064433135
240	0x3a890208	0.0010452876
241	0xbcb5f4a0	-0.022211373
242	0xbe1c5234	-0.15265733
243	0x3d92130b	0.071325384
244	0xbdc9c031	-0.09851111
245	0xbd2bfe3d	-0.041990507
246	0x3e7f12ba	0.24909487
247	0xbeb99a8d	-0.36250725
248	0x3dfbcb56	0.122946426
249	0xbda2d669	-0.07951052
250	0xbe64ac35	-0.22331317
251	0x3e34ad2c	0.17644185
252	0x3d63dd47	0.05563095
253	0x3da3cf6e	0.079985484
254	0xbd75b885	-0.059990425
255	0x3d45c8cc	0.048287198

map_L1.bias f4 [256]
0	0x3d84ceff	0.06484794
1	0xbe0c479a	-0.13699189
2	0xbc846229	-0.016160088
3	0xb7da0580	-2.5990186e-05
4	0xbd85d101	-0.06534005
5	0x3c53c70c	0.012925874
6	0xbde68a59	-0.112568565
7	0xbd1e6013	-0.038665842
8	0x3c6b22ff	0.014351605
9	0x3d884c11	0.066551335
10	0x3e188542	0.14894584
11	0x3d43d597	0.047811117
12	0xbdf881cc	-0.12134132
13	0xbdde0213	-0.108402394
14	0x3d9c3900	0.076280594
15	0x3dae784c	0.085190386
16	0x3e572c4b	0.2101299
17	0x3d53280e	0.05155187
18	0xbcb5df9b	-0.02220135
19	0xbd84dc58	-0.0648734
20	0xbd3a0982	-0.045419224
21	0x3d5e9703	0.054343235
22	0x3d2b4a6b	0.041819017
23	0x3db44e9a	0.088040546
24	0xbd2ba87c	-0.041908726
25	0x3d1d3d20	0.03838837
26	0x3d438e4d	0.04774313
27	0xbd6f242d	-0.05838411
28	0xbd0544f2	-0.032536454
29	0x3dc2c349	0.09509904
30	0xbd78252b	-0.06058232
31	0x3cdf0ec6	0.027228724
32	0x3d9665d2	0.073436394
33	0x3d823947	0.06358581
34	0x3d720b9b	0.0590931
35	0x3e142094	0.14465553
36	0x3b7d5f65	0.0038661596
37	0xba883618	-0.0010392098
38	0xbc167503	-0.009183171
39	0x3d46ecb0	0.048565567
40	0x3d3917f2	0.04518885
41	0x3d9ff03a	0.078094915
42	0x3ddf38c3	0.10899498
43	0xbcf18ccb	-0.02948608
44	0xbcdfc619	-0.02731614
45	0xbc0644e9	-0.00819514
46	0xbdff4fd1	-0.12466396
47	0x3cf9c272	0.030488227
48	0xbdc83b5c	-0.09776947
49	0xbda0e34b	-0.07855853
50	0x3de10324	0.10986927
51	0xbcaf2fa6	-0.021385025
52	0xbcf20bad	-0.029546583
53	0x3d69d1d3	0.05708487
54	0xbe2097bc	-0.15682882
55	0x3c4d0b9a	0.012514973
56	0xbc9cc398	-0.019136235
57	0xbe118eb3	-0.14214592
58	0xbde72dd1	-0.11288036
59	0xbdd866b6	-0.105664656
60	0xbcb99da2	-0.022658173
61	0xbd38accf	-0.045086678
62	0x3d4cc9ed	0.04999726
63	0xbd4b13f4	-0.049579576
64	0xbde14b9a	-0.11000748
65	0xbd2e0c82	-0.042492397
66	0x3ddf912d	0.10916362
67	0x3dac2342	0.084051624
68	0x3d1c7062	0.038193114
69	0x3d335e84	0.04379131
70	0xbde33d94	-0.110957295
71	0xbca37106	-0.019951355
72	0xbd5f0486	-0.054447673
73	0xbd8b666d	-0.068066455
74	0x3df76568	0.120798886
75	0x3c67a039	0.014137321
76	0xbda2ebd0	-0.07955134
77	0x3d4b5a82	0.04964686
78	0x3d7e9be8	0.062160403
79	0x3dd63d97	0.10460966
80	0xbbaf48d3	-0.0053492575
81	0x3d74fa22	0.059808858
82	0x3e6fa537	0.23402868
83	0x3cf741ec	0.030182801
84	0x3cba7a42	0.022763375
85	0xbd2ab20a	-0.041673698
86	0xbcd127d4	-0.025531687
87	0xbe257eb2	-0.16161612
88	0xbd5c5a6f	-0.05379718
89	0x3ce292ee	0.027657952
90	0x3df28c2e	0.118431434
91	0x3e08b9cb	0.13352124
92	0xbcda4bd8	-0.026647493
93	0xbcb9f6b7	-0.02270065
94	0xbc9f985b	-0.019481828
95	0x3d5b2637	0.05350324
96	0xbdfdd2d1	-0.12393726
97	0x3d2f24d5	0.042759735
98	0xbc7f9dc9	-0.015601584
99	0x3a266a29	0.00063482166
100	0x3dd1702c	0.10226473
101	0x3d773648	0.0603545
102	0x3e289b41	0.16465475
103	0xbda76b12	-0.08174719
104	0xbc4f3e05	-0.012649064
105	0xbd756e1c	-0.05991946
106	0xbdff8d1c	-0.12478086
107	0xbd00e9b0	-0.03147286
108	0x3d639549	0.05556229
109	0xbd802387	-0.06256776
110	0xbd1b2b82	-0.03788329
111	0xbe1730a1	-0.14764644
112	0xbd58e1ea	-0.052949823
113	0xbc2600be	-0.010132013
114	0x3d5af60e	0.053457312
115	0x3e55e2b2	0.20887259
116	0x3de0a6da	0.109693244
117	0xbd5a8f01	-0.053359035
118	0xbd15151d	-0.03639709
119	0x3d9b67f6	0.07588188
120	0x3e1a9549	0.1509601
121	0x3cbc88c5	0.023014436
122	0xbc56724e	-0.013088776
123	0x3ad0aa2c	0.0015919856
124	0x3da8071c	0.08204481
125	0xbcefee51	-0.029288443
126	0xbccd93d7	-0.02509491
127	0x3dc90fbe	0.09817456
128	0xbd55fad0	-0.052241147
129	0xbd651039	-0.055923674
130	0xbe01d7ab	-0.12679927
131	0xbcb789d9	-0.022404598
132	0x3d49d5d5	0.04927619
133	0xbdde2f96	-0.1084892
134	0xbd0471e3	-0.032335173
135	0x3be61d1b	0.0070225126
136	0xbcc5b42a	-0.02413376
137	0x3d090e56	0.033460937
138	0xbd15d986	-0.0365844
139	0x3c503d64	0.012709949
140	0x3d1e6844	0.038673654
141	0xbe0f4a35	-0.13993151
142	0x3d168beb	0.03675453
143	0xbda83919	-0.082140155
144	0x3d7a4a5b	0.061106067
145	0xbd1e0c1a	-0.03858576
146	0xbc484b29	-0.012224951
147	0x3ce6aed8	0.028159544
148	0xbd81f3ab	-0.06345304
149	0x3cbb9488	0.022897974
150	0x3e0f42e2	0.13990358
151	0xbe0e86b2	-0.1391857
152	0xbdd80e28	-0.10549575
153	0xbdf746ed	-0.12074075
154	0xbd89bb86	-0.067252204
155	0xbcf29319	-0.029611157
156	0xbca66578	-0.020312056
157	0xbd18a2b3	-0.037264537
158	0x3d1ce32a	0.038302578
159	0xbd6e76f3	-0.058218908
160	0x3e632f29	0.22185959
161	0xbd9cff06	-0.07665829
162	0x3a80d217	0.0009828237
163	0x3d479476	0.048725568
164	0x3dea2b77	0.114340715
165	0xbc95cacf	-0.018285183
166	0x3d0154b8	0.031574935
167	0xbc304c8f	-0.0107604405
168	0x3be524d1	0.0069929142
169	0xbc4d5862	-0.012533279
170	0xbd776106	-0.060395263
171	0xbc4081e3	-0.011749717
172	0xbb75a8ad	-0.0037484572
173	0x3e30ac6d	0.17253275
174	0x3d0d0212	0.034425803
175	0x3d91fbbe	0.07128094
176	0x3d357fa8	0.044311196
177	0xbde4efe2	-0.111785665
178	0x3dca764d	0.09885845
179	0xbd44826b	-0.04797594
180	0x3e0a9b2d	0.13535757
181	0x3c9f1af1	0.019422026
182	0x3d4a50e4	0.04939355
183	0xbd25c5e9	-0.040471945
184	0xb98e6a38	-0.0002716349
185	0xba41202f	-0.00073671615
186	0xbe1676ce	-0.14693758
187	0xbc07277c	-0.00824916
188	0xbe0bdc0a	-0.13658157
189	0xbd38a0de	-0.04507529
190	0xbd98bbf4	-0.07457724
191	0x3dd0affd	0.10189817
192	0xbc47da30	-0.012198016
193	0x3dc6bbd2	0.09703793
194	0xbd21fc76	-0.039547406
195	0x3d5ae0af	0.05343693
196	0x3e153fc7	0.1457511
197	0xbd409804	-0.047019973
198	0x3de9fd3e	0.11425255
199	0x3db01938	0.0859856
200	0x3e0fe082	0.14050487
201	0x3d70d30f	0.05879503
202	0x3ac51382	0.0015035721
203	0xbd55d997	-0.052209463
204	0x3d48aa77	0.048990693
205	0x3d0c4a4f	0.034250554
206	0xbd408e02	-0.04701043
207	0xbdcc8c76	-0.09987728
208	0xbd0ebde1	-0.03484905
209	0x3d76e142	0.060273416
210	0x3d0d4d1a	0.034497358
211	0x3dc02e65	0.09383849
212	0x3c7fad4f	0.015605285
213	0xbd12c582	-0.03583289
214	0x3cdc1e0f	0.026869802
215	0x3d84aaa1	0.064778574
216	0x3cf8a62d	0.030352676
217	0x3d7bd1a9	0.061479244
218	0xbe1db4a2	-0.15400937
219	0x3adbb1ce	0.0016761364
220	0x3d481098	0.04884395
221	0xbd5ff0e7	-0.0546731
222	0x3cc61397	0.024179263
223	0x3d8aa1ae	0.06769119
224	0xbd6e1ca3	-0.05813278
225	0xbdbc9e3b	-0.092098676
226	0x3e3efcac	0.18651074
227	0xbb2d8df1	-0.0026482309
228	0x3d7e29b4	0.06205149
229	0x3ce64b0f	0.028111963
230	0x3d322056	0.04348787
231	0xbd96fd87	-0.07372575
232	0x3d1959d8	0.037439197
233	0x3dc49401	0.09598542
234	0x3da70e16	0.081569836
235	0x3ca473eb	0.020074805
236	0xbd84e9c3	-0.06489899
237	0xbd2e1380	-0.042499065
238	0xbd19b874	-0.037529424
239	0x3d875e5d	0.06609795
240	0x3d289474	0.0411572
241	0xbd3a264a	-0.04544667
242	0x3cdb6022	0.026779238
243	0x3dfb7327	0.12277823
244	0x3d990884	0.07472327
245	0xbc518e14	-0.012790222
246	0xbe33211a	-0.17493096
247	0x3c0c21ef	0.008553012
248	0xbcab4853	-0.02090851
249	0x3daa905e	0.08328317
250	0xbd90f88b	-0.07078656
251	0xbd280ecc	-0.041029736
252	0xbd4b34e9	-0.049611006
253	0x3c3e5aaa	0.011618296
254	0x3da26943	0.07930233
255	0xbd376452	-0.044773407

map_L2.weight f4 [16, 256]
0	0xbe1facb3	-0.15593223
1	0x3de134ce	0.109964
2	0x3d29b3ca	0.041431226
3	0xbce00ecd	-0.027350808
4	0x3e22f016	0.15911898
5	0x3d7de87f	0.061989304
6	0xbc03920f	-0.008030429
7	0xbdf87acf	-0.12132799
8	0x3dbe26b4	0.09284726
9	0xbe0018c4	-0.12509447
10	0x3d8044ea	0.06263144
11	0x3cc4d536	0.024027448
12	0x3d4faea7	0.05070367
13	0x3cd91495	0.026499072
14	0x3dc5d74e	0.09660207
15	0xbc045ba7	-0.008078492
16	0xbc8c1f90	-0.017104894
17	0x3e0d1bf5	0.13780196
18	0x3c032644	0.008004729
19	0xbd3d13a5	-0.046161313
20	0x3e8a1b4e	0.26973957
21	0xbda83e64	-0.08215025
22	0x3c9510d9	0.01819651
23	0xbcb954f3	-0.022623515
24	0x3c5262e6	0.012840962
25	0x3c97c464	0.018526264
26	0xbe60023f	-0.21875857
27	0xbe03a669	-0.12856449
28	0x3db189d3	0.08668866
29	0x3e2f820b	0.17139451
30	0x3d89b9cd	0.06724892
31	0x3d0156e2	0.031577
32	0xbde9146a	-0.11380847
33	0xbd84d9f3	-0.06486883
34	0xbe98b732	-0.29827267
35	0xbda35ce6	-0.07976703
36	0x3e1f6508	0.15565884
37	0x3da7c1b9	0.081912465
38	0xbd945011	-0.07241834
39	0x3e24f824	0.16110283
40	0x3d2ccdc8	0.042188436
41	0x3bdda492	0.006764003
42	0xbc6052b2	-0.013691591
43	0x3e3cc1ec	0.1843335
44	0x3ddb75e9	0.10715849
45	0x3cc10757	0.02356307
46	0xbd44c615	-0.04804047
47	0xbda63621	-0.08115793
48	0x3e96c198	0.29444575
49	0xbd282f89	-0.041060958
50	0xbe81cfae	-0.2535376
51	0x3e30e36a	0.17274252
52	0x3e8e934e	0.2784676
53	0x3d93b91b	0.072130404
54	0xbe19ce74	-0.15020162
55	0xbc9814f2	-0.018564675
56	0x3e932430	0.28738546
57	0x3ee10b58	0.43953967
58	0x3e668a65	0.22513731
59	0x3d8b44b9	0.06800217
60	0x3e3e6f2a	0.18597093
61	0x3e87edde	0.26548666
62	0xbe1579ad	-0.14597197
63	0x3d1d3cd8	0.038388103
64	0x3e559e20	0.20861101
65	0x3d94655f	0.072458975
66	0xbddbdd0b	-0.1073552
67	0xbdc6722a	-0.09689744
68	0x3e08e82a	0.13369814
69	0x3e292d6c	0.16521233
70	0x3d95474d	0.0728899
71	0x3d3f4845	0.04669978
72	0xbe13a2e5	-0.14417608
73	0xbc43088c	-0.011903893
74	0xbe0720f0	-0.13196158
75	0x3dac40ea	0.08410819
76	0xbdcac622	-0.09901072
77	0x3dfe031a	0.12402935
78	0xbea5d34b	-0.32387766
79	0xbc2bd767	-0.010488368
80	0xbdfcebec	-0.12349686
81	0xbe742aeb	-0.23844497
82	0x3d811041	0.06301928
83	0xbe09db7b	-0.13462631
84	0xbd67169c	-0.056418046
85	0xbdb1f897	-0.08689993
86	0x3da0f05f	0.07858347
87	0x3e1200ec	0.14258164
88	0xbda42663	-0.08015134
89	0x3d8e5ce4	0.06951311
90	0xbdfbac2f	-0.12288701
91	0xbe54fa3b	-0.2079858
92	0x3e79944e	0.2437298
93	0x3e364d17	0.17802845
94	0x3def9b6f	0.116995685
95	0xbe80b599	-0.25138548
96	0x3dab5bd8	0.08367127
97	0xbe0feb25	-0.14054544
98	0xbd9716a4	-0.07377365
99	0x3908b991	0.000130391
100	0xbdc30b6a	-0.095236614
101	0xbda87658	-0.08225697
102	0x3d58f554	0.052968338
103	0x3d0dc406	0.03461077
104	0xbd840ef1	-0.06448162
105	0x3e1872fa	0.1488761
106	0xbdf27915	-0.11839501
107	0xbc502ec2	-0.01270646
108	0xbd8d8d8d	-0.06911764
109	0x3e0b5a43	0.13608651
110	0x3e31d688	0.17366993
111	0x3e332ad8	0.17496812
112	0xbdc4eb86	-0.09615235
113	0x3e1bb619	0.15206183
114	0xbdb96196	-0.09051816
115	0xbdd85ed0	-0.10564959
116	0x3c08dc32	0.00835328
117	0x3d31c7fd	0.043403614
118	0xbe0f5f7a	-0.14001265
119	0x3e0287d2	0.12747124
120	0x3d4af271	0.049547616
121	0x3de989fc	0.114032716
122	0xbdb373ec	-0.08762345
123	0xbdfa9c2b	-0.12236818
124	0x3d83f441	0.06443072
125	0x3e023d50	0.12718701
126	0xbd33643f	-0.043796774
127	0xbdac9385	-0.084265746
128	0x3d7e51b8	0.06208965
129	0x3cea56b0	0.028605789
130	0x3e8a3ed8	0.2700107
131	0x3d887a76	0.066639826
132	0xbd41d37c	-0.047320828
133	0x3e05cfef	0.13067602
134	0xbe5231e2	-0.20526841
135	0xbdb71b8f	-0.08940803
136	0x3e329424	0.17439324
137	0x3e05bea4	0.13061005
138	0x3d27de01	0.040983204
139	0xbe3ddba9	-0.18540825
140	0xbdcfe704	-0.101514846
141	0xbdcd7017	-0.10031145
142	0x3db32388	0.087470114
143	0x3d7413a8	0.05958906
144	0x3cb0de5a	0.0215904
145	0x3e228020	0.15869188
146	0x3d14fc8e	0.036373667
147	0x3d54a5c7	0.05191591
148	0x3e4e7745	0.20162685
149	0xbcc26e64	-0.023734279
150	0x3db24ee5	0.08706454
151	0x3d5632f1	0.052294675
152	0x3e38772e	0.18014213
153	0x3e936ea3	0.28795347
154	0x3d04f077	0.032455888
155	0xbe3b741e	-0.18306014
156	0xbd127bce	-0.0357626
157	0x3e070929	0.13187088
158	0xbd6a0dd9	-0.057142112
159	0x3adae072	0.001669897
160	0x3d37d561	0.04488123
161	0x3d1f72c6	0.038927816
162	0x3e3a39c6	0.18186101
163	0x3dd991f3	0.10623541
164	0x3deb86fc	0.115003556
165	0xbe34402d	-0.17602606
166	0x3dd9484e	0.10609494
167	0xbdac66e8	-0.08418065
168	0x3e147786	0.1449872
169	0x3d84f345	0.064917125
170	0x3d878579	0.06617255
171	0x3da3f90b	0.080064856
172	0xbdd4d689	-0.10392482
173	0x3ca8854c	0.020571373
174	0xbdfcd9f7	-0.12346261
175	0xbe920d58	-0.28525805
176	0xbcacf870	-0.021114558
177	0xbdfeb4c3	-0.12436821
178	0xbd9661d7	-0.0734288
179	0x3e134ce8	0.14384806
180	0x3dca7da8	0.09887248
181	0xbd317f22	-0.043334134
182	0xbe409b0c	-0.18809146
183	0x3e414795	0.18874963
184	0xbe109193	-0.14118032
185	0x3df21717	0.1182081
186	0xbd15c99b	-0.03656922
187	0x3d43200c	0.047637984
188	0xbdd7b119	-0.105318256
189	0x3e485b79	0.19566144
190	0x3e50243f	0.20326327
191	0x3e19ecaf	0.15031694
192	0x3cb4f396	0.022088807
193	0xbe9921bd	-0.29908553
194	0x3e3eb228	0.18622649
195	0xbbdac5b3	-0.0066763996
196	0x3de56480	0.112008095
197	0xbd462883	-0.04837848
198	0xba5ee4b9	-0.000850271
199	0x3dc09ada	0.094045356
200	0x3dceec4a	0.10103662
201	0xbe1c25bf	-0.15248774
202	0x3d62d8b5	0.05538245
203	0x3dd02e34	0.101650625
204	0x3dffead0	0.12495959
205	0x3d1c8d00	0.038220406
206	0xbcc8d6e6	-0.024516534
207	0x3d45b6b5	0.048269946
208	0x3e08afd1	0.13348319
209	0xbddd0235	-0.107914366
210	0xbdf9d0cc	-0.12198028
211	0x3dcec232	0.100956336
212	0xbd64cced	-0.055859495
213	0xbc158cf5	-0.009127845
214	0xbd9ad2e7	-0.07559758
215	0x3e3f4ead	0.18682356
216	0x3c8f560a	0.017497081
217	0x3d0bc5eb	0.034124296
218	0x3d15d7a5	0.036582608
219	0x3ce9a51c	0.028521113
220	0xbe61ab9d	-0.22038122
221	0x3d983458	0.07431859
222	0xbdb1ef0f	-0.08688175
223	0x3db1ed19	0.08687801
224	0xbccc126e	-0.024911132
225	0x3db43a3f	0.08800172
226	0x3de93839	0.11387677
227	0xbe34e652	-0.17665985
228	0xbe85e0cc	-0.2614807
229	0x3e03589b	0.12826769
230	0x3db8128d	0.08987913
231	0x3dce2a5d	0.10066674
232	0x3e30aa64	0.17252499
233	0x3e8b76cf	0.2723908
234	0xbe88c0ff	-0.26709744
235	0xbe9cb1da	-0.3060444
236	0x39d428bc	0.0004046614
237	0xbe570341	-0.20997335
238	0x3e087125	0.13324411
239	0x3dca0f78	0.09866232
240	0x3d06aecb	0.03288154
241	0x3e9e75a9	0.30949143
242	0x3c2c1ff5	0.010505666
243	0x3e5091dc	0.20368141
244	0x3d158d33	0.03651161
245	0x3e20c1c2	0.15698913
246	0x3c2de71f	0.010614186
247	0xbe23f4d1	-0.16011359
248	0x3e0892c6	0.1333724
249	0xbeb8c3a5	-0.36086765
250	0x3ddc343f	0.10752153
251	0x3d7babea	0.061443247
252	0xbda34fc8	-0.079742014
253	0x3d487653	0.048940968
254	0xbdfbe352	-0.12299217
255	0x3e00acf8	0.12565982

map_L2.bias f4 [16]
0	0xbd0c9256	-0.034319244
1	0xbd97467d	-0.073864914
2	0xbd981e0a	-0.074276045
3	0x3d8650f6	0.06558411
4	0x3e2919bd	0.16513725
5	0x3c952044	0.018203862
6	0x3e13b539	0.144246
7	0x3d91ba93	0.07115664
8	0xbd2b3297	-0.041796293
9	0x3d0d3cbd	0.034481753
10	0x3acca59b	0.0015613319
11	0xbd1826b9	-0.037146304
12	0x3cba96d3	0.022776997
13	0x3cf9bb6f	0.030484883
14	0x3d4c4035	0.04986592
15	0xbe486687	-0.19570361

map_L3.weight f4 [4, 16]
0	0xbe5872d0	-0.21137547
1	0xbf853cb8	-1.0409155
2	0x3eda2dfc	0.42613208
3	0x3e2eb000	0.17059326
4	0xbe3aa1d1	-0.1822579
5	0x3ef70bea	0.48251277
6	0xbec20475	-0.37894025
7	0x3e3b352c	0.18282002
8	0xbf175517	-0.5911421
9	0x3ea287bf	0.3174419
10	0xbd64e251	-0.055879895
11	0xbe4a0c4b	-0.19731252
12	0xbeb33cbd	-0.35007277
13	0x3ebf41e4	0.37354958
14	0xbf114b15	-0.5675519
15	0xbf222024	-0.6333029
16	0xbf1389b6	-0.57632005
17	0xbe960d9c	-0.29307258
18	0xbea08ab9	-0.31355837
19	0x3f313b00	0.6923065
20	0x3f34e69d	0.7066439
21	0x3e198e4b	0.14995687
22	0x3f3a2082	0.72705853
23	0x3f0a2ee8	0.53977823
24	0x3f337458	0.700994
25	0xbf1b50b0	-0.60669994
26	0xbdbfeb13	-0.09371009
27	0xbedc069e	-0.429738
28	0xbf6a35f9	-0.91488606
29	0x3c1a2c3a	0.0094099585
30	0x3d55833b	0.052127104
31	0xbeade21b	-0.33961567
32	0xbec3cc28	-0.38241696
33	0xbe4cad07	-0.1998788
34	0x3dfa2625	0.12214307
35	0xbdaabb0f	-0.0833646
36	0x3e01145e	0.12605426
37	0xbf078063	-0.5293028
38	0x3d94861c	0.07252142
39	0x3f4aa174	0.7915261
40	0xbf0168e2	-0.50550663
41	0x3f01985b	0.506231
42	0x3f196bab	0.59929913
43	0x3f04d6ac	0.51890063
44	0x3ee2ece5	0.4432136
45	0x3f0ce63e	0.5503882
46	0xbdced050	-0.10098326
47	0xbe65cf47	-0.22442351
48	0xbe98706b	-0.29773268
49	0xbf46f997	-0.77724594
50	0x3e2e5db7	0.17027937
51	0xbf02b381	-0.5105515
52	0xbf50ad22	-0.8151418
53	0x3c3b60b3	0.011436629
54	0xbee6f63f	-0.45109746
55	0xbec4bd25	-0.38425556
56	0xbf27c038	-0.6552768
57	0xbe87762b	-0.26457343
58	0x3dd0ba7e	0.101918206
59	0x3e84409b	0.2583054
60	0x3f00727c	0.5017469
61	0x3f1e6306	0.6186985
62	0x3ea66a68	0.32503057
63	0x3f3c392b	0.7352473

map_L3.bias f4 [4]
0	0xbcf1b468	-0.02950497
1	0x3da3c7c6	0.07997088
2	0x3c8a7ae6	0.016904306
3	0xbd8be507	-0.06830793

map_L4.weight f4 [1, 4]
0	0xbf869d3a	-1.0516732
1	0x3f301216	0.68777597
2	0xbfd43964	-1.6580014
3	0xbf94f401	-1.1636964
